checkpoint_actor_agent_1.pth (torch_old, 296382 bytes, 10 tensors)

fc1.weight f4 [256, 24]
00000000: 9ebc 443d 0f2c e33c 368f bcbb 6ac2 113d
00000010: 8aef 333d 3eb2 d03c 7d3b f2bb d4da 9a3c
00000020: 68ee 283e dde1 50bd da3a ebbc 94b7 41bd
00000030: af16 aa3c 322d 06bd 0fff 1f3c 1145 1d3d
00000040: 671f 033e 1692 873b e736 2f3d 6f99 b53c
00000050: c60e 5cbd 4b8c fbbd d18f 57bd 47ee 4abd
00000060: 43e1 263d cd6b 5b3d 4b8c a0bb 0596 62bc
00000070: caf4 9abc 05a9 a0bd 7c94 cdbb 8540 b0bc
00000080: e495 1abc f709 613c 1cfa 4fbd 6814 a93d
00000090: a79e 9abd 8301 2abe e3d1 dbbd d404 9b3d
000000a0: 2c20 a1bd 9833 d13c f1bd fb3c fe62 c83c
000000b0: e409 22bc 107f 54be 1a2a 90bd 3b71 f63c
000000c0: 3b21 98bd 2fbe 7c3d 0430 023d 137a adbb
000000d0: 5bac 6dbe a028 60be 9d45 e23a d766 14bd
000000e0: 1507 a63c ecd1 b3bb 249d 0a3d b664 89bc
000000f0: 814f e1bd 2906 b9bd 0c10 7e3c 2b87 c4bc
00000100: 338b a73c ff34 ee3b 5a97 383d e67b 0dbd
00000110: 15c4 69bc 069e 8cbd 4d60 1b3d 18a2 20bd
00000120: 07e2 9bbd 018e a23d 1491 6c3b 1ca9 453d
00000130: 958d 0b3e 8ddf 1abc 53aa 20bc 557b 4d3d
00000140: 0b02 ab3b 9bf1 a03d ddce afbc ce7a 02bd
00000150: 08b8 85bc c91a 203e 2b8e 4e3c df71 0bbd
00000160: 7371 a9bc 5ab8 b83b 73b8 a73b 03a7 1dbe
00000170: cd4c 023d ca94 513e 1e14 853b 3e4f 3abe
00000180: 6c87 9b3d 1b04 4abe 0b01 1a3c d787 d53d
00000190: 391a 2ebd 9180 7bbd f4ab cebc dc4f af3d
000001a0: 7a00 1d3d 4995 1abe 1510 ffbc dce8 2b3d
000001b0: 43d4 c7bd 7506 51bd 73db 4bbc 317c d63d
000001c0: 74f7 6f3d dfb9 02be 77a6 60bd dd69 c53d
000001d0: ee9e 57bc 032d c6bd 3623 20bc d9c9 013e
000001e0: b9d8 88bd 8813 083e 8e80 10bc 8a6e 90bc
000001f0: 56e4 713e 9325 2bbd c71a b1bc 28b7 a1bc
00000200: 832d 22bc 2cf8 993d 1fad db3b 04ed 69bc
00000210: 70b2 173e 9715 613d 50bf 0bbd 219e bbbd
00000220: e981 9f3c 9540 293d d197 1f3b c58e 0b3c
00000230: 0082 2a3d c22f 3f3e 6397 0bbc a923 493d
00000240: 51be d53d c3f2 62be 884d 9abc 74fb 01bd
00000250: 3275 98bc 040a 22be d092 623d e789 a4bb
00000260: c1ec 64b9 ac0b 85be 1ef6 d6bb 8932 a4bc
00000270: 3356 21bd aa58 27be 669f 813d 778b 8c3d
00000280: 7a62 0abd e983 45be 62e0 133c b9bc abbd
00000290: 7ae6 ecbd 5be0 f8bd d303 a93c 60f8 edbd
000002a0: 5083 6e3d ebb8 74bd 1efc a7bc 525f 42bd
000002b0: e1c8 88bd 99b2 dcbd a351 02bc 850e a1bd
000002c0: b694 5e3d 4bd1 48bd ae67 08bc 7065 febd
000002d0: 946f 9dbd 56da 81bd 57b6 823c a0d8 80bd
000002e0: b3e4 093e 631c 4dbd ef10 753b 5350 b3bd
000002f0: 40db 5dbd ee58 fd3d c09d 903c 3496 a4bd
00000300: d414 b03d 6697 823e 4a91 893a a445 243e
00000310: d478 b53d fb23 82bd 5a67 d33c f2be 153e
00000320: 8920 bd3d 046e 113e 0d34 cb3c a973 513d
00000330: 0ba3 28bd c412 9a3c a5ba 11bd 54d9 1f3d
00000340: 5402 a43d 07ed 553e 67f5 143c ee59 85bd
00000350: 667d a53c 7df5 ac3d 2bf5 293d 260e 49bd
00000360: 8690 b83c ba95 9cbc 0142 843d b598 f5bc
00000370: 185c e2bd c7b1 e7bd 4aca 30bb e333 94bc
00000380: a187 de3d b41e 3cbd 0db9 9d3d 03aa 20bd
00000390: 8ced 87bd 56d5 82bd 8362 153d 8446 403d
000003a0: e013 813d ee25 79bd bf6f 75bc f833 b33d
000003b0: 1b8c b03d 4cb3 1d3d 2f9c 733d 66ee 9c3d
000003c0: e39b a2bd 54a5 823d c559 8a3d 418f 5fbd
000003d0: 146a 8ebd 572d 893d 38da 32bd 24ed b2bd
000003e0: 2942 1fbb 3aad b53c de93 013e 0ffb 99bd
000003f0: 91a9 80bc 0450 b1bd fa02 d53c ccd8 3cbd
0.048031442 0.02773097 -0.0057543768 0.0355858 0.043929614 0.025475617 -0.0073923455 0.018903174
0.16497195 -0.05099665 -0.028714586 -0.047294214 0.02076277 -0.032757945 0.009765401 0.038395945
0.12804948 0.004137288 0.04277697 0.02216789 -0.053725027 -0.12282618 -0.05262739 -0.049543645
0.04074217 0.053569604 -0.0048995367 -0.013829713 -0.018915553 -0.07844738 -0.006273804 -0.02151514
-0.009435151 0.013735286 -0.050775632 0.08255845 -0.07549792 -0.16602139 -0.10733392 0.0756928
-0.078674644 0.025537297 0.03073022 0.024461266 -0.009890053 -0.20751595 -0.0703928 0.03008329
-0.07428213 0.06170481 0.031784073 -0.0052940934 -0.2321028 -0.21890497 0.0017263178 -0.03623089
0.020267049 -0.005487671 0.033841267 -0.016771656 -0.11001492 -0.09034378 0.015506756 -0.023990234
0.020452118 0.007269501 0.045066215 -0.034541987 -0.014267941 -0.06866078 0.037933636 -0.039217085
-0.07611471 0.07937241 0.0036097215 0.04825698 0.13628228 -0.009452713 -0.009806233 0.050166447
0.0052187494 0.078585826 -0.021460945 -0.031855397 -0.016323105 0.15635218 0.012607138 -0.034044143
-0.02068398 0.005637211 0.0051184236 -0.15395741 0.031811524 0.20466915 0.004061236 -0.18194291
0.07594189 -0.19728129 0.009399663 0.104263 -0.042505477 -0.061401907 -0.025228478 0.08560154
0.038330533 -0.1509601 -0.031135598 0.04197012 -0.097572826 -0.05103155 -0.0124424575 0.104729064
0.0585856 -0.12766217 -0.054846253 0.096393324 -0.01316045 -0.09676554 -0.00977402 0.12674655
-0.066819616 0.132887 -0.008819712 -0.017630834 0.2362226 -0.04178388 -0.021619214 -0.019740656
-0.009898546 0.07518038 0.0067039873 -0.0142777 0.14814162 0.05495223 -0.034117997 -0.0916102
0.019471126 0.041321356 0.0024351964 0.008517926 0.041627884 0.18670562 -0.00851998 0.049106274
0.104366906 -0.22162919 -0.018835798 -0.031733945 -0.01861057 -0.15824133 0.055315793 -0.005021322
-0.00021831972 -0.25985467 -0.006560101 -0.020043628 -0.039388847 -0.16342416 0.06329231 0.06862538
-0.03378532 -0.19288601 0.009025665 -0.08385605 -0.115673974 -0.121521674 0.020631706 -0.116196394
0.058230698 -0.059746664 -0.020505961 -0.047454186 -0.066789396 -0.10776252 -0.007954034 -0.078640975
0.05434104 -0.049027722 -0.0083255 -0.124216914 -0.076872975 -0.063404724 0.015956087 -0.06291318
0.13466148 -0.0500759 0.0037394126 -0.08755555 -0.05416417 0.123704776 0.017653346 -0.080364615
0.08597723 0.25506133 0.001049557 0.16042191 0.08860937 -0.06354519 0.025806118 0.14623621
0.09234721 0.14202124 0.024805093 0.051135693 -0.041171115 0.018807776 -0.03557839 0.03902562
0.080082566 0.208912 0.009091712 -0.06511293 0.020201396 0.08445261 0.041493576 -0.04908576
0.022529852 -0.019114364 0.06457902 -0.029980043 -0.11052722 -0.11313205 -0.0026976042 -0.018091148
0.10865713 -0.04592772 0.07701311 -0.039224636 -0.06637105 -0.06388347 0.0364709 0.04694225
0.06302619 -0.06082719 -0.014980256 0.087501466 0.08620473 0.03850107 0.05947512 0.076626584
-0.07939889 0.0637919 0.067554034 -0.054579977 -0.069538265 0.06698101 -0.04366514 -0.08736637
-0.002430091 0.022177327 0.12654063 -0.07518589 -0.015705856 -0.0865784 0.026002396 -0.04610519

fc1.bias f4 [256]
00000000: 2286 38be 5914 50be 39e4 7bbe 6abf 8b3d
00000010: b3d0 56bd aaf6 dcbe 4b85 9fbd 3d44 3abe
00000020: 9a26 5dbd 859f 49bd 62e5 0b3e 6e1f 8abe
00000030: 1628 e2bd 9ef4 40be 95e7 423e 5654 aebd
00000040: 63d8 81be f657 86bb c47b b8bd f0c6 8abe
00000050: 126a 72be 57b3 fbbd 6a9e 3abe 3ba9 70be
00000060: d5f6 79bc f247 a5bd bfcb 26bc 2ddc 0abe
00000070: 365a 87be 66cb 26be ea60 733d f4fe 543e
00000080: 2eeb 53be d832 8bbd 24e9 a63c 2fc0 48be
00000090: 2298 acbe 7cef 90be a5da 19be a5de e03c
000000a0: 6533 af3d a32a a2bd f65c 30bd 7b65 93be
000000b0: 706a 90be a610 31be 4d2e 00be f846 88be
000000c0: e86b 9bbe 6699 25be f2e0 20be e27f 63be
000000d0: efd3 7bbe 9749 0b3d 537c 99bd 3cf9 38be
000000e0: 86c2 c7bd 259d c4bc 6245 42be 2245 a4bc
000000f0: 0030 93be 1c9f 3e3d 0c2f 65be c6e7 19bd
00000100: 2274 8cbd be31 51be 7579 dbbc 5c29 55be
00000110: 07e9 0fbe 5348 bfbd 66e9 80be 9bde d1be
00000120: 7a32 4bbe b379 9abe cc41 47be 44a9 2fbe
00000130: 0a0b 65be bf01 00bd ada7 283e a8f0 32bd
00000140: c864 ffbd 895b fa3c 6f07 b83c c4bc 03be
00000150: 850f 0abe b3b4 a2be 10f5 ddbd e37c 423d
00000160: 5890 9abe f7eb 11bd 6f25 4bbe c199 46bd
00000170: 6a53 4abe ecd3 cdbd 0055 2e3e f56b c5bd
00000180: 7c3d 34be d6b9 a5bd e97c 3dbe 75fb bebe
00000190: 550f b83a 22c9 46be b978 83bd 272e a03d
000001a0: 323c 06bd 1f66 98bd b588 92bd 3c6b be3d
000001b0: 1431 4fbe 6d74 843b 3000 b7bb b44f 66be
000001c0: 3c41 89be d1fd 183d 6e9f 04bd 3485 44be
000001d0: 40d7 90be 616a b73a b8a0 ea3c a388 b7bc
000001e0: f8ab 5abe e1b9 113d 192c 6f3d 4a4d 48bd
000001f0: 0b5a 16be cef1 8d3d 8194 35bd 840b 90be
00000200: 2a83 65be 05db 60be dd2e 00bd 97ae edbd
00000210: 4586 543d 0bba cebd 6bc0 54be 793b 5dbe
00000220: 9dcd cfbd 24f4 44bd 7006 ae3b c78b 113d
00000230: ae9f 38be 0331 4f3e 9026 27be b297 223e
00000240: 1530 2abd aecd 41be 140d 87bd 8317 8f3e
00000250: 8f2e 4b3b bc8b babc 4e9e a0be 7fef fbbd
00000260: a4d0 debe 2586 29be 48d0 873c c3aa 6d3d
00000270: 6614 5f3d f826 443d fb0a 013e a2d8 25be
00000280: d3a4 9cbd ab13 f3bc ba5f 493e 12a3 833d
00000290: 1c7d 9bbd c7c1 e43d d8e5 7dbc 0c68 df3c
000002a0: a551 74bd bf33 2abe df5c 143e df96 09be
000002b0: 46ed 39be bb84 a3bd 2c15 c0bd 3005 ec3b
000002c0: 26fa 83be a386 49bd 96eb 42bd cc78 9cbe
000002d0: 2683 e5bd 61b8 88be 5800 67be a1eb a8bd
000002e0: 8520 b0bd e483 eb3c 950a 0abe 7f4b 00be
000002f0: 23ae 183d 3897 d03d 1bf9 20be 0ce5 d6bd
00000300: b0ef 383e 5ed2 103c 1498 09be 5f59 cf3c
00000310: 840a 39be cfbb 97be 3bf1 853e 5f06 95be
00000320: ec51 91be 9dec 15be 7b21 e4be 8a2c 36be
00000330: f3c7 1d3e 4e6e 68bd 2ebb 963c 4394 87be
00000340: 6e6e bbbd 11b2 7dbe c115 4cbe 5aad 903c
00000350: 6a21 44be dc73 70be 8658 1c3d 82c6 65be
00000360: e134 823c eb0a f0bd 56c1 b8bc cb31 573d
00000370: 15b2 6b3d 2bb6 5ebe 489d 72be 7acf ddbd
00000380: 8bc4 ff3d 980c 50be a22a 1bbd 3f80 98bd
00000390: 03c7 55be f5e4 f0bd c822 8bbd e661 55be
000003a0: 5390 fabd f6e8 803d d423 59be a05b 5bbe
000003b0: e135 9d3c 68b6 953d d5db 543d 7c45 073d
000003c0: f9db 78be abf6 eabd 03eb 093d 8e9e 76be
000003d0: 8366 473e 35b8 12bd ecf0 14be 0e3f fe3d
000003e0: 5733 a4be d30e 19be bcb9 3fbe f601 b8be
000003f0: 5172 23ba 9b3e e1bd 66d3 9dbe b48c 21be
-0.18019918 -0.20320262 -0.24598779 0.06823619 -0.052445125 -0.4315694 -0.077890955 -0.18190093
-0.05399189 -0.049224395 0.13661721 -0.26977104 -0.11042802 -0.18843314 0.19033654 -0.085121796
-0.25360402 -0.004099841 -0.090079814 -0.27104902 -0.23673275 -0.12290066 -0.18224493 -0.23502056
-0.015256603 -0.08070363 -0.010180413 -0.13560553 -0.26436013 -0.16288528 0.059418596 0.20800382
-0.20695183 -0.06796807 0.020374842 -0.19604562 -0.33709818 -0.28307712 -0.15024813 0.027449915
0.085547246 -0.079182886 -0.043057404 -0.2878836 -0.28206205 -0.17291507 -0.12517662 -0.26616645
-0.30355763 -0.16171798 -0.1571081 -0.22216752 -0.24592565 0.034005728 -0.07494416 -0.18063825
-0.09753899 -0.024000714 -0.1897178 -0.020052496 -0.2874756 0.046538457 -0.22381228 -0.037574552
-0.06858088 -0.20429131 -0.026791314 -0.20816559 -0.14053737 -0.093399666 -0.2517807 -0.40990147
-0.19843474 -0.30170974 -0.19458693 -0.17154413 -0.22367492 -0.031251665 0.16470213 -0.04368654
-0.124703944 0.030561225 0.022464482 -0.12864977 -0.13482483 -0.31778488 -0.108377576 0.047482383
-0.3018825 -0.035625424 -0.19838499 -0.048486475 -0.19758382 -0.100501865 0.17024612 -0.09639732
-0.1760158 -0.08092086 -0.1850468 -0.3730122 0.0014042655 -0.19412664 -0.064195104 0.07821303
-0.03277225 -0.07441353 -0.07154981 0.09297797 -0.20233566 0.0040421993 -0.005584739 -0.22491342
-0.26807582 0.037351433 -0.032378606 -0.19191438 -0.28289223 0.0013993495 0.02864109 -0.02240402
-0.21354663 0.03557766 0.058391664 -0.048901834 -0.14682786 0.06930886 -0.044331077 -0.28133786
-0.22413316 -0.2195855 -0.031294692 -0.11605566 0.051885862 -0.10094079 -0.20776527 -0.21604718
-0.101466395 -0.048084393 0.005310826 0.035533693 -0.18029663 0.2023354 -0.16323304 0.1587818
-0.04154976 -0.18926117 -0.06594291 0.27947626 0.0031003093 -0.022771709 -0.31370777 -0.1230154
-0.43518555 -0.16555078 0.016578808 0.05802418 0.054462813 0.047888726 0.12601845 -0.1619592
-0.07648625 -0.029672464 0.19665423 0.064275876 -0.07592222 0.111697726 -0.015496694 0.027271293
-0.059648175 -0.16621302 0.14488553 -0.13436459 -0.18156919 -0.07984301 -0.09379038 0.007202767
-0.25776786 -0.049200665 -0.047587954 -0.3056091 -0.11206655 -0.2670317 -0.22558725 -0.08248068
-0.085999526 0.028749414 -0.13480599 -0.125288 0.037275445 0.10185093 -0.15720026 -0.10492906
0.18060184 0.008839218 -0.1343692 0.02531117 -0.18070418 -0.29635474 0.26160607 -0.29106423
-0.28382814 -0.14641042 -0.44556794 -0.17790428 0.15408306 -0.05674582 0.018399801 -0.26480302
-0.09151922 -0.24774958 -0.19930173 0.017660785 -0.19153371 -0.23481697 0.03817036 -0.22439006
0.015894355 -0.117208324 -0.022553127 0.05253772 0.05754288 -0.21749179 -0.2369281 -0.10830589
0.124886595 -0.20317304 -0.037882455 -0.07446336 -0.20876698 -0.1176242 -0.06793743 -0.20838127
-0.12234559 0.06294434 -0.21205074 -0.21421671 0.01919073 0.07310182 0.05196746 0.03302525
-0.24302663 -0.114728294 0.03367139 -0.24083921 0.19472699 -0.035820205 -0.1454503 0.124143705
-0.3207042 -0.14947061 -0.18723196 -0.35938996 -0.0006234991 -0.10998269 -0.30825347 -0.1577633

fc2.weight f4 [256, 256]
00000000: c326 3f3d e392 9cbc a750 e83d e4d0 b63c
00000010: 2bcc d7bd dc03 fa3c be8f 973c e5bb 023e
00000020: fead 5b3d 0c08 03bd 0a22 813c ae4a 853e
00000030: 2fa9 773d e13e 063e 501c 7e3c a68a 96bd
00000040: 694f 24bd 3de8 2bbe 63ac 023d 1d1d 843c
00000050: c3cb 15bc 8b79 2f3d 3733 4cbd 94d6 dc3a
00000060: 7955 6abd aafa a13d e33a 063c a9fe dfba
00000070: 3331 ba3c 640f 04bd e45e 4abd 4b87 cf3c
00000080: 31cd 2d3e 2139 5fbe b370 5d3d c4bc e33d
00000090: d030 59bd 6cbf 533d c6dd e43c 3ca7 2c3d
000000a0: f67c 623d 76f0 40bd 7a23 353d 0d4f 4cbc
000000b0: 6152 9fbd eda2 1a3c 1c7d d13c 677d 30bd
000000c0: 85fd f1bd b1b7 ad3d 0105 5abe e9ca 8e3d
000000d0: c499 7bbd c45d 863e 84c9 463d 1ce8 8e3d
000000e0: 97f8 9ebc 9edb aeb9 e9c0 503c f014 dd3d
000000f0: 2093 4c3e be0d 1cbe 125a 2d3c 64d4 01bd
00000100: fadb 323e b569 ed3d f721 733b df69 39be
00000110: 87d6 1ebe c7b6 25bc fe55 01be 4569 e43d
00000120: fe8d cebb e600 45bd 5760 b9bd c72a 133d
00000130: 0720 343e 7495 25be c0df ae3c 24e9 083c
00000140: 4b9b 0ebd 857b 6fbd 55bb a23c 860f 9e3c
00000150: 7400 56bd f678 0c3e bf88 8d3c 1817 49bd
00000160: c61e 5f3c f006 323c cc06 69bd 5f42 ed3d
00000170: e4fb 213b da3d 8fbd 54bc 383c 98de 023d
00000180: a67d 453d 6fb5 413e 1699 11bd 5969 8d3d
00000190: 5a4f 0e3d 84ce 0c3e ff45 8d3d 7612 673b
000001a0: b1a2 a83a a458 4b3d a1e7 e2bd e3a3 b73c
000001b0: 3625 c0bd ad76 b33b 9bc6 503b 8f2c b93d
000001c0: 3ea5 0c3e 88c3 08bc 786b a33d 8b1b 553c
000001d0: cf82 b13a a857 003b 5bcc 46be 35ad 57bd
000001e0: 56db 0d3d e5c0 fa3d fe7b 52be 5086 e6bd
000001f0: 75d9 b63b 3506 27bd cee8 7c3d 41af bebb
00000200: 43fe 1abd 86e2 013e f004 dcbd 94f5 e93d
00000210: f6b8 6bbd 6371 9ebd 2ba5 d13d e13a 433e
00000220: d712 2dbe 943a 083e ca2f 8cbd 86e8 b03c
00000230: e938 3f3d 2327 1bbe dcc3 dfbd 7290 5e3d
00000240: da6a 55be b886 3cbe 0a12 353e e4ce 83bd
00000250: b585 103e 9138 86bc 0290 9a3d 0cb2 8ebd
00000260: 25d8 8a3c 0368 8abc a336 85bd daff 703d
00000270: 1f1c 0dbd 32a2 003d d913 5b3b fa20 a53d
00000280: 8880 7bbd 9ae9 653d 1d32 593e 8fe2 b0bd
00000290: 97dc 71bd c374 67bd 9a25 7d3d cbb4 1a3c
000002a0: af0b e03d 692f 05bd da26 f83c 026b f23b
000002b0: e27b cbbd 943e 063d 349b 34be 875c 153e
000002c0: f1ea a3bd 7fe2 d23d 7296 1dbe 5487 4f3e
000002d0: c6a7 e2bc 02eb aebd d0eb 6cbd 77c8 c53d
000002e0: 4b69 28be 6a59 603c d178 ecbc 26c2 4b3e
000002f0: 0035 80bd efc1 87be b8f5 90bd a153 073e
00000300: 05ca 8dbd 8912 02bc 7e34 00be de60 1a3d
00000310: c252 b93d 7b20 fbbd 8d7f 1cba ff53 17be
00000320: cead cf3c 4978 50bd 5387 a73b 0db5 333e
00000330: 5a03 f23d 5560 0fbd d7c3 dfba 6eda 813d
00000340: e020 933d 450b 443c 32b6 153c 757a 213d
00000350: a675 0c3b 9cdf eb3d acbe b63c a008 e23c
00000360: a63c 0e3e c589 2b3d 1373 733d 3810 2d3d
00000370: 7b06 4ebd 4516 b2bd e48e bf3d 305a b6bd
00000380: d3ea 9a3d 9647 c63d 17b9 903d 09b7 1e3d
00000390: c814 123e 60a1 543d cf49 133e 943f 9bbd
000003a0: 9b1b 71bd c8ef fd3d a392 e23d 7854 ba3d
000003b0: c92f 6abb b050 323d 63db 1abe cb0b f2bd
000003c0: 95b6 9fbd 29d3 f53d a90d 333d 2931 0cbe
000003d0: 3fe1 033e 3764 dcbd 691f 823c 0c78 893d
000003e0: e1a7 cb3c e5bc b33d f859 a7bd 01aa fc3d
000003f0: 0a63 7d3d d4df 39bd f7d3 493d a45c 5d3d
0.046667825 -0.01911301 0.11343508 0.022316404 -0.10536989 0.030519418 0.018501159 0.12766989
0.05363273 -0.031990096 0.015763301 0.2603354 0.06046408 0.13109924 0.01550968 -0.07350664
-0.040114794 -0.1678781 0.031902682 0.016127164 -0.009142819 0.04284052 -0.04985353 0.0016848617
-0.05721042 0.079091385 0.008192751 -0.0017089444 0.022728538 -0.03224124 -0.0494069 0.025333067
0.16972806 -0.21799137 0.054062556 0.111199886 -0.053025067 0.051696226 0.027937781 0.042151675
0.055294953 -0.04710432 0.044223286 -0.012470019 -0.077793844 0.009438259 0.025572352 -0.043088343
-0.11815933 0.08482302 -0.21290971 0.06972296 -0.06142594 0.26243412 0.048532024 0.06977865
-0.019405646 -0.00033351494 0.012741306 0.10795009 0.19977999 -0.15239617 0.0105805565 -0.031696692
0.17466727 0.11592428 0.0037099102 -0.18106793 -0.15511523 -0.010114378 -0.1263046 0.11152891
-0.006303548 -0.04809656 -0.090515785 0.035929468 0.17590342 -0.16170293 0.021346927 0.008356366
-0.034816068 -0.058467407 0.019864717 0.019294512 -0.052246526 0.13718018 0.01727712 -0.04909429
0.013618177 0.010865912 -0.056891248 0.11584925 0.002471679 -0.06994219 0.01127537 0.031950563
0.04821553 0.18916868 -0.035546385 0.06904859 0.034743644 0.13750654 0.06898116 0.0035258806
0.0012865869 0.04964508 -0.11079336 0.022417014 -0.093820974 0.0054767937 0.003185666 0.09041702
0.1373491 -0.0083473995 0.079794824 0.013007055 0.0013543012 0.0019583497 -0.19413893 -0.052655417
0.034633003 0.12243823 -0.20555112 -0.11256087 0.005580122 -0.040777404 0.061745457 -0.0058192317
-0.03784014 0.12684068 -0.10743129 0.114237934 -0.05754944 -0.077364706 0.102365814 0.1906543
-0.16901718 0.13303596 -0.068450525 0.02159525 0.046685133 -0.15151648 -0.10926029 0.054336973
-0.20841542 -0.18410766 0.17682663 -0.06435946 0.14113505 -0.016384395 0.075469986 -0.069675535
0.016948769 -0.0168953 -0.06504562 0.05883775 -0.034450646 0.03140468 0.0033428578 0.080629304
-0.061401874 0.056130983 0.21210523 -0.086369626 -0.05904826 -0.056507837 0.061803438 0.009442518
0.109397285 -0.032515917 0.030291963 0.00739801 -0.09935738 0.032774523 -0.1763733 0.14586078
-0.08003796 0.10297107 -0.15389422 0.20266467 -0.027667891 -0.08540918 -0.057842076 0.09657376
-0.16446416 0.013693193 -0.028866204 0.1989828 -0.06260109 -0.26515147 -0.07078117 0.13215496
-0.06923298 -0.007938989 -0.12520024 0.037690036 0.09048988 -0.122620545 -0.0005969934 -0.14778136
0.025351431 -0.050895963 0.0051125675 0.17549534 0.118170455 -0.03500398 -0.0017071915 0.0634049
0.07184005 0.0119655775 0.009137677 0.039423425 0.0021432429 0.115172595 0.022307716 0.027592003
0.13890323 0.041879434 0.059435915 0.042251796 -0.05029915 -0.08695654 0.09353426 -0.08903921
0.075643204 0.09681623 0.07066553 0.038748775 0.1426574 0.05191171 0.14383624 -0.07580486
-0.058864217 0.1239925 0.11063125 0.090981424 -0.0035734049 0.04353398 -0.15122752 -0.118186556
-0.07798497 0.12003166 0.0437142 -0.13690628 0.12878893 -0.10761302 0.015884118 0.0671235
0.024860324 0.08776263 -0.08171457 0.12337113 0.06186203 -0.045379475 0.04927441 0.054043427

fc2.bias f4 [256]
00000000: 4eb2 433d 1751 503d 99cb de3c 8b6c ec3d
00000010: 1294 2f3d fb13 603d a207 f83d 707f db3c
00000020: 893f 143d 9bf0 b43c 29fb 733d b9ee 8a3d
00000030: 2a16 c93c 5146 0cbd 16f5 483c 434d a43d
00000040: 3b28 a0bd 73b4 5c3d 1905 5dbd 6393 863d
00000050: 9ebd c33c 3e9f dc3d 7b4a 413d f4c8 6f3d
00000060: a3bb 60bc 59e7 933c 0fac 1bbd a665 8b3d
00000070: 567d 683c 25cb 953d db34 893d 970f 83bc
00000080: face f03c 3cf0 a1bd 7d47 f6bb 589a 873d
00000090: 4b02 2bbe 5d02 5fbc 8426 b23c c6e8 133c
000000a0: fdeb 013d fb83 583d b1e5 023e aead 693d
000000b0: b6dc 443d 1ad5 073c ec0f 893c f249 983d
000000c0: 59f7 b13c 2b09 6abd 2c75 6f3d cf17 7f3d
000000d0: 0758 c7bd 37e3 fbbc 2e61 9e3b ac30 d43d
000000e0: 2254 0ebc 8c75 22bd 4212 ba3d fee7 95bd
000000f0: 30e6 b93d c181 503c 5f2b 323d d5a9 423d
00000100: b067 6d3c 97d9 5dbd 6003 eb3c d539 a8bd
00000110: a569 17be 12ff 2b3d cf06 28bd 0097 c0bd
00000120: c8a7 a53d 3863 d93b 309e bcbb 2587 ac3d
00000130: 3afb 08bc 2a15 e9bc c1c9 78bb ff56 023e
00000140: 2733 8b3b 46b4 fb3c 4c79 2abd 9075 9abd
00000150: 69ef 9b3d 5821 103d 4d5b 843d e1cb b53d
00000160: e9ad 103d 9600 883b 737b 853d a8a3 993d
00000170: fdcc de3d 09a9 cc3c 31b2 94bd 289d 2ebd
00000180: fc0c fd3d dd6f d43c 6874 a23d 1f8e ebbd
00000190: b72c 053e c632 093e 75d4 febd 2151 0a3e
000001a0: 408c 99bc 18c4 563d c3aa bf3d 64d5 66bd
000001b0: 796a 9b3c bd71 efbd 2e5b 0a3e 3913 233e
000001c0: 6b3b e23d 9b46 6b3c 502d 1dbd 1c5a c23c
000001d0: 3d7b 353c 1b99 033e e434 863d 1f3e cd3c
000001e0: e335 193d eca8 fd3c 641f bf3d 5a7b 563d
000001f0: 4824 0fbc c991 8f3d 8f01 d43d a595 c1bb
00000200: f63f 003d 41ff f23d 9db0 833c 9f30 9fbd
00000210: e310 c13d e711 b13d ce75 0e3d 61d8 213d
00000220: 319e ad3d be20 2abd b4b6 333d 7d97 4a3d
00000230: 65d4 053c 3a35 c13c ba0d 803d 59b6 a4bc
00000240: cde4 d83d 166f 983d 1c0e bf3d 3de0 eb3d
00000250: e685 55bd ece8 9b3d eba9 76bb f25d 263c
00000260: 2287 b93d 4fe7 853a 4867 9bbb 53d1 8b3a
00000270: 7689 dabb f368 a5b9 99b8 51bd db86 dd3d
00000280: e223 89bc 54cf ec3c bad3 20bd 1737 153e
00000290: baf5 b1bc 2d57 573b aa8a a6ba 6617 c43d
000002a0: 87f2 7c3d 627e 3ebc cd3b acbd 046e 0cbb
000002b0: 3ae5 933d 279c 08bd d9bb 9a3d 0a99 1d3d
000002c0: 50e5 1ebd 2234 9e3d c1a1 683d c588 8b3d
000002d0: 931d 6c3d 012b bbbd 06d4 423d 7b1f b13d
000002e0: 2315 903d b677 823d 446a 233e d3b3 28bc
000002f0: 06f7 393e 2c22 123d 128b 38bd 0a98 2b3c
00000300: ffb5 6bbc d349 f0bd 0225 1fbd c4a3 b73d
00000310: efde 1d3d 0cd6 a43c d547 6f3d 81c5 a33c
00000320: 32d5 a4bc da64 223d a93f a33c 3493 48ba
00000330: 7465 d0bd 1455 a7bc 7f6b 233d edf7 f13c
00000340: 65b4 0f3e 0bdd f73d dcbb c8bc 47f4 a93d
00000350: af62 823d a943 1b3e 461f 34bc bf3c 77bd
00000360: e6e6 7ebd 5124 aa3c 7365 e63d 4c3c 7a3d
00000370: 7938 c3bd 5e23 aa3c edaa 913d bf60 063b
00000380: 1f5a 4b3d 21af 713b 50a9 f63c f708 613d
00000390: 38e7 e03d f785 e63d 9e5f df3d c50f a8bc
000003a0: e18b e53a 1728 8fbc a9f3 cd3d 38ae 25be
000003b0: 4a26 943d 7a45 b63d c0a6 003c bf47 58bd
000003c0: 704c 823c 6dd0 673d 50e8 d63c 1320 ab3b
000003d0: 91aa 1e3a d872 b93d 06d5 1d3d 71b5 af3d
000003e0: 28a2 8e3d 68bf 1e3e 7702 133d 7839 bebd
000003f0: 4b4e 543d 1dec 5fbd 2c50 e9bd c0e5 03bd
0.047777466 0.050858583 0.027196692 0.115441404 0.04286582 0.054706555 0.12110831 0.026794165
0.036193404 0.022087386 0.059565697 0.06783814 0.024546701 -0.034246746 0.012265464 0.08022549
-0.07820173 0.053883027 -0.05395994 0.065710805 0.023894127 0.107725605 0.04719017 0.058541253
-0.013716611 0.018054651 -0.038005885 0.06806497 0.014190039 0.07314137 0.066995345 -0.015998645
0.02939557 -0.07907149 -0.0075158463 0.066212356 -0.16700093 -0.013611403 0.021746881 0.0090276655
0.031719197 0.05286024 0.12782933 0.0570504 0.04806205 0.008290553 0.016731225 0.07435979
0.02172439 -0.05713765 0.058461353 0.062278565 -0.09733587 -0.030747993 0.004833362 0.10360846
-0.008687051 -0.039662883 0.09085514 -0.073196396 0.09077108 0.012726248 0.043498393 0.047525246
0.014490053 -0.054162588 0.028688133 -0.082141556 -0.14786394 0.0419913 -0.04102212 -0.09403801
0.08088642 0.0066341422 -0.005756162 0.08424214 -0.008360678 -0.028452475 -0.0037962052 0.12728499
0.004248041 0.03072561 -0.041619584 -0.075419545 0.07614023 0.03518805 0.06462727 0.088767774
0.035322104 0.0041504605 0.06517687 0.07501918 0.10878942 0.024982946 -0.0726055 -0.042630345
0.12355992 0.025932247 0.07932359 -0.11501717 0.13005339 0.13398275 -0.12442867 0.1350751
-0.018743634 0.052433103 0.09358742 -0.05635585 0.018971669 -0.11691616 0.13511345 0.15925302
0.11046489 0.014360095 -0.03837329 0.023724608 0.011076746 0.12851374 0.06553057 0.025054036
0.037404906 0.030964337 0.09332159 0.05236373 -0.0087366775 0.07010228 0.1035186 -0.0059077316
0.031310998 0.11865092 0.016075427 -0.077729456 0.09427049 0.08645993 0.034780316 0.039512996
0.08477438 -0.04153513 0.04387541 0.049460877 0.008168315 0.02358495 0.06252618 -0.020106481
0.10590515 0.07443063 0.09328863 0.115173794 -0.05212965 0.07612786 -0.00376379 0.010154234
0.09058978 0.001021603 -0.0047425367 0.0010667242 -0.0066692187 -0.00031549446 -0.051201437 0.10816737
-0.016740743 0.028907456 -0.03926442 0.14571796 -0.021723617 0.0032858357 -0.001270612 0.095747754
0.06175473 -0.011626812 -0.084098436 -0.002142788 0.07221456 -0.033352043 0.0755536 0.038476028
-0.03879291 0.07724787 0.056794886 0.06813196 0.05764539 -0.09139062 0.047565483 0.086485825
0.070352815 0.06370489 0.15958506 -0.01029678 0.18160638 0.03567712 -0.045054503 0.010473261
-0.014386653 -0.11732831 -0.038853653 0.08966783 0.038542684 0.020121597 0.058418114 0.019991638
-0.02012119 0.03964696 0.019927816 -0.00076513295 -0.10175601 -0.02042631 0.03989744 0.029537166
0.14033659 0.121027075 -0.02450364 0.08298545 0.06366479 0.15162529 -0.010993784 -0.060360666
-0.06223192 0.02076927 0.11249819 0.06109266 -0.09532256 0.020768818 0.0711268 0.0020504443
0.049646493 0.0036878067 0.030110031 0.05494019 0.109816015 0.112560205 0.109069094 -0.020515332
0.0017513001 -0.017475171 0.1005624 -0.1617974 0.072338656 0.0889997 0.007852256 -0.052802797
0.015905589 0.056595255 0.026233822 0.0052223294 0.0006052638 0.09055108 0.038533233 0.08579529
0.069645226 0.15502703 0.035891023 -0.09288305 0.05183248 -0.054668535 -0.11392245 -0.03220153

fc3.weight f4 [2, 256]
00000000: bdff b83e cf09 45bd 8e92 a3be 8304 31be
00000010: 63c8 d13e be27 d6be a3d8 2cbe 40a0 6f3e
00000020: 3fa5 9fbc 7600 873e 9a9c bebd ea6c 993c
00000030: 6bfa b03e 8050 0b3e cf45 8a3e 6fa0 fe3d
00000040: 0cab d63e b662 0c3e 35f2 053f e52b 51be
00000050: 4568 1d3f 52cd 5a3e ebfe b93e 9cc7 85be
00000060: 6539 90be a8b5 7b3d 8bf2 07bf b494 88be
00000070: da77 013e 62ab 84be 4686 5dbe ce84 a0bd
00000080: 4326 773e 01c1 893e d1e5 863e bb64 e03e
00000090: 59fc 9e3e 02be 8abe c2c0 be3e 705e bbbe
000000a0: f6ff 65be fa58 9fbe 0e9e f63e 7187 133e
000000b0: fba9 f0bd 93dd f53d 4a58 4a3e 0552 9f3e
000000c0: 1484 9f3e 10b0 a9be 54c6 d03b 36dc 483e
000000d0: 852d a23e 20cd 1a3e 8477 b1be 700d 91be
000000e0: f885 c8be 924a 87bd 4944 7dbe bc49 d73d
000000f0: 6986 963e 9bd1 a03e 2e04 cf3d bbef f23e
00000100: 5e3d 67be 6d6a 453e 21f2 6dbe 0e6b 79be
00000110: e401 a7be a773 6e3e 0af6 013e c6a1 9bbe
00000120: 3541 173e c4f3 0abe 62d0 93be f248 01be
00000130: 2e00 053e 0f61 fc3e 8f3f 80be 24e1 77bd
00000140: 38de 0b3e e2b4 ca3e 46df 2c3e bd74 243e
00000150: 37a6 d23e b7fc a53e b88e a8be e757 813e
00000160: a7c7 8abe 8a7e 9ebe 0a2c 353e fe0d eabb
00000170: 6c3c ba3e e68e 0b3f 2b2e 6ebe b64f 133e
00000180: 16ba fc3b d6dc 633d 3833 aebe bf69 a5be
00000190: 3ff3 953e 4e46 4abe 4bd7 a3be d51c 85be
000001a0: 849c f03e 766c 67be b1e9 b4be 090f 5e3e
000001b0: e458 b1be dbc5 9f3e c9b7 f23e 5bff b2be
000001c0: b9d5 523e 81bd f63d 66e6 e53e 88bb 0a3e
000001d0: 33e3 34bc e0a2 243e 9a87 6d3e abda b43e
000001e0: fa1a d03c 4ab9 683e 970f 02be c236 78be
000001f0: a65b b93e 15d0 63be 426f 393e 6d65 64be
00000200: f21e 25be 33d1 f13e aa79 98be dc84 a13b
00000210: ac99 a33e 4e27 0a3f 2008 b73e c442 d9be
00000220: 8b4b db3e 8556 953e c125 b2be f4f8 ba3d
00000230: 42d7 a4be 0296 bfbe ff1c cb3e 5ff9 b5bd
00000240: 2419 dd3e 4b74 c1be 4d27 49be 683c ec3e
00000250: ff2e d0be 4bb9 603e 965d 043d 7f33 ff3e
00000260: 7809 94be 3d4a eabd 3f2e 43be 2311 923e
00000270: f7b2 d8be cecd cebe a32c 1dbd 179e bfbe
00000280: 1ba1 bdbe c3cc c1be 116c 5f3d 1eda dc3e
00000290: afaa 293e ea05 833e b7a0 033d 3300 83be
000002a0: 8329 3e3d 2606 adbe b275 093e 5a0d 65be
000002b0: 0b66 bc3b c63e 94be 3117 c5be f10f dbbe
000002c0: 2d71 173e 78db 4b3e eb3e de3e 10a4 8dbe
000002d0: afd3 093e cbaa 623e 27d2 ec3d 8c5e 9b3e
000002e0: fb5e 72be 4336 61be e366 ed3e 6194 ecbc
000002f0: db22 af3e 574a 22bc 7dd8 8fbe be85 f13d
00000300: 61c5 a63e 0559 c5be ca5c 05be 801e 3d3e
00000310: d60c f3bd 9960 87be 85b1 283e 6377 983e
00000320: 54e8 9cbe 525b 79be 804c acbe 6e3a 393d
00000330: 6392 bbbe 13a9 923e 25e8 9b3e c3a2 a0be
00000340: 0142 c13e 4f14 783e 1cb7 c4bd 7b2f e53e
00000350: 3bea 083f dad3 c73e c151 8abe 3678 e2be
00000360: 9980 323e c598 e53d 9fc8 ae3e 2126 9a3e
00000370: 6157 403e 9872 d6bd 1073 3a3e a4c1 d93e
00000380: cf1e 60be 4169 823d fc14 c3bd 31f1 dd3d
00000390: 5e2f 0d3f 9290 3e3c 59db 49bd eb4f c9be
000003a0: e0a9 db3d 7852 9c3e 29fe be3e a62c 0ebf
000003b0: ec31 f83d 9e28 83be c361 ab3e c5f2 85be
000003c0: 1ded 36be 6b1f 97be 903d 6b3d a1ba 9b3e
000003d0: b3d0 e6be ce89 23be 2189 313c 5f95 11be
000003e0: 238e d6bd 7cc5 59bd bfef a2bd 2e34 bbbe
000003f0: f6af 97be a1db cdbe f281 d7be faff 99be
0.36132613 -0.048105057 -0.3194775 -0.17286877 0.40973195 -0.41827196 -0.16879515 0.23400974
-0.019487975 0.2636754 -0.09307213 0.018728692 0.34566054 0.13604927 0.27006385 0.12432944
0.41927373 0.1370953 0.52322704 -0.204269 0.6148723 0.21367386 0.363273 -0.26128852
-0.2816879 0.061452538 -0.53104466 -0.2667595 0.12643376 -0.25912005 -0.21633253 -0.078378305
0.2413569 0.26905063 0.2634721 0.4382685 0.310519 -0.2709809 0.37256438 -0.36595488
-0.22460923 -0.3112257 0.4816746 0.14407136 -0.11751171 0.120051526 0.19760242 0.31117263
0.31155455 -0.33142138 0.006371299 0.19615254 0.31675354 0.15117311 -0.34661496 -0.28330564
-0.3916471 -0.0660602 -0.2473308 0.105121106 0.29399422 0.31409916 0.10108219 0.47448525
-0.22582003 0.1927888 -0.23236896 -0.24357244 -0.3261863 0.23286305 0.12691513 -0.3039686
0.14770968 -0.13569552 -0.2886992 -0.12625483 0.1298835 0.492928 -0.2504849 -0.060517445
0.13658988 0.39591128 0.16882047 0.16060157 0.41142437 0.3241937 -0.32921386 0.25262377
-0.27105448 -0.30955917 0.17692581 -0.0071427813 0.36374223 0.5451492 -0.23259799 0.14385876
0.007712613 0.055630527 -0.34023452 -0.3230724 0.29287145 -0.19753382 -0.32000193 -0.2599856
0.46994412 -0.22599968 -0.35334542 0.21685423 -0.3463813 0.3120564 0.47405842 -0.34960446
0.20589341 0.12047864 0.44902343 0.135481 -0.011040497 0.16077757 0.23196259 0.3532308
0.025403488 0.22726932 -0.1270126 -0.24239638 0.36202735 -0.22247346 0.18108848 -0.22304316
-0.16125086 0.4722992 -0.29780322 0.004929168 0.3195318 0.53966224 0.35748386 -0.4243375
0.42831072 0.29167572 -0.3479443 0.09129515 -0.3219548 -0.37419134 0.3967056 -0.088854544
0.43183243 -0.37784037 -0.19643898 0.46139836 -0.40660855 0.21945684 0.032315813 0.49843976
-0.28913474 -0.11439941 -0.1906061 0.285287 -0.4232404 -0.40391392 -0.038372647 -0.374253
-0.37036976 -0.37851533 0.05454642 0.4313516 0.16569017 0.2559045 0.03213569 -0.2558609
0.046426307 -0.33793753 0.13423803 -0.22368374 0.005749469 -0.28954142 -0.38494256 -0.427856
0.14789267 0.1990794 0.43407378 -0.27664232 0.13459657 0.22135465 0.11563521 0.3034557
-0.23669045 -0.21993355 0.4636756 -0.028879346 0.3420628 -0.009905419 -0.28094855 0.117930874
0.32572463 -0.3854448 -0.13023677 0.18468666 -0.11867683 -0.26440886 0.16473968 0.29778585
-0.30646002 -0.24351242 -0.33652115 0.04522174 -0.36635122 0.28644618 0.3045055 -0.31374177
0.3774567 0.24226497 -0.09605238 0.44762787 0.5348241 0.39028817 -0.27015498 -0.4423234
0.17431869 0.11210779 0.34137437 0.30107215 0.18783332 -0.10471076 0.18207955 0.4253055
-0.21886753 0.06367732 -0.09525487 0.10837019 0.551504 0.011631148 -0.04928145 -0.39318785
0.107257605 0.3053167 0.37303284 -0.5553688 0.12118897 -0.25616926 0.33473024 -0.2616178
-0.17863889 -0.29516158 0.057431757 0.30415824 -0.450811 -0.15970537 0.010835917 -0.14217137
-0.10476329 -0.05316685 -0.07955884 -0.36563247 -0.29626435 -0.40206626 -0.42091328 -0.30078107

fc3.bias f4 [2]
00000000: 1dbf b1bd 5b43 95bd
-0.0867903 -0.07288238

bn1.weight f4 [256]
00000000: 9ea0 813f 8679 543f 91ff 553f 41c7 4f3f
00000010: 739d 633f 323e 803f 074f 723f 1ebb ca3e
00000020: 2558 113f a45f 893f 830d 593f d601 f83e
00000030: b148 f93e ab62 053f babf f93e d614 0d3f
00000040: d82b 8b3e 38c7 463f b6f6 e63e 1d55 883f
00000050: e4b0 203f 09de 5c3f 5046 693f e7ab 413f
00000060: e14c 5e3f 4954 093f 5184 723f 7259 683f
00000070: 9de8 963e 428e 3f3f cc0c 633f 6733 bd3e
00000080: d298 933f f3c6 703f 6360 383f 9aa5 743f
00000090: 795e a93e 6404 133f 36a1 983f 759c 303f
000000a0: 0599 6f3f 5dfa 423f 9b17 553f efb2 973f
000000b0: a07e 503f aeeb 333f 28b9 a83f 3d08 0e3f
000000c0: 56eb 203f 12ae 483f 3e20 823f 527e 323f
000000d0: fa83 8a3e 7b17 533f b714 143f 7001 5f3f
000000e0: 5c44 973e 8643 1c3f dbe9 563f e2c7 8d3f
000000f0: dfe0 123f 9d40 ef3e fe3f ba3e 1842 9b3f
00000100: 77de 9a3e 856e ef3e b217 803f 4661 8b3f
00000110: 3692 143f 7a0f 103f 9ac1 253f 2389 613f
00000120: 6e6d 6b3f 8c7c 7e3f 506e b23e 6d68 1d3f
00000130: 5689 f13e 8cc5 003f 1037 613f c8c4 5c3f
00000140: e6d6 813f 018e ff3e e48f 443f 6c17 b43e
00000150: e699 823f 6d3d 143f 9af6 293f e5b9 f23e
00000160: bb3b 523f 6243 313f 82c7 aa3e 1843 803f
00000170: f5aa b33e d026 963f 6f1f d83e 2dce c73e
00000180: f174 7e3f 58dd 113f ff3c 7d3f d6ea b73e
00000190: f248 a83e fc99 493f efad 503f 19e5 363f
000001a0: 2937 263f f96b 443f 4a33 5a3f 4a3a a73e
000001b0: 23e6 123f d7a7 203f 1929 423f 75ec da3e
000001c0: eecc e13e ed4c 583f 3ad9 953f 9bed 753f
000001d0: e5c5 303f 0b86 833f f239 b33f 53f5 d93e
000001e0: a136 2f3f 3a49 923f cdba 2a3f 24a4 153f
000001f0: 9261 6a3f 1a1a 8b3f 18f3 223f 77cc 2f3f
00000200: c50e 083f 1136 793f 77a4 ab3e 28d9 823f
00000210: 9348 533f ed9c ea3e 4479 0d3f 0009 803f
00000220: 4ba8 183f a875 a03f 5c8c ac3e f57f 8b3f
00000230: 1040 b83e 0fdd 183f 65e1 2d3f 0e32 943f
00000240: 1b7d 413f 9661 8e3f d0c0 923f 4c43 353f
00000250: bd24 d83e da02 383f 78e4 083f 65c7 813f
00000260: 4f4e c93e facb 2d3f 976c 263f 8ff5 893f
00000270: 4073 fe3e b12e 7c3f b949 993e 505f 7c3f
00000280: d0e8 383f 1958 b83e a4e3 803f 5aed 8c3e
00000290: 72be 7a3e 7f22 173f 5028 1c3f ad4d 3e3f
000002a0: 2dc3 c33e d52c 313f 5ef6 6c3f bbe3 563f
000002b0: db7b 5e3f fab2 243f eb2a 3d3f 85a5 1b3f
000002c0: 154a 3c3f 195a 9f3e 869b d33e 8a1d ce3e
000002d0: 61e2 813f 102a 173f e742 f93e a267 5e3e
000002e0: 4d07 243f 2c56 053f b91f 9d3e 4817 d03e
000002f0: 6e0e 8f3e 9931 b23e 3403 593f 241e 233f
00000300: d7aa 283f 90f0 233f cec9 013f 5999 ae3e
00000310: 0ad3 533f f7d2 573f 5889 963e ed11 4f3f
00000320: f49c 6d3f 1982 473f 6ec3 593f 5b53 653f
00000330: 7ee2 2f3f a522 453f 764d 743e b758 833f
00000340: 1e88 983f 2735 613f d4c8 95be 6b56 943e
00000350: 73a3 713f cce1 be3e 4c91 543e ff56 3c3f
00000360: d868 0d3f 6aa4 7c3f 75e2 913f fc18 293f
00000370: 0710 aa3e 1946 033f 9dc4 363f d4f7 453f
00000380: 3797 8c3e e666 0c3f 4903 3b3f f7fc 963f
00000390: ccb9 0b3f 3a4c 703f c63f 983f ffe8 023f
000003a0: e70a 423f ac60 f43e 6f14 9a3e 124d 853e
000003b0: cb88 913e a2cc 6f3e 880c 2a3f f633 5c3f
000003c0: 74cb 113f 14de f63e 248c 513f 6c26 dc3e
000003d0: 5d7c 893f 354b 8e3f bf8f 223f 8d45 4e3f
000003e0: edb6 bc3e 2e47 3a3f 040d 203f 5e59 903f
000003f0: 2075 523f 9e27 a33e 2d69 583f c288 483f
1.0127141 0.8299793 0.8359309 0.8116341 0.88912123 1.001898 0.94651836 0.39595884
0.5677512 1.0732312 0.8478624 0.484389 0.48688272 0.5210368 0.48779088 0.5510992
0.27181888 0.77647734 0.451101 1.0650975 0.62769914 0.862763 0.91122913 0.7565293
0.8683606 0.53644234 0.9473315 0.9076148 0.29474345 0.74826443 0.886914 0.3695328
1.1531012 0.9405357 0.72022074 0.9556519 0.3307989 0.57428575 1.1924198 0.68988734
0.93592864 0.76163274 0.83239144 1.1851481 0.81443214 0.70281494 1.3181505 0.5548132
0.62859094 0.7839061 1.016609 0.69724 0.27053815 0.82457703 0.5784411 0.8711157
0.29544342 0.6104053 0.83950585 1.1076624 0.57374376 0.46728984 0.36376947 1.2129545
0.30247852 0.46764007 1.0007231 1.088906 0.580356 0.56273615 0.6474854 0.8809988
0.9196385 0.99408793 0.34849787 0.61487466 0.47175092 0.5030143 0.87974644 0.86237764
1.0143707 0.49913028 0.7678206 0.3517412 1.0203216 0.5790623 0.6639191 0.4740745
0.8212239 0.69243443 0.33355337 1.0020475 0.35091367 1.1730595 0.42211482 0.39024487
0.9939719 0.5697837 0.989212 0.35921353 0.32868153 0.78750587 0.815154 0.71443325
0.6492792 0.76727253 0.8523451 0.3266166 0.5738241 0.62756103 0.7584396 0.42758527
0.4410166 0.8449238 1.1706917 0.9606568 0.69051963 1.0275282 1.4002059 0.4256998
0.6844273 1.1428597 0.66691285 0.58453584 0.9155513 1.086734 0.6365218 0.68671364
0.53147537 0.97348124 0.33523914 1.0222521 0.82532614 0.4582285 0.5526316 1.0002747
0.59631795 1.2535906 0.33700836 1.0898424 0.35986376 0.5971231 0.6792205 1.1577775
0.7558152 1.1123531 1.1465092 0.7080581 0.4221553 0.7187935 0.53473616 1.0138975
0.39317557 0.6788937 0.65009445 1.0778064 0.49697304 0.98508745 0.29939058 0.98582935
0.72230244 0.36004713 1.006947 0.27524835 0.24486712 0.5903701 0.6099901 0.74337274
0.38234845 0.69209033 0.92563426 0.8394124 0.8690774 0.64335597 0.7389361 0.6079944
0.7355054 0.31123427 0.41329592 0.40256912 1.014721 0.5904856 0.48683855 0.2171922
0.6407364 0.5208461 0.30688265 0.40642762 0.27940696 0.34803465 0.8477051 0.63717866
0.6588568 0.64038944 0.50698555 0.3410137 0.82743895 0.8430628 0.2940166 0.8088673
0.92817616 0.7793289 0.8506383 0.89580315 0.68704975 0.7700599 0.23857674 1.0261449
1.191654 0.8797173 -0.29254782 0.28972182 0.9439003 0.37281644 0.20758551 0.73570246
0.55238104 0.98688376 1.1397234 0.6605375 0.33215353 0.51278836 0.7139376 0.7733128
0.27459118 0.5484451 0.7305189 1.1795949 0.5458038 0.9386631 1.1894462 0.51136774
0.75797886 0.47730005 0.30093715 0.26035362 0.28424677 0.23417905 0.6642537 0.86016786
0.5695107 0.48216307 0.8185446 0.42998064 1.0741078 1.1116701 0.6350059 0.80574876
0.3685831 0.7276486 0.6251986 1.1277273 0.8220997 0.31866163 0.84535486 0.78333676

bn1.bias f4 [256]
00000000: 2e99 7bbd d2f8 1bbc 162e 4f3d d4bd e73c
00000010: d27e 083d 3d3a e73c ff3f 603c 1445 b73c
00000020: c625 ce3b b6b8 ab3b 3c7f d2bc 8e76 283d
00000030: 3a6a 30bd c63a 453d fd30 723d e9f5 833c
00000040: b61b 9e3c 2de1 1d3d 3185 b53c 147d 5b3d
00000050: 2f4e adba a934 2ebd cdbd 54bd 5351 d23d
00000060: fb22 c83c 82fc b23d 16f8 d8bb 25ab 1bbc
00000070: 581b bf3d adb2 6b3d c933 89bd 432b 5abd
00000080: b962 c03c 53be 1c3e 8c2b 8e3d ed13 263d
00000090: f204 b6bc 0fd9 8ebc a15b 4f3d 6e03 823c
000000a0: e916 1d3d 5387 94ba 96fa 233d 03c6 a63d
000000b0: 8d79 b63c 266c 02bd 2850 da3d aae4 f23d
000000c0: 615c c03d e9db 8abd d9a0 4d3d 4dc7 d8bc
000000d0: 7db9 c03d 18a8 c63d e71c 90bd a4ae fcbc
000000e0: 3d4b a0bb af3e c73d ca45 813c 2a8b b7bc
000000f0: 3ae6 e03c a6d8 143d 563f e2ba de06 8e3d
00000100: a4de 593d b2d5 843c 569b 7a3d cf13 3e3d
00000110: d7e2 b53d b343 10bd 4cb9 4c3d 5adf b0bd
00000120: 5e06 c33d 7166 1d3d 5a8c 8f3d b1f1 d23b
00000130: bd40 11bd 7e29 72ba 5aca ce3c 415d 993c
00000140: 429a 893d b8f5 943d 9770 493b 39a6 b53d
00000150: 4cce c83c e8ca 5ebc e371 da3d c26e f23c
00000160: 1ef7 583d 3883 21bd 678a 473c 77b5 fbbb
00000170: fad5 6fbd bd3b 493d c543 60bd b806 c13b
00000180: b9ae 3bbd 2048 6cbd 7e9f d73c 003d 0d3e
00000190: 3d4d a1ba fb69 81bd 92e3 f8bb c287 8abc
000001a0: 2ce7 a83d 8828 40bc 4f64 e93b 2157 a23c
000001b0: 1362 bdbc e190 4d3d c7eb cebc b6e8 873c
000001c0: 0043 0fbd aef7 43bd dbc1 0a3e c325 6a3d
000001d0: b782 8cbd 9a4f 4bbd 5add f63c 9fa3 563d
000001e0: 4b53 333d 7242 643d bd1b 1c3d 3fec 2fbc
000001f0: 6fcd e8bc b40f 313c c4e6 89bc fdc7 00bd
00000200: c8d2 533d 8ae8 a73a bebc 373d 4064 1aba
00000210: 48c2 dd3d 637e 86bd fd4c 78bd 5915 1dbc
00000220: 24a4 bc3d 6762 983c bcef c23c d056 143d
00000230: 2311 4dbd dccf fc3d dc43 703d f009 6cbd
00000240: 35d7 32bd ef0e 30bd ce66 143d 091c a53c
00000250: bdbc 0fbd e8cb 88bc 88ae c2bd 7a64 06bc
00000260: c4ed 913d a7e5 c7bd c840 01bd 4f5c ac3c
00000270: 18f2 b33d 4721 903d eb65 c23c db9b 043d
00000280: 303f 9f3d 06df ea3c 0ce3 00bd ccf1 c23d
00000290: 0266 033e 1b68 0d3d 8f87 423d cac5 093d
000002a0: 6f19 2abc d04c 0a3d db16 033c 2d59 023d
000002b0: 12cc 463d 7c2f cabd 6ec0 dfbc f86f 94bd
000002c0: fa37 933d 5ae1 09bd 652f 113d 09d4 023e
000002d0: 3ac5 a83c c2e8 303d 75f5 13bd 9ead 19bc
000002e0: bfc7 cf3c 1272 dcbb 6e78 f0bc 05ff 87bc
000002f0: 8068 b03a 7c5b 0b3d 2f56 99bb f1c6 23bd
00000300: 17c1 793c b7a9 683d 8231 2a3d 84e0 883b
00000310: 22b1 683d 4f03 883d 428e 1fbb d8dd 1e3d
00000320: e37f 783c 23be 68bd 9d9b 013e 6a6b 4bbd
00000330: 3cd0 ae3c 9a99 2f3d 2a4a eb3d 9d03 24bd
00000340: c22a fa3c c2fb d7bb 3062 f93d 76a8 183d
00000350: 48f0 edbb 87d4 863d 6010 1bbd 2161 72bd
00000360: 4da6 303d d128 753d d5a1 803c 9b3e a83d
00000370: 0788 223a 368b 913d 12ed adbc 8c16 a23d
00000380: 1428 0c3e b77e d5bc f80f 653c 1eca 223d
00000390: c14b 873b 2b48 56bd 1a7b 62bd 0a39 9dbc
000003a0: 5a59 873a 67d8 203b 3925 803d 3e0c 19bd
000003b0: 8fd4 013e cebb 87bc 7b62 b53c 88c8 553d
000003c0: a288 d73d 104b e7bc 8983 f1bc 7578 82bd
000003d0: 7c70 403c 80cf e43c 19a8 133c 57d8 943c
000003e0: 941d 51bd d776 823a 3c0d 7f3d 530d 0d3c
000003f0: d644 8e3d 17ab e0bc 4a6d f43d f1d1 1f3d
-0.06142538 -0.009519773 0.05058106 0.02828876 0.03332407 0.028226012 0.013687133 0.022371806
0.006291124 0.005240525 -0.025695436 0.041128688 -0.043070056 0.048151754 0.05912875 0.01610847
0.019300323 0.038544822 0.022158237 0.05358608 -0.0013222153 -0.04253069 -0.05193882 0.102694176
0.024430742 0.08739568 -0.006621371 -0.009501253 0.09331387 0.057543445 -0.0669933 -0.053263914
0.023484575 0.15306978 0.069419 0.040546346 -0.022219155 -0.017437486 0.050624494 0.015870776
0.038351927 -0.0011331834 0.0400339 0.081432365 0.022274757 -0.03184142 0.1065982 0.118600205
0.0939262 -0.06780226 0.050202224 -0.026462222 0.09410379 0.0970003 -0.07036763 -0.030844994
-0.0048917816 0.09728753 0.015780348 -0.022405226 0.02745353 0.036339425 -0.0017261307 0.069349036
0.053190842 0.01621518 0.061183296 0.04640561 0.08881157 -0.035220813 0.0499814 -0.08636351
0.09522699 0.038427774 0.07009192 0.0064375033 -0.03546213 -0.000923775 0.025242973 0.018721225
0.067188755 0.0727343 0.0030737275 0.08869595 0.024512433 -0.013598181 0.106662534 0.029593829
0.052970044 -0.03943178 0.012178994 -0.0076815444 -0.058553673 0.049129236 -0.05475213 0.0058906935
-0.045820925 -0.05768597 0.026321169 0.13792801 -0.0012306344 -0.06319042 -0.007595488 -0.016910437
0.082472175 -0.011728413 0.0071225534 0.019816937 -0.023118054 0.050186995 -0.025258912 0.016590457
-0.034976006 -0.047843628 0.13550512 0.05716492 -0.068608694 -0.04963646 0.030134846 0.052402135
0.043780606 0.05572743 0.03811239 -0.010737478 -0.02841827 0.010806967 -0.01683367 -0.031440724
0.05171469 0.0012810391 0.044857733 -0.0005889572 0.10828072 -0.06567075 -0.060620297 -0.009587609
0.09210995 0.01860161 0.023795955 0.036215603 -0.05006517 0.123443335 0.058658466 -0.057626665
-0.04366227 -0.04298299 0.036230855 0.02015497 -0.035092104 -0.016698793 -0.095059454 -0.008202666
0.07125428 -0.097605996 -0.03155592 0.02104011 0.0878641 0.07037597 0.023730239 0.032375198
0.07775724 0.028670799 -0.03146653 0.09518775 0.12831882 0.03452311 0.04749256 0.033635892
-0.01038204 0.03376466 0.008001055 0.031823326 0.04853446 -0.09872338 -0.027313437 -0.07247919
0.07188411 -0.033662178 0.03544559 0.12776197 0.020601857 0.043190725 -0.036122758 -0.0093797725
0.025363801 -0.0067274654 -0.0293543 -0.016601095 0.0013458878 0.034022793 -0.0046794633 -0.039984647
0.01524379 0.056802478 0.04155112 0.004177155 0.056809552 0.06641256 -0.0024346267 0.038785785
0.015167209 -0.056821954 0.12657018 -0.049662985 0.021339528 0.042871095 0.11488755 -0.04004251
0.030537967 -0.006591291 0.12176931 0.037270032 -0.00726131 0.06583505 -0.037857413 -0.05917466
0.043127347 0.05985338 0.015702168 0.08215066 0.0006200079 0.071066305 -0.021231208 0.07914457
0.13687164 -0.026061399 0.013980858 0.039743535 0.0041289036 -0.05231492 -0.05529318 -0.019192237
0.0010326311 0.0024543048 0.062571 -0.03736519 0.12678741 -0.016569044 0.022141686 0.052193195
0.105241075 -0.028234035 -0.029481666 -0.063706316 0.011745568 0.027930975 0.009012246 0.018169565
-0.0510536 0.000995363 0.06226848 0.008609134 0.06946723 -0.027425332 0.11934908 0.039018575

bn1.running_mean f4 [256]
00000000: 0400 0000 6ba5 503f b5aa ed3f de5e d73f
00000010: 5cd9 9c3e 36e2 183f bd4c 833f 5a11 9e3e
00000020: 18c4 2d3f 67cf 2740 2e26 a140 8fc9 373c
00000030: 0400 0000 a6c5 093f fdae 9a3f 9197 1d3c
00000040: 0df8 2e3f aff8 083f 6b79 593d 6f3f a83f
00000050: db2d ac3f b247 9132 0400 0000 cd43 fe3d
00000060: 59ee 8e3f d72a 973e cbcb 873f bf6a d23e
00000070: 1d39 203d 1164 983f 4a3a 2240 add1 2840
00000080: 734e c33f 14de ae3d 6113 543b cb41 8640
00000090: e260 4d3a eaa8 813f fc51 623c f69c c439
000000a0: dd39 583f 28d2 553f e840 463e bf8b 2c3e
000000b0: c30b 8a3d 0400 0000 c7f7 453f 0400 0000
000000c0: a929 0300 0400 0000 1d94 c13c 19b8 393c
000000d0: a71c 433f 1114 ab3e 95b5 4e3f ab24 b23e
000000e0: eed7 0b40 3e0e c23e a090 cd3f 28a0 ed3d
000000f0: 9a1f 313f 0f42 5a39 c433 a13f 9f09 103d
00000100: 60cb 213e 448f b23e e94b c73e 9972 2e3e
00000110: 83a6 1d3f c94c 0c3f 0400 0000 657a 3f3d
00000120: 715a 0c3d 7289 593e 19cf 2b39 ae8f b63f
00000130: 5808 053f cb3e 9e3e 7df3 3a40 8366 1f3e
00000140: 0ad4 0840 f821 cd3e 8632 193f 0400 0000
00000150: 7e70 623e b1cf 863e 813b 0d3f b136 b73c
00000160: d2b2 4c39 0400 0000 1379 063e 60f2 853e
00000170: 0400 0000 72ca 4f3e e94b 873f 1dd2 9b3f
00000180: 4b30 3a40 0400 0000 4c67 543b 17db cc3e
00000190: a001 f83f 0924 b43e 0400 0000 7e27 2f3f
000001a0: 572a e53f 636a ae3e f0d2 7b3f 7cec 2a40
000001b0: 8219 373f d096 613e 4294 4c40 df72 823f
000001c0: e39d 2d40 0400 0000 9057 e33d c963 273f
000001d0: 3eb0 c13e 0400 0000 c1b4 cd3f 1c4c 0c3e
000001e0: 372e 5f3f c4d3 8a3b 1ee5 4b3f 47c9 553e
000001f0: 82df 5240 8c80 513f 2c7d 283e b212 793e
00000200: 775b 1d3f 9cde 7d3e 960c d83f 2b0f 013e
00000210: 24a0 763d 224e 2f3f 79a2 7737 9d86 723f
00000220: 2610 a13e 54eb 323f 4643 c43e ec3c 743f
00000230: bb75 d73d cc82 5b3f b0a8 ba3f 5457 1240
00000240: a859 e53f 88ab af3c 482a 333e d19f 5640
00000250: 1d6b 243e 993d 523f 0400 0000 d4bc 943d
00000260: 0651 183e 0400 0000 443d 823f 105d 6c3e
00000270: b33c e83f deb6 ab3e 2759 663f d63e 393f
00000280: 60ad 8e3f 62b4 8839 d6ae 3340 d546 673f
00000290: 0400 0000 80cc 1f3f 6458 643f 7630 043f
000002a0: 0400 0000 8d66 523e 1b80 103f f8e3 913f
000002b0: 6851 983f 7586 bc3a 5fb5 723a 8886 cb3d
000002c0: 36df 233c 4608 4940 0bcf e13e c19d 063e
000002d0: b00e f83e 29fb 803d 0400 0000 5fb5 2040
000002e0: ad9c 763f 0400 0000 740f 573d 354a e23f
000002f0: fe3d 3f3f f202 b23f 85f2 5b3d 3db9 9b3f
00000300: eff1 7d3f e0bc 543c 18d5 473f cd59 be3d
00000310: ecd3 c03f 0400 0000 77c9 5f3f 14c7 113b
00000320: 694c a73e dbb1 3040 0400 0000 525b 2f40
00000330: 14b7 2840 9329 433f 932b c23d 0625 253e
00000340: d7d6 c93f 5c62 e93e 0400 0000 0427 5a3f
00000350: 5ae2 a93e 0400 0000 99e1 7a3f 0400 0000
00000360: d9c0 863e a2a8 063f 2dc5 973e b450 eb3f
00000370: 68b5 3a3e 33df 073e 1ae6 753d ffcb ee3e
00000380: 0fd6 0540 1af1 b03e 5d11 893f 083c 073e
00000390: d037 4b3e 1bf0 3240 8cb9 363e 405d 3a3e
000003a0: eec1 1d3f e17f 043f c5ce fb3b 59b4 903f
000003b0: d2c0 1e3f bd8b 8340 d391 8a3e 0400 0000
000003c0: f0b2 aa3d 1cc8 6240 9f32 8e40 42aa 103f
000003d0: 9357 683f 1a4c 413a 31a0 3e40 3af2 b93e
000003e0: a40c 853e d82f 1d40 0b8d e13f 8039 4c37
000003f0: a670 723f 0400 0000 0400 0000 33db b43d
6e-45 0.8150241 1.8567721 1.6825826 0.30634582 0.5972017 1.0257794 0.30872613
0.6787734 2.6220338 5.0359106 0.011217489 6e-45 0.5381721 1.2084652 0.009618656
0.68347245 0.5350446 0.05309431 1.3144358 1.3451494 1.6912825e-08 6e-45 0.12415276
1.1166488 0.29524872 1.0609068 0.41097066 0.039116967 1.1905538 2.5348077 2.6377976
1.5258316 0.08538452 0.0032360184 4.1955314 0.0007834566 1.0129673 0.013813492 0.00037500978
0.8446329 0.835238 0.19360697 0.16850184 0.067405246 6e-45 0.77331203 6e-45
2.90451e-40 6e-45 0.023630196 0.011335396 0.76215595 0.33413747 0.8074582 0.347936
2.1850543 0.3790149 1.6059761 0.11602813 0.69188845 0.00020814709 1.2593923 0.035165425
0.15800238 0.34874928 0.38925102 0.17035903 0.615822 0.54804665 6e-45 0.046747584
0.03426594 0.21243837 0.0001638498 1.4262598 0.51965857 0.30907282 2.9211113 0.15566449
2.1379418 0.4006498 0.5984272 6e-45 0.22113225 0.2633033 0.5516892 0.022364946
0.00019521572 6e-45 0.13132124 0.2616148 6e-45 0.2029207 1.0570041 1.2173496
2.9091976 6e-45 0.0032410203 0.40010902 1.9375496 0.35183743 6e-45 0.68419635
1.7903546 0.34065542 0.9836874 2.6706839 0.71523297 0.22030187 3.196549 1.0191306
2.7127616 6e-45 0.111006856 0.65386635 0.37829775 6e-45 1.6070787 0.13700908
0.87179893 0.00423667 0.7964648 0.20877562 3.2948918 0.8183677 0.16454 0.24323538
0.6146769 0.2479195 1.6878841 0.12603442 0.060211316 0.68478596 1.4760176e-05 0.94736654
0.31457633 0.6989033 0.38332576 0.9540546 0.10520502 0.85746455 1.4582729 2.28658
1.7917986 0.021444097 0.17496598 3.3535044 0.16056485 0.8212524 6e-45 0.072625786
0.14874658 6e-45 1.0174947 0.23082376 1.8143524 0.33537954 0.89979786 0.72361505
1.114666 0.00026074337 2.8075461 0.90342456 6e-45 0.6242142 0.89197373 0.51636446
6e-45 0.20546933 0.56445473 1.1397696 1.1899843 0.0014383333 0.0009258594 0.09937769
0.010001948 3.14113 0.44103274 0.13146116 0.48448706 0.06297905 6e-45 2.51107
0.9633282 6e-45 0.05250497 1.7678896 0.7470397 1.3907149 0.05369808 1.2165905
0.99197286 0.012984484 0.7805953 0.09294472 1.5064673 6e-45 0.87416786 0.0022243904
0.32675484 2.7608554 6e-45 2.7399487 2.6361742 0.7623531 0.094809674 0.16127405
1.5768689 0.45582855 6e-45 0.85215783 0.33180505 6e-45 0.98000485 6e-45
0.26319006 0.52601063 0.2964262 1.8384004 0.18233263 0.13268737 0.060033895 0.46640012
2.09119 0.34558946 1.0708424 0.13206494 0.1984551 2.7959049 0.17844218 0.18199635
0.6162404 0.5175763 0.007684561 1.1305038 0.6201297 4.110808 0.2706438 6e-45
0.08334911 3.5434637 4.4436793 0.5650979 0.9075863 0.0007373706 2.9785273 0.36317617
0.25986207 2.4560452 1.7621168 1.2172735e-05 0.9470314 6e-45 6e-45 0.088308714
