checkpoint_critic_agent_1.pth (torch_old, 324026 bytes, 9 tensors)

fc1.weight f4 [256, 52]
000000 75 86 08 be ce 44 aa 3c 84 85 c3 bc e4 d2 2d be
       -0.13332541 0.020784762 -0.023867376 -0.1697498
000010 d2 6c c4 bf 2a 44 f4 3d 4e c4 12 bd 71 c8 19 be
       -1.5345709 0.11927064 -0.035831742 -0.15017869
000020 b0 68 98 3e 22 79 6f 3f 69 a3 27 bd b3 70 fe 3d
       0.2976737 0.9354421 -0.040927324 0.124238394
000030 d7 2b 61 c0 c0 7a ca 3c 2f 1b ac bd 98 2a 04 3e
       -3.5183008 0.024716735 -0.08403622 0.12906873
000040 a8 a8 63 3e b7 39 96 3f d4 1c a4 3c 5f 17 9c 3c
       0.22232306 1.1736363 0.020033278 0.019054113
000050 1b 99 9a c0 f2 f8 e2 3d f5 78 88 bd f2 74 25 3b
       -4.8311896 0.11082639 -0.06663696 0.0025246707
000060 b6 dd e7 3c 91 99 8d 3f 19 0e b5 3c aa 42 5e 3e
       0.028303962 1.106249 0.022101449 0.21705118
000070 37 4e b5 3f b2 8e 2f 3e 0c e8 34 3d 20 62 4f 3e
       1.4164494 0.17144278 0.04416661 0.20252275
000080 e1 02 eb 3d fe 7a 09 3f ca 1c b9 3c c9 38 be bd
       0.114751585 0.53703296 0.022596736 -0.09288175
000090 a7 b7 5a 40 1b 4b a4 3d 9b 7b 96 bc 6a 37 07 be
       3.4174592 0.08022138 -0.018369487 -0.13204733
0000a0 c5 d2 25 bd d5 53 dd be a7 44 e1 3c 1d 91 d4 3b
       -0.04048421 -0.4322802 0.027498556 0.0064870254
0000b0 50 3d 9b 40 38 d5 16 3e 2c 0d 36 bc 7b be 7b 3d
       4.8512344 0.14729774 -0.011111539 0.061460953
0000c0 71 8c 25 3f 02 30 dd bd be 73 01 be 7f 6b 57 bf
       0.6466742 -0.108001724 -0.12641808 -0.841484
0000d0 3b ec 83 3f ba a8 f7 be 2e 31 38 bd 4e 4f e6 bd
       1.0306467 -0.48370916 -0.044968776 -0.11245595
0000e0 22 04 58 3f b4 c3 3a bf 18 46 80 3a 5e 08 e5 bd
       0.84381306 -0.7295487 0.0009786515 -0.111832365
0000f0 d5 48 89 3f 54 4f 16 bf 1d ae d9 bb 01 91 db bc
       1.0725352 -0.58714795 -0.0066430704 -0.026802542
000100 3c 6c 3d 3f 48 c1 8c bf 30 63 91 bc 37 d5 f6 bd
       0.7399328 -1.0996485 -0.017747492 -0.12052386
000110 ef ea 39 3f 20 07 10 bf 0d fe 84 3b 4c 69 89 bd
       0.72624105 -0.5626087 0.0040586055 -0.06709537
000120 02 41 2a 3f 21 e5 a1 be 8c ed 8a bd 36 f1 94 bd
       0.66505444 -0.31620124 -0.0678359 -0.0727257
000130 41 fa 7e 3f 3f 63 90 3d 3f b9 d9 bc 16 29 29 3e
       0.9960061 0.0705018 -0.02657759 0.1651958
000140 92 f4 62 bf af d3 39 bf 08 b6 cf bd 30 fd 09 3e
       -0.88654435 -0.7258863 -0.101421416 0.1347549
000150 76 57 85 3f b4 be 5a 3d 79 33 27 bd 4e 24 e0 3d
       1.0417316 0.053404525 -0.040820573 0.109444246
000160 bf 6f 36 bf e2 2d 91 bf 06 b9 2e bb f5 06 42 3e
       -0.7126426 -1.1342127 -0.0026660576 0.18947966
000170 78 1d a0 3f 5d 0f 0d bf 10 a4 02 3e 4e 5d e7 bd
       1.2508993 -0.5510157 0.12757897 -0.11297093
000180 5b 94 21 bf 1b d0 a1 be f2 ca f3 3d c7 73 55 bc
       -0.63117 -0.31604084 0.11903943 -0.013028092
000190 a7 1a b3 3e 86 df 9d 3f f1 bd 95 c0 1e 57 28 3f
       0.34981272 1.2333839 -4.679436 0.6575793
0001a0 26 98 c3 bc 44 24 f8 bc da 19 11 be 27 06 48 bf
       -0.023876261 -0.03029073 -0.14170018 -0.7813439
0001b0 40 71 a6 be 27 d1 0e bf 55 4d b2 bd 2b 33 4d bf
       -0.32508278 -0.5578789 -0.08706156 -0.801562
0001c0 e7 c0 08 3f ee b9 a6 be cf eb 26 be fc b6 a8 bd
       0.53419346 -0.32563728 -0.16300891 -0.082380265
0001d0 b9 4b 88 bd 43 48 b0 3e cd 54 e2 bd 84 7b ae bd
       -0.06655068 0.3443013 -0.11051331 -0.085196525
0001e0 bc eb 93 3f 3d 40 4e be 53 d1 1d be 2e a0 cd 3e
       1.1556315 -0.20141692 -0.15411882 0.4016127
0001f0 ba 91 38 bd 2d d7 4a 3f 3f 48 cd bd d2 db d0 3e
       -0.04506085 0.7923458 -0.100235455 0.4079271
000200 74 83 28 3f f7 f9 58 bf 19 f3 73 3e 35 dd 17 3f
       0.6582558 -0.84756416 0.23823203 0.5932191
000210 7d 0a b9 3e 6b 14 1d bf 49 8c 4a 3e 0a a4 15 3f
       0.36140814 -0.6135928 0.19780077 0.5845343
000220 1e 23 59 3f 31 b1 c0 bf 32 9e 1d 3d 62 b2 d9 bd
       0.8481921 -1.5054075 0.038480945 -0.10629727
000230 e3 5e a0 3d 0f 7e d1 3e fc 69 4d 3c 8e 60 1f be
       0.07830598 0.40916488 0.012537476 -0.15564176
000240 e1 70 79 3f 01 73 f8 bf e3 9c 83 bd c7 b4 36 3f
       0.97437865 -1.9410096 -0.06426408 0.71369594
000250 af f8 50 3d b6 a4 59 3f ee 41 2f be 87 45 36 3f
       0.051018413 0.85016954 -0.17114994 0.7119984
000260 03 af de 3f d4 0b 85 bf d3 9a 58 c0 12 36 09 c0
       1.7397159 -1.0394235 -3.3844497 -2.1439252
000270 16 b9 47 bf bb 45 58 3e 97 e8 38 be cd 92 f4 be
       -0.78016794 0.2112035 -0.18057476 -0.4776825
000280 78 a9 de be 6f 0f 48 3f 08 0c 2e be f3 9c ff be
       -0.4348867 0.7814855 -0.16996777 -0.4992443
000290 73 bb f0 bd 04 be 0b 3f 9c 9d 18 be df fc c8 bf
       -0.11754503 0.54586816 -0.14903873 -1.570217
0002a0 b8 52 da be c4 06 69 be f5 72 27 be 36 db c0 bf
       -0.42641234 -0.22756487 -0.16352446 -1.5066898
0002b0 ff 29 86 3e 81 fa c1 be 59 b5 0f bd db 0f 14 c0
       0.26203915 -0.37886432 -0.035085056 -2.3134677
0002c0 c5 53 e7 3e 7f d5 08 bf cf c8 92 bc ac be 10 c0
       0.451811 -0.5345077 -0.017918019 -2.2616377
0002d0 6e e3 43 be 9c 8a f2 3e 05 25 eb bc 3e 45 8c 3d
       -0.19129726 0.47371376 -0.028704176 0.068491444
0002e0 2b 27 e7 3e 7e bb 45 3f 98 0e 8d bd 5a da 3b 3c
       0.4514707 0.77239215 -0.06887549 0.011465633
0002f0 2e 7d 57 3e 1f db 2f 3f ab 60 11 3c 58 ee 70 bd
       0.21043846 0.6869373 0.008873145 -0.058821052
000300 50 24 09 3f 80 7a 85 be 46 6c 3a bd 34 37 e1 bd
       0.53571033 -0.26070023 -0.045513414 -0.10996857
000310 8d 72 c4 3e c3 77 3f 3f 57 8e f9 3c 57 b0 87 3f
       0.38368645 0.74792117 0.03046338 1.060069
000320 d4 37 ef be c8 76 07 bf 18 6a c9 bc f3 a1 89 3f
       -0.4672228 -0.5291562 -0.024586722 1.0752548
000330 1c 40 66 bd 89 a5 9b 3f 2f 6e 5f 3f 0e e0 80 3f
       -0.056213483 1.2159892 0.872775 1.0068376
000340 f7 49 21 be 2c d1 d6 3f b1 5b e7 bc c5 5f c1 bd
       -0.15750872 1.6782584 -0.028241964 -0.09442095
000350 01 5d 98 3d 3d 81 93 3e 24 da 74 bc 52 89 08 be
       0.07439614 0.28809538 -0.014944587 -0.13333634
000360 e2 c0 02 bc de c7 a9 3f bd ad 84 3c fa 71 7b 3d
       -0.007980557 1.326412 0.016196126 0.061387993
000370 75 54 1a bf a6 bf 8c be 9b 9c a5 bb 5e d3 05 3e
       -0.6028512 -0.27489966 -0.005054069 0.13068911
000380 5f 80 05 3d 7b 0b 10 3f e5 b2 c1 b9 f4 f1 7e be
       0.032593127 0.5626752 -0.00036945115 -0.24896985
000390 b6 5d ef bf a4 d7 5f bf 8c 46 9b bd 6e 32 43 be
       -1.8700473 -0.87438416 -0.07581815 -0.19062206
0003a0 7d f8 01 be eb d2 4f 40 aa ed bd 3c 64 9e d2 bc
       -0.12692447 3.2472484 0.023184616 -0.025710292
0003b0 1a 39 cc bc 37 ed aa 3e b1 84 34 bd f8 ae 51 bd
       -0.024929572 0.33384106 -0.044071857 -0.051192254
0003c0 4a 6b 54 3e b2 4e 49 40 18 3c 15 bd 17 bc c7 3e
       0.20744053 3.1454282 -0.036434263 0.3901069
0003d0 d6 5d 2c 3f 42 87 8b be 29 0e 19 bc fe 80 c3 3e
       0.6733068 -0.2725163 -0.009341755 0.3818435
0003e0 70 4a 77 3d 51 9a 4d 40 1f 32 33 3c 76 f5 96 3e
       0.060373724 3.2125437 0.010937243 0.29484147
0003f0 a3 7a f0 3f 22 49 76 bf 53 4f 95 bd 24 0b a8 3e
       1.8787426 -0.9620534 -0.072905205 0.32821

fc1.bias f4 [256]
000000 76 e6 60 bf 26 47 43 bf 30 1c d0 bf fd dd 2a bb
       -0.87851655 -0.7628044 -1.6258602 -0.0026072257
000010 3e 2c 5e bf 2b ea 14 3d bf 9c d4 be 2a c9 ed be
       -0.8678626 0.036356132 -0.41525838 -0.46442538
000020 68 73 e9 be 67 2b 4c 3f 6c 6e 7a bf 2e 56 d1 bd
       -0.4559586 0.79753727 -0.9782474 -0.102215156
000030 3d dc 02 c0 c5 2c 08 bd c5 fc 2d be bc 58 84 bf
       -2.0446923 -0.03324582 -0.16990955 -1.033958
000040 73 20 72 be 1a e0 bc bf f4 da 50 bf fd 93 aa be
       -0.23645191 -1.475589 -0.81584096 -0.3331603
000050 0e dd 87 be 75 73 66 3e a8 a3 e5 be 8c 30 38 bf
       -0.2653584 0.22504981 -0.44851422 -0.71949077
000060 06 9e bb be 7d 9f 97 3e ab 0a 5c bf be d4 9c bf
       -0.36644 0.29613867 -0.8595378 -1.2252424
000070 73 06 8e 3e 50 f7 2f bf 0e 63 8e 3e 42 74 48 3e
       0.27739295 -0.68736744 0.27809948 0.19575599
000080 03 9f 57 be 24 0d f7 3e 94 95 45 bf c1 d0 07 bf
       -0.21056752 0.48252213 -0.77181363 -0.5305291
000090 df 50 0f bf 87 9d c7 bd 1c d1 c1 3e 9f 69 db 3f
       -0.55982774 -0.09746843 0.3785485 1.7141608
0000a0 22 55 e9 be dc de b7 bf 49 9e b9 be 70 9e d4 3e
       -0.45572764 -1.4364886 -0.36253574 0.41527128
0000b0 53 1b 09 bf 0b ad d2 bf f7 c1 82 bf d0 ca 35 bf
       -0.5355732 -1.6459059 -1.0215443 -0.7101259
0000c0 53 2d 45 bf e9 31 8c be b1 7e 81 bf c1 f2 74 bf
       -0.77022284 -0.27381828 -1.0116788 -0.95682913
0000d0 f2 55 00 bf 0a 3c 08 bf 82 99 6a bf d1 27 75 bf
       -0.5013114 -0.5321661 -0.91640484 -0.9576388
0000e0 1f da 26 c0 46 bd a0 bf f2 6b 9c bf 8b 9e a6 bf
       -2.607063 -1.2557762 -1.2220442 -1.3017133
0000f0 ba 18 00 bf 36 f8 43 bf e9 0f 4b be 33 71 60 bf
       -0.5003773 -0.76550615 -0.19830288 -0.8767273
000100 da 8d 57 bf fa 85 0b bd f1 3c 4c bf 2f 7f 39 c0
       -0.84200823 -0.034063317 -0.7978049 -2.8983877
000110 6c 7f 5f be 75 9f 49 bf c1 a6 02 be 98 0f 0f c0
       -0.21825951 -0.7875894 -0.12758924 -2.2353268
000120 a9 4f f6 bf d8 16 f9 bc 23 34 53 bf ed 6f 85 bf
       -1.924306 -0.0304064 -0.8250143 -1.0424782
000130 6e aa 95 be a0 01 60 bf 65 c7 09 3f bd a4 82 be
       -0.2923159 -0.8750248 0.53819877 -0.2551631
000140 8f 00 1c bf 11 79 ee be bd ae 01 bf 65 c1 08 bf
       -0.6093835 -0.4657674 -0.50657254 -0.53420097
000150 9c f9 de 3e db 79 84 bf f5 00 66 bf b9 3b 73 bf
       0.43549812 -1.0349687 -0.8984521 -0.95013005
000160 30 9f 0c c0 a2 d7 8b 3e 8e d6 19 bf ac 9d 93 be
       -2.197216 0.27312952 -0.6009301 -0.28831232
000170 8d d8 79 bf 29 ee 91 bf ee 46 f2 be 1b f0 7a 3d
       -0.97596055 -1.1400806 -0.4731974 0.06126414
000180 c3 b3 a2 be 72 7e 52 bf a3 7a fe be b4 ff 9d 3d
       -0.31777772 -0.8222419 -0.4970294 0.07714787
000190 e2 30 7b 3d c4 53 e7 3e 0f e6 05 bf db 9c 65 bb
       0.061325915 0.45181096 -0.52304167 -0.003503612
0001a0 66 a1 fc be 7b 3c 2e bf 5a b9 a7 be a0 c5 51 bf
       -0.49341887 -0.68061036 -0.327586 -0.81942177
0001b0 68 ee 48 bf 34 7e 52 bd 2b 49 8f 3e 8c f4 44 bf
       -0.7848878 -0.051389888 0.2798551 -0.7693565
0001c0 f7 2d 15 bc 38 45 7d be 0e 8d ab 3e 16 bc bc bf
       -0.009105197 -0.24733436 0.33506054 -1.4744899
0001d0 17 86 d5 be 1f 0b 07 bf b1 a9 83 3c 0d d3 37 bf
       -0.41703865 -0.52751344 0.016072126 -0.7180641
0001e0 ac 78 ed be dd c3 18 3f 0b 34 01 3f 90 b6 26 be
       -0.46381128 0.59673864 0.50470036 -0.1628058
0001f0 3c 6a f1 be 3c 5a 39 bf 48 eb f6 be 4e 86 a3 be
       -0.47151363 -0.7240331 -0.4822638 -0.31938404
000200 80 3a 13 bd da fb 12 bf 06 92 2a 3e 23 f7 8e bf
       -0.03594446 -0.57415545 0.16657266 -1.116917
000210 c1 8e 98 be 5f 04 47 bf ca fc 60 bf c0 14 57 bf
       -0.29796413 -0.77741045 -0.87885725 -0.84016037
000220 f3 77 2a bf 92 87 9a be 19 c4 bf bc 0c b5 aa bd
       -0.6658928 -0.30181557 -0.023408936 -0.08335313
000230 8c 08 c2 be 42 24 11 bf c1 47 82 be bf a3 09 bf
       -0.37897146 -0.5669595 -0.2544537 -0.5376548
000240 b9 93 be be 77 7f e9 bf 3a b6 ce be 4f d5 27 bf
       -0.37222078 -1.8242024 -0.40373403 -0.6555986
000250 4c a1 d5 3e 86 fe 1a bf 99 2c c4 bf 7e 58 cc bf
       0.41724622 -0.6054462 -1.532611 -1.5964506
000260 d1 3d 4c be 6d ef af be d5 9d 97 bf 69 bb 39 bf
       -0.19945456 -0.34362355 -1.1845042 -0.7255159
000270 d1 48 44 be e7 b9 af be 1c b9 85 bf fa 00 1b bf
       -0.19168402 -0.3432152 -1.0447116 -0.60548365
000280 8e 2f f1 be b1 c5 39 3e 20 04 c7 be bb 7b a7 bf
       -0.47106594 0.1814182 -0.38870335 -1.3084635
000290 af 0c 2a bf 2a cc 28 be 34 57 4e 3e 8d 7b d2 be
       -0.66425604 -0.16484132 0.20150453 -0.41109887
0002a0 d5 f2 12 c0 44 23 bb bf 9f 76 06 c0 cf 35 3e bf
       -2.2960713 -1.4620137 -2.10099 -0.74300855
0002b0 7f 06 80 bf 62 2a 64 3e 11 e9 1f bf 9c 97 d5 bd
       -1.0001982 0.22281793 -0.62465006 -0.10429308
0002c0 f5 fe 9b bf c1 7e 9c bf 0b 2b 1e bf 88 05 80 bd
       -1.2187182 -1.2226182 -0.6178443 -0.06251055
0002d0 5b 70 fa bf 88 5f 6c bf 7c 9e fe bf 9d 41 87 be
       -1.9565538 -0.9233327 -1.9892116 -0.26417246
0002e0 29 48 b2 bf e7 14 18 bf f2 a1 d3 3e 0b a8 4e bf
       -1.3928272 -0.59406894 0.41334492 -0.80725163
0002f0 05 28 0e be 3b a2 d8 bf be 56 8c be 43 e0 3b bd
       -0.13882454 -1.6924509 -0.2740993 -0.04586817
000300 e7 77 92 bf 39 90 d3 3d bf 9f f6 bc ea 9a 88 bf
       -1.1442841 0.10330243 -0.03010547 -1.0672276
000310 7c 58 e5 3e 90 fe bf be a8 3f 98 bf 7f ca 71 bf
       0.4479407 -0.37498903 -1.1894426 -0.9444961
000320 6e a9 4d bf 45 44 ab be 14 3d 21 c0 97 a7 51 bf
       -0.80336654 -0.33450523 -2.519353 -0.81896347
000330 83 6b be bd b0 b1 63 bf 92 43 91 3d 25 12 49 bf
       -0.0929785 -0.88943005 0.07092966 -0.7854331
000340 4c 32 8d bf ae 0b a2 bf 2b d5 14 3d 7f bd 81 bf
       -1.1030974 -1.2659814 0.036336105 -1.0135955
000350 ec b9 31 bf e7 fe 47 bf 76 5a ff bf 90 0a a9 be
       -0.6942432 -0.78123325 -1.9949481 -0.3301587
000360 b8 00 60 bf ed ec 86 bf 56 b4 75 bf b7 85 d2 3d
       -0.87501097 -1.0541054 -0.95978296 0.1027941
000370 71 ff 54 3f bf d9 8e bf 8c 99 33 bf 5d 29 db be
       0.8320227 -1.1160201 -0.7015617 -0.42804995
000380 a9 e5 9f bf 80 26 5a be dc fd b4 be 05 4e 04 3f
       -1.2491962 -0.21303749 -0.3534993 0.5168155
000390 a8 ba eb bd 8e 9f 92 be 4c 4a a3 be 0a ef 78 be
       -0.11510211 -0.28637356 -0.31892622 -0.24309936
0003a0 d2 a3 29 be 8c c7 f8 be f6 2d a2 bf 34 d0 82 be
       -0.16566399 -0.48589742 -1.2670276 -0.2554947
0003b0 52 3b ae bf 1a 44 a3 be 86 be 95 bf b9 97 c7 be
       -1.3611853 -0.31887895 -1.1698768 -0.38982943
0003c0 e8 a5 a1 bf 66 bc eb bf f9 a2 ad 3e 13 d9 2d bf
       -1.2628756 -1.841687 0.339134 -0.67909354
0003d0 92 8b 61 c0 db b6 57 bf f2 0f f0 be 5d 58 0a bf
       -3.5241437 -0.8426339 -0.46887165 -0.5404108
0003e0 43 45 73 bf 28 bc 8e bf 0f d8 75 3c 2e 67 31 c0
       -0.9502756 -1.1151171 0.015005126 -2.7719226
0003f0 3c 39 8a bf 88 f0 29 bf ed 60 1c bf f2 69 05 bf
       -1.0798717 -0.66382647 -0.61085397 -0.52114785

fc2.weight f4 [256, 256]
000000 49 4b 50 3d b2 0f e0 3b 79 62 27 bc 18 49 b9 3b
       0.050853048 0.0068378085 -0.010216349 0.0056544654
000010 74 03 71 bd f1 03 2e 3d 93 07 d7 bc 88 75 b4 b8
       -0.058841184 0.042484228 -0.026248729 -8.604961e-05
000020 10 b8 0c be a4 8a 60 bd a8 ce 9d bd f9 2c c5 bd
       -0.1374209 -0.054819718 -0.07705432 -0.096277185
000030 93 cd 72 bd 99 44 b1 3d a1 c8 05 3d 85 71 da bd
       -0.059278082 0.08655662 0.032662038 -0.106661834
000040 a4 92 14 bb 0a f0 91 3c 12 d5 04 bd 8d 03 5f 3d
       -0.0022670412 0.017814655 -0.032429762 0.054446746
000050 e4 57 bc bb 5f 94 ad bd 76 11 28 bd 5d 2c 18 be
       -0.005747782 -0.08475565 -0.041032277 -0.14860673
000060 9a 61 75 bd 34 65 41 bd 8e d5 a3 bd 31 46 7c bd
       -0.059907533 -0.047215655 -0.07999717 -0.061590377
000070 2f 50 06 bc a4 02 84 3d 19 83 cc bc 30 d0 5c bd
       -0.008197828 0.06445816 -0.024964856 -0.05390948
000080 24 2a 93 bc a2 ac 87 be 18 db e7 bc 19 16 2c 3e
       -0.01796443 -0.26498896 -0.028302714 0.16805305
000090 c8 e2 e7 3c 32 08 15 be 17 1c e1 bd 55 c0 11 3b
       0.02830638 -0.14553908 -0.10991686 0.0022239883
0000a0 f4 8a cd bd 1a 56 ff bc 8a 03 20 bc d7 34 a6 bd
       -0.10036269 -0.031168986 -0.009766469 -0.08115547
0000b0 97 3e 22 bc cf 04 9f bc 47 fd d7 bc 05 f0 5c bd
       -0.009902618 -0.019411473 -0.02636589 -0.053939838
0000c0 18 8d 79 ba 90 a4 1c 3d 44 40 74 bb 87 bd 6d bd
       -0.0009519621 0.038242877 -0.003726975 -0.058042075
0000d0 dc 43 9c bd b1 9f 0e bd d9 3b 86 bd ea a5 fe bc
       -0.07630131 -0.034820262 -0.06554384 -0.031084973
0000e0 ef 7b ba bc 9f 0b d3 bd 6d 7a d3 bd fe 22 22 3b
       -0.022764174 -0.10304951 -0.10326085 0.0024740095
0000f0 a4 a9 69 bd d8 a7 18 bd 62 b4 8f be 4c 50 cd bc
       -0.057046548 -0.037269443 -0.2806731 -0.025062703
000100 32 20 1f bc d8 c7 b9 bb 30 99 91 bc ca 8a a1 bd
       -0.009712266 -0.005669575 -0.01777324 -0.078878
000110 95 8b 8f 3d b8 5c d4 bd 5a 36 4e bc a2 f9 87 3d
       0.07009045 -0.10369247 -0.012586201 0.066394106
000120 1e 1f 89 bd ac 5b 57 bd 08 06 a6 bc 82 1e 9f bd
       -0.06695388 -0.05257766 -0.020266548 -0.07769491
000130 d9 1f ea bc 56 be 2e 3d 46 38 b7 bb fe ba 73 bc
       -0.02857964 0.042661987 -0.005591425 -0.014876125
000140 fd 68 ba bc 84 77 a0 3d 22 56 fa 3c 9b 90 a3 bd
       -0.02275514 0.07835296 0.03055865 -0.07986566
000150 36 d0 12 bd 21 32 bb bd e4 45 42 bd aa 9c a8 bd
       -0.035843097 -0.09140421 -0.047429934 -0.08233006
000160 d6 d7 83 3d ed ec f3 3b 1d 9a a6 bd 2f c0 c4 bd
       0.06437652 0.0074440152 -0.081348635 -0.096069686
000170 18 f7 63 ba 83 e9 f1 b9 0c a0 5d 3c ed 95 0a bd
       -0.00086961826 -0.00046141082 0.013526928 -0.033834387
000180 ef 0b e7 bd 6f 03 8d 3c d0 bc 60 bd 3e c2 b1 bd
       -0.11281573 0.017213551 -0.054867566 -0.08679627
000190 2a d4 6e 3b 7e 8f b5 bc ab ce 27 be 84 07 02 bc
       0.0036442378 -0.022163149 -0.16387431 -0.007936362
0001a0 9d b6 08 bd 25 ac f6 3a df 5b 34 bc a4 be 50 3d
       -0.03337728 0.0018819614 -0.011008232 0.05096306
0001b0 57 dd c5 bc 59 ff 61 bd 4f ec 20 bd 9b af 60 bd
       -0.024153395 -0.05517516 -0.03928786 -0.05485497
0001c0 50 09 04 3c 14 64 fe bc cb ac 90 bd c4 05 77 bd
       0.008058861 -0.03105358 -0.07064208 -0.060308233
0001d0 23 1a 07 bc 12 55 b0 bc 0f 6e ce bd 58 35 6e bc
       -0.008245978 -0.02152494 -0.10079586 -0.014539085
0001e0 c4 97 27 3c d5 54 19 ba 09 76 ed bd 4d ab 15 3d
       0.010229055 -0.0005849128 -0.11594779 0.03654032
0001f0 c6 b6 5d bd f4 b5 6c bd 7b 4d 49 bd 2b 1c 8a 3b
       -0.054129384 -0.05779071 -0.049146157 0.0042147837
000200 a8 ea 3e bd c1 3b c2 3c f3 ed bb 3d e5 55 84 3d
       -0.046610504 0.023710134 0.091762446 0.064616956
000210 43 14 cf bc 4e 24 91 bd 7e d6 4c 3c 6d fb 41 bd
       -0.025278216 -0.07087003 0.012502311 -0.04735892
000220 dd 81 aa bd 96 3b 1c bd 6a 61 eb bd 83 bf ec bd
       -0.08325551 -0.038142763 -0.1149319 -0.115599655
000230 20 08 b6 3d c7 f7 9b 3d 0d cd b1 3d 41 59 21 3d
       0.088882685 0.07615619 0.086816885 0.03939176
000240 99 ad 0a 3d 91 dd 35 bd 00 fd a7 bd 58 bd c1 bd
       0.033856962 -0.044400755 -0.08202553 -0.094599426
000250 7b 69 3f bd af 69 1c be 47 4d e6 bc 0c 60 d5 3c
       -0.046731453 -0.1527469 -0.02811302 0.026046775
000260 a2 10 73 bd b6 66 6b bd 76 5d 86 bd f9 b7 18 3b
       -0.059342034 -0.057471 -0.06560795 0.0023303016
000270 bc 01 a0 bd e0 e9 9b bd 09 fd 2f 3d c5 f4 1f 3a
       -0.07812831 -0.076129675 0.042965923 0.0006101842
000280 2a b2 47 be c2 0b 3f 3d a5 fa 65 3d c5 48 82 ba
       -0.19501558 0.046642072 0.056147236 -0.00099399
000290 9c 8b 56 bd f9 a4 e9 bc f8 02 af bd c4 e6 6b bd
       -0.052379236 -0.028521048 -0.08545488 -0.057593122
0002a0 5c 39 b2 bc 25 16 45 bd 80 25 25 bd ae 77 b4 bd
       -0.021755867 -0.04811682 -0.040318966 -0.088118896
0002b0 1d 8c 69 bd e0 05 19 bd 4b 24 7e bd 62 fd 6a 3e
       -0.057018388 -0.03735912 -0.06204633 0.2294822
0002c0 3e 6e 3a bc 61 87 11 bd 37 5a 9b bc cc 15 8c bd
       -0.011378823 -0.035529498 -0.018963916 -0.06840095
0002d0 fe 7f 4c 3c 53 80 1b bd 6d 61 64 3c 32 15 91 bd
       0.012481688 -0.037964176 0.013939244 -0.07084121
0002e0 68 de 2f bd cf f4 cc 3c 41 9b 43 be bc ff 14 bd
       -0.042936713 0.025019078 -0.19102193 -0.0363767
0002f0 b8 cc 25 3d b6 3c 27 be e1 ad ed 3c 7f 09 da bd
       0.04047844 -0.16331753 0.029013576 -0.106463425
000300 40 4c a8 bc a8 f3 c0 bc 76 46 ba bc 25 c4 47 3c
       -0.020544171 -0.023553684 -0.022738677 0.012192761
000310 90 41 00 3d bb 6e 07 3b 7b ca 4c bd 11 26 c2 3d
       0.031312525 0.0020665366 -0.049997788 0.09479917
000320 55 f9 c7 bc 83 51 60 bd 7a 3f df ba 87 70 df bd
       -0.024410883 -0.054765236 -0.0017032467 -0.10910135
000330 76 71 8a bd 84 ea 0c 3d 93 e1 c5 bc e8 0c 86 3d
       -0.06759922 0.03440334 -0.024155414 0.065454304
000340 f9 48 94 3b 91 5b 2a bd 84 32 4b 3d 4b d6 3b 3d
       0.0045253006 -0.04159123 0.049608722 0.045858663
000350 70 bf c9 3c d4 a5 24 bd b7 ce da 3a d0 b2 ef bb
       0.024627417 -0.04019721 0.0016693686 -0.0073150173
000360 1f 0d 71 3d 78 80 3b 3d 55 2e 37 3d da 41 66 3d
       0.058850404 0.045776814 0.04472192 0.056215145
000370 9a ff 46 3d e8 de 64 bd 09 cf 50 3d 25 b4 8b be
       0.048583604 -0.055876642 0.050978694 -0.27285877
000380 76 7c 97 3c d6 4e 0a bd 9d ce c5 3d f3 81 ff bd
       0.018491965 -0.03376659 0.09658549 -0.12475958
000390 b2 8c 15 3d 69 be a0 3c a8 0d 88 bc e6 0d 2c 3e
       0.03651113 0.019622045 -0.016608074 0.16802177
0003a0 41 7c 20 bc 65 07 f9 bc ac f9 0d 3d 60 9e 55 bd
       -0.009795249 -0.030399034 0.034661934 -0.05215299
0003b0 b3 57 79 bd 7e e7 89 3b f7 b8 a2 bd 13 de db bd
       -0.060874652 0.004208504 -0.079454355 -0.10735717
0003c0 45 8c 02 bb 7a 31 5c bd 72 10 9a bd 74 90 d6 bc
       -0.0019920033 -0.053758122 -0.07522668 -0.026191927
0003d0 2c 4e 11 be 2c 8b 47 3d 6e 9e 98 3d 94 c7 27 3d
       -0.14189976 0.04871671 0.07452093 0.040961817
0003e0 a2 2b 08 b9 cf de 83 bd cc 20 0b 3c b2 de b1 bd
       -0.00012986225 -0.06438982 0.008491706 -0.08685054
0003f0 97 c1 04 3d a5 09 31 bd 07 c8 20 bd ba 27 9d bc
       0.032411184 -0.04322209 -0.03925326 -0.019183982

fc2.bias f4 [256]
000000 0f 38 28 be ec f9 93 be 9c e8 8e be d9 d5 98 be
       -0.16427635 -0.28901613 -0.27911842 -0.29850653
000010 b7 ed 87 be 1e 00 0b bf 10 23 91 be e1 f1 7e be
       -0.2654855 -0.54297054 -0.28347063 -0.24896957
000020 38 49 7e be a7 99 89 be d9 d7 6c be 36 68 9f be
       -0.24832618 -0.2687504 -0.23129214 -0.31134194
000030 8e 1f 98 be 41 3f 7f be e1 dd 69 be 74 15 c7 be
       -0.29711574 -0.24926473 -0.22838546 -0.38883555
000040 60 90 fc 3c a0 47 85 be f3 f9 8e be 14 df 65 be
       0.030830562 -0.26031208 -0.2792507 -0.22448379
000050 25 07 88 be a5 72 7d be 03 93 86 be 5d a9 a2 be
       -0.2656795 -0.24750765 -0.26284036 -0.3176984
000060 0c 8d 77 be 87 00 8a be cf 40 68 be e8 37 39 be
       -0.24174899 -0.26953527 -0.22680973 -0.18087733
000070 8a a5 8a be bf 98 ae be 2d e6 55 be 55 85 91 be
       -0.2707942 -0.3410091 -0.20888586 -0.28422037
000080 86 39 9e be 41 e6 aa be ec d0 d9 be 52 a3 94 be
       -0.30903262 -0.33378795 -0.42542207 -0.29030854
000090 3c f7 a6 be 9d 37 64 be 02 45 7a be 57 3e 08 bf
       -0.326105 -0.2228684 -0.24440387 -0.53220123
0000a0 a8 b4 cd be de 44 94 be 6c 99 19 be d7 2a 94 be
       -0.40176892 -0.28958791 -0.14999932 -0.28938934
0000b0 e2 0e eb be a7 7c 96 be 47 7f 87 be c4 96 7b be
       -0.45909792 -0.29391977 -0.26464292 -0.24569231
0000c0 73 fd 64 be 92 6b 82 be b3 56 6f be c6 60 51 be
       -0.22362308 -0.25472695 -0.23372917 -0.20447072
0000d0 6b fc 3c be 71 31 bc be ba f4 9a be 4c 1f de be
       -0.18455665 -0.3675647 -0.30264837 -0.43383253
0000e0 1f 7f d9 bd 46 2d 69 be ca 90 80 be 72 7b 67 be
       -0.106199495 -0.22771177 -0.25110465 -0.22605684
0000f0 f1 4c 42 be fa d4 ac be f7 ae 60 be 89 38 ad be
       -0.18974663 -0.33756238 -0.21941744 -0.33832195
000100 3f 48 0c be 65 f1 27 be 97 ef 22 bc 2d 6f 8b be
       -0.13699435 -0.16400678 -0.009944818 -0.27233258
000110 f4 d7 82 be a8 c7 84 be 23 09 6f be c4 91 2b be
       -0.25555384 -0.25933576 -0.23343329 -0.16754824
000120 d6 83 ce be 63 3e c3 be f1 4f 6d be b0 19 99 be
       -0.40334958 -0.38133535 -0.23175026 -0.2990241
000130 e9 c0 16 bf ad 99 bc be 79 f0 0a bf 0e bb e5 be
       -0.5888811 -0.36835995 -0.5427318 -0.44869274
000140 12 e0 98 be 0f 20 76 be 7e fa 85 be e6 97 79 be
       -0.29858452 -0.24035667 -0.26167673 -0.24374351
000150 a9 82 84 be c0 2c 84 be 24 b1 79 be e1 77 6f be
       -0.25880936 -0.25815392 -0.2438398 -0.23385574
000160 d9 9b c4 be ef 8c 83 be b3 99 93 be 15 0e 44 be
       -0.38400152 -0.2569346 -0.288282 -0.19145997
000170 99 89 84 be c7 0e 68 be fc 53 a3 be 72 ca a3 be
       -0.2588623 -0.22661887 -0.31900012 -0.3199039
000180 18 d1 7e be fa 1b 44 be e1 90 95 be c6 6c 9d be
       -0.2488445 -0.19151297 -0.29212096 -0.3074705
000190 25 44 6f be ac 0a 94 be 39 9f 9e be 02 d8 81 be
       -0.23365839 -0.28914392 -0.30980852 -0.25360113
0001a0 3a 1e 90 be 7b 53 53 be 40 6b c4 be 24 3a 85 be
       -0.2814806 -0.20637314 -0.38363075 -0.2602092
0001b0 19 b9 cf be 27 d3 d7 be d8 cb 94 be c0 ef 00 bf
       -0.40570906 -0.42153284 -0.2906177 -0.5036583
0001c0 fb 68 a5 be 42 d2 9e be 42 4f 89 be 24 4c 98 be
       -0.32306656 -0.3101979 -0.2681828 -0.2974559
0001d0 8d e4 91 be 08 4c 21 bf 47 29 ab be a8 de 85 be
       -0.28494683 -0.6300664 -0.3342993 -0.26146436
0001e0 35 eb b5 be 42 b0 db be 31 e2 4e be f1 f3 0a be
       -0.3553101 -0.42907912 -0.20203473 -0.13569619
0001f0 1d 8f 68 be 31 c8 3e be 1a f1 76 be 4f 1a 79 be
       -0.22710843 -0.18631054 -0.2411541 -0.24326442
000200 81 7f 73 be b8 94 a1 be 8e 74 a6 be c4 d3 95 be
       -0.23779108 -0.31558776 -0.325108 -0.29263127
000210 17 4e b2 be c4 db 25 be 41 af 12 be a3 3b 91 be
       -0.34825203 -0.16197115 -0.14324667 -0.28365812
000220 96 a8 8a be ca da 9e be a5 32 58 be de 07 8d be
       -0.27081746 -0.31026298 -0.2111307 -0.27545065
000230 d4 bf 5f be 68 ee 88 be 3d 89 55 be e1 6b 0b bf
       -0.2185052 -0.2674439 -0.20853133 -0.54461485
000240 c5 9a 43 be 0d 7b c4 be 91 c2 90 be f7 30 62 be
       -0.19102009 -0.3837513 -0.28273442 -0.22088991
000250 cb 6e 77 be f9 5d 81 be 1a e9 42 be e9 1c 3d be
       -0.24163358 -0.25267008 -0.19034234 -0.1846806
000260 7a 64 ac be bc 99 38 be 2d d2 6b be 10 88 8a be
       -0.33670408 -0.18027395 -0.23029394 -0.27056932
000270 e0 e4 83 be 51 79 6f be 1b 49 73 be 21 22 54 be
       -0.25760555 -0.23386122 -0.23758356 -0.20716144
000280 19 ac a4 be cc 3d 5b be cd 4d 8a be 71 d0 88 be
       -0.3216255 -0.21410292 -0.27012482 -0.26721528
000290 14 94 b0 be 2e 70 d1 be bd ee b5 be ef b3 c8 be
       -0.34487975 -0.409059 -0.35533705 -0.39199778
0002a0 9c 48 1a be 6a b8 d5 be 5c 67 16 3e bd 3d 8e be
       -0.15066761 -0.4174226 0.14687866 -0.27781478
0002b0 00 92 00 bf 65 b4 8c be 5b cb ab be 86 fb 50 be
       -0.5022278 -0.2748138 -0.33553585 -0.20408449
0002c0 3e 58 a8 be 6a 5c 76 be a1 76 a1 be 61 ec 99 be
       -0.32879823 -0.2405869 -0.3153582 -0.30063155
0002d0 2c e7 65 be 3e dc 15 be 58 e6 61 be af 75 96 be
       -0.22451466 -0.14634797 -0.22060525 -0.2938666
0002e0 31 b3 84 be 16 88 82 be 86 fa 7d be d5 81 13 bf
       -0.25917962 -0.2549445 -0.24802598 -0.5761998
0002f0 be a9 bb be 14 11 7f be 69 e3 2f be fc a1 21 bf
       -0.3665294 -0.24908859 -0.17176594 -0.63137794
000300 07 10 e6 be 0e b8 61 be 32 97 a1 be 08 48 8d be
       -0.44934103 -0.22042868 -0.31560665 -0.27594018
000310 72 04 d0 be 9a f9 cd be 6c 3a 97 be 8b bd 8e be
       -0.40628392 -0.40229493 -0.2953676 -0.27878985
000320 64 68 8a be 94 1e 4e be 8a 38 d2 be cb dc b5 be
       -0.2703277 -0.20128852 -0.4105876 -0.35520014
000330 ac 32 5f be 4f f8 9e be 67 7b de be fc 34 61 be
       -0.21796674 -0.3104882 -0.43453524 -0.21992868
000340 da a7 67 be 3b 6a cb be 05 79 4a be e1 78 56 be
       -0.22622624 -0.39729485 -0.19772728 -0.20944549
000350 31 44 ad be 30 d3 5a be d7 43 66 be de a9 6a be
       -0.33841088 -0.21369624 -0.22486816 -0.22916362
000360 55 80 a4 be 27 12 45 be 12 a3 c4 be 6d 24 58 be
       -0.3212916 -0.19245206 -0.38405663 -0.21107645
000370 1c 55 35 be 75 cc 4a be ab 7d 8c be 75 ef 86 be
       -0.17708248 -0.19804557 -0.27439627 -0.26354566
000380 2d a0 8d be 09 29 ab be 0b 8b 65 be 4d 4e 5f be
       -0.27661267 -0.33429745 -0.22416322 -0.21807213
000390 ad ca 5c be e1 75 66 be c6 36 55 be d6 ab 8b bd
       -0.2156169 -0.22505905 -0.20821676 -0.068198845
0003a0 3b b4 35 be be f2 8b be 98 85 99 be 95 38 6a be
       -0.17744534 -0.27333635 -0.29984736 -0.22873147
0003b0 94 c2 95 be f7 67 0f be 57 91 53 be 4f a1 42 be
       -0.29250014 -0.14004503 -0.20660912 -0.19006847
0003c0 c4 aa 5e be cc a6 c6 be 76 e4 77 be e7 98 cd be
       -0.2174483 -0.3879913 -0.24208245 -0.40155718
0003d0 a5 24 86 be e1 2b d0 bd 9f bd ff be 25 0f 2f be
       -0.26199833 -0.10164619 -0.49949357 -0.17095621
0003e0 eb 03 3c be 4e dd 89 be 36 cc 7d be 27 77 9c be
       -0.1836087 -0.26926655 -0.24784932 -0.30559656
0003f0 8f ea 61 be 0a 76 54 be 17 25 7c be 29 18 20 bf
       -0.22062133 -0.20748153 -0.24623524 -0.62536865

fc3.weight f4 [1, 256]
000000 e8 f5 fc bb 07 e9 a2 bc b1 19 b7 bc 53 ff 0c bc
       -0.007719744 -0.019886507 -0.022351118 -0.008605796
000010 9c 99 47 3c a4 f1 98 bc c5 cd 96 bc 10 58 a0 b9
       0.012182619 -0.01866991 -0.018408665 -0.0003058319
000020 28 3a d3 3c 5c 9c 57 3b 07 22 85 bc 4f c9 16 3c
       0.025784567 0.0032899594 -0.016251577 0.009203269
000030 3e b3 b4 ba c9 0d c7 3c 35 9a 2b ba af c5 7f bb
       -0.0013786328 0.024298565 -0.0006546111 -0.003902774
000040 46 01 22 bd 14 d0 c7 ba 13 b0 70 bc 75 9d 15 3c
       -0.039551996 -0.0015244507 -0.014690417 0.009131779
000050 80 8d 01 bb d0 34 ec 3b 57 09 e2 3b 88 1a 91 3c
       -0.0019768178 0.007208444 0.006898086 0.017712846
000060 bd be ae 3c f0 ad fc bb 76 4d cb 3b 30 aa 53 3c
       0.021331185 -0.0077111647 0.0062043024 0.012918994
000070 91 e6 a9 3c b3 58 0e bc 59 7c b7 3c 11 2b 26 bc
       0.020739825 -0.00868814 0.02239816 -0.010142104
000080 02 fb 6f 3c 45 32 04 ba 18 61 cf 3c d4 1e 97 bc
       0.014647247 -0.0005042891 0.025314853 -0.018447317
000090 71 a8 f3 bb 96 d7 a1 bc 63 23 b9 bc ed c3 74 bc
       -0.0074358513 -0.01975612 -0.022599882 -0.0149392905
0000a0 57 1f b2 ba 1b e6 ba 3b fd 21 d7 3b 57 e0 b4 bc
       -0.0013589662 0.0057037002 0.006565331 -0.02207963
0000b0 b1 90 d0 bc 61 82 04 bc dc fb 9b bb c2 b3 e8 bc
       -0.02545962 -0.008087725 -0.0047602486 -0.028406028
0000c0 72 2f aa 3c ff 27 d9 bc af 53 f0 3b dd 6d b2 3b
       0.020774577 -0.02650833 0.0073341946 0.0054452256
0000d0 4d d2 0e bd 46 68 b5 3c 51 03 19 bc 16 ce ba b8
       -0.034868527 0.022144448 -0.00933917 -8.907558e-05
0000e0 b0 d0 d0 bc c9 fd b5 bc 9e 9c 3c ba ef f0 31 bc
       -0.025490135 -0.02221574 -0.00071949686 -0.010860666
0000f0 f9 b5 46 bb 41 dc 00 3c 93 b7 9c 3c df 9e a5 3b
       -0.0030320866 0.007865013 0.019130504 0.0050543393
000100 61 11 0e 3b 80 b6 98 3b be 22 43 3d 28 e9 02 3b
       0.002167784 0.0046604276 0.047640555 0.0019975398
000110 ce 7f c9 3c f3 b8 68 bc bf 9a 84 bb 70 bf 22 bc
       0.024597075 -0.014204252 -0.0040467675 -0.009933338
000120 5e d3 36 3c 9a 2f 79 3c 69 20 82 bc 56 2d 43 bb
       0.011158792 0.015209103 -0.015884595 -0.002978166
000130 b2 ce cd bc 11 5b b5 bc 99 d3 78 bc 19 a0 d0 3c
       -0.025122974 -0.02213815 -0.015187168 0.025466966
000140 1d f5 07 bc 71 5d bf bc b0 a9 06 bb 97 df 40 ba
       -0.008298186 -0.023359986 -0.002054792 -0.0007357536
000150 cd d2 97 3c 2c bb c6 39 bd 4a ef 3b 14 a8 5b bc
       0.018533135 0.00037904957 0.0073026107 -0.013406772
000160 73 52 8a bb ad 80 bd bc 20 d2 88 bc ea 9f af 3b
       -0.0042212545 -0.023132646 -0.016701758 0.0053596394
000170 d9 48 38 bb a6 0d 33 b8 e5 e3 65 3c de c8 98 3c
       -0.0028119592 -4.2689637e-05 0.014031385 0.018650468
000180 75 b9 59 39 a3 b2 5f 3b 17 4e e7 bb b7 06 eb bc
       0.00020763821 0.0034133575 -0.0070588696 -0.028689725
000190 c7 50 9b bc de 45 4e 3a 6a 65 c6 bb 7c f1 4a bc
       -0.018959416 0.00078686874 -0.00605457 -0.012386676
0001a0 96 90 20 bd 84 03 07 bc 37 28 b9 bb 1b 5e f2 bc
       -0.039200388 -0.008240584 -0.005650546 -0.029585889
0001b0 01 79 6b bc 85 46 9c 3b 6e ee 28 bb 67 34 ae 3c
       -0.014372111 0.004769149 -0.002577688 0.021265222
0001c0 ec af 85 bc de 4d 28 3d cf ca e4 bb 2b ba 96 3b
       -0.016319238 0.041089885 -0.0069821845 0.0045998297
0001d0 6b fd 07 3c 62 f4 5a 3b 86 7c 1b bc 40 ea a3 3c
       0.008300166 0.0033409824 -0.009490138 0.02000916
0001e0 12 17 96 bc c1 4a 97 3a 09 c1 d1 3c 32 a7 db bc
       -0.018321548 0.0011542664 0.025604742 -0.026813123
0001f0 4d 14 4b bc 7c 0e e8 3b 6b 78 17 bc f1 c9 ca bb
       -0.012394977 0.007081805 -0.0092450185 -0.006188624
000200 65 86 94 3e 50 45 88 3c 89 3a ad 3c c8 c6 90 bc
       0.29008785 0.016634613 0.021146076 -0.017672911
000210 11 6c 90 3c e1 58 1b 3b 11 87 d5 3b cd 1d 95 bc
       0.017629655 0.00237041 0.0065163453 -0.018202687
000220 07 a7 85 3b 2d 5e b1 3c 01 91 99 3c 51 6e ab bc
       0.004078749 0.021651352 0.018745901 -0.020926626
000230 f8 21 9f 3b c3 8f 54 bd 22 86 db 3c 94 55 32 bc
       0.0048563443 -0.051894914 0.026797358 -0.010884661
000240 1e c9 28 bd 5f 5d 9a bc f6 f0 35 bc 73 31 92 bc
       -0.041207425 -0.018843351 -0.011104813 -0.017845845
000250 13 39 48 bc 8c 6e 3f bd 2a 32 6e bc 44 99 85 3c
       -0.012220639 -0.046736285 -0.014538327 0.016308434
000260 8e 8e ce 3b 0b 9b c8 3b 87 6f 54 3b 75 87 d4 3c
       0.006303615 0.006121998 0.0032415108 0.025943497
000270 d0 ae 08 bd 8f 2a 5e 3a 21 45 07 3c 76 7d 85 bc
       -0.03336984 0.00084749697 0.008256228 -0.016295176
000280 b5 64 b9 3c 7f 2a 25 3c 49 1c 0e bc 41 6f d4 bc
       0.022631029 0.010080933 -0.008673736 -0.025931956
000290 22 67 df bc 6e 2b ce bd 3a 05 50 ba 8b 3d c0 3c
       -0.027270857 -0.10066877 -0.0007935349 0.023466846
0002a0 7f 98 40 3b 9d 30 6e 3d f7 e2 aa 3c 77 98 91 3c
       0.002938777 0.05815183 0.020860178 0.017772896
0002b0 41 57 70 bc 98 47 12 bc e5 9a d4 3b 3f 63 bd bb
       -0.01466924 -0.008928202 0.0064881914 -0.0057796533
0002c0 cb 8f 00 bd 71 dc 00 3d 21 b3 ed bc d1 9f b8 3c
       -0.03138713 0.03146023 -0.02901608 0.022537144
0002d0 38 c6 81 3b 99 b4 e7 bb ad f4 1f bb 13 5f 55 bc
       0.003960397 -0.0070710895 -0.0024407313 -0.013023156
0002e0 a0 f6 cd bc 45 27 15 3a b8 29 ea 3c 33 35 9e bc
       -0.025142014 0.00056897505 0.028584346 -0.019312477
0002f0 ff 71 67 bc bd 96 0f bb f9 7f 1a 3c bc ba c4 bc
       -0.0141263 -0.0021909915 0.009429925 -0.024014823
000300 d3 2e 89 bc 69 bf 3a 3c 6a c3 b1 3a 60 a4 b4 3c
       -0.01674596 0.011398175 0.0013562266 0.022051036
000310 60 1d e5 3c b6 a1 28 3c e6 75 4a 3c ae 09 e6 3c
       0.027968109 0.010292461 0.012357211 0.028080788
000320 43 c0 ae ba a5 69 aa bc d5 bc 4b 3c 48 d0 dc bc
       -0.0013332445 -0.020802328 0.012435158 -0.026954785
000330 33 d3 22 bd 61 4a 8e bc 44 db e9 bd 99 90 37 3b
       -0.039752197 -0.017369451 -0.11418775 0.002800977
000340 dd c6 5c ba 86 6b 05 3d d5 91 f5 bb 3d 95 9b 3c
       -0.0008421967 0.032573245 -0.007494191 0.01899206
000350 6d 6f 53 ba 4c c0 11 3c 6c 0b 01 3c 78 25 a5 b9
       -0.0008065615 0.008895945 0.007876258 -0.0003149917
000360 c1 35 12 3c 2f af 65 3c 5a 3b a3 3c 80 5c a8 bc
       0.008923949 0.014018818 0.019925762 -0.02055192
000370 b2 ff ab 3c f1 b0 8b 3b dd 44 c5 3c 20 fc 4b bc
       0.020995948 0.0042630364 0.024080688 -0.012450248
000380 fa 65 b2 bc fb c2 9d 3c b4 25 2e 3c 54 c5 43 3d
       -0.021777142 0.019258013 0.010629106 0.04779561
000390 f5 54 a7 3c 95 bf 8d bc 70 bb 47 bc db 72 32 3d
       0.020426253 -0.017303267 -0.012190685 0.043566566
0003a0 65 74 7d 3c 24 93 80 bc b5 c1 bf bc a8 fe bd bc
       0.015469645 -0.015695162 -0.023407796 -0.023192719
0003b0 26 d6 8d 3c cc 6c 4c ba 34 2e a4 3b 9e d9 b7 bb
       0.017314028 -0.00077981944 0.0050103907 -0.005610659
0003c0 14 73 22 bb 1b 48 4d bc 7c f0 ba 3c 04 b9 33 bd
       -0.002478783 -0.012529398 0.02281975 -0.043877617
0003d0 1e 90 c3 bd 23 39 f3 bb e5 90 01 bc 8d 8c 1c 3c
       -0.095489725 -0.0074225827 -0.007908081 0.009554994
0003e0 71 99 18 3a 51 a3 9a bc ae e3 58 bc 28 4d 4f bc
       0.00058212044 -0.018876703 -0.013237877 -0.012652673
0003f0 7d 05 3d bd 81 26 6b 3c 40 c1 0f bc 4d b2 89 bc
       -0.046147812 0.014352442 -0.008774102 -0.016808653

bn1.weight f4 [256]
000000 95 4c 75 3f e7 d2 42 3f 1c 70 1b 3e 61 3e e4 3d
       0.9581998 0.7610306 0.15179485 0.1114471
000010 23 67 cb 3e d3 d5 0e 3e 25 3c 34 3e 1b ab 77 3e
       0.39727125 0.13948755 0.17601068 0.24186365
000020 b3 f7 32 3e f8 27 a8 3e fb e4 ea 3e 74 86 92 3e
       0.17477302 0.32842994 0.45877823 0.28618205
000030 1c 58 e4 3e ac 83 fc bc 63 c1 84 be 68 be 9f 3e
       0.44598472 -0.030824505 -0.25928792 0.31199956
000040 85 a9 59 3e f2 91 8e 3e 2e 7f 8d 3d e7 77 bf 3d
       0.21256073 0.27845722 0.06909023 0.093490414
000050 48 bf f7 bd 49 5b 5a 3e 65 ef 8d be b3 ef 9a bd
       -0.12097031 0.21323885 -0.27721706 -0.0756525
000060 f3 62 59 3e 43 ad 8d 3e f0 a2 25 3e 77 e9 86 3d
       0.21229152 0.2767125 0.16175437 0.06587499
000070 ec f8 b0 3e 7b 40 5d 3e ec d2 11 be a4 c0 1c 3f
       0.34564912 0.21606629 -0.14240617 0.61231446
000080 d1 d3 26 3e 10 68 03 3e c9 7e f2 3d 20 c4 c7 be
       0.16291739 0.12832665 0.118405886 -0.3901682
000090 00 a8 05 3e 24 65 e1 3d 2d bd 94 3e a2 35 14 3f
       0.13052368 0.11005619 0.2905058 0.5789434
0000a0 1c c5 02 3e 4e e4 8f be 74 53 1d 3d be 50 a8 3e
       0.12770504 -0.2810387 0.038409665 0.328741
0000b0 0d 05 56 3e 4f 4b a5 3e 3a 30 96 3d 0d 65 ff 3d
       0.20900364 0.32284018 0.07333417 0.12470446
0000c0 4c 8b a4 bd 55 43 0a 3e 3a 19 06 3e 36 8a 3b 3e
       -0.08034381 0.13502248 0.1309556 0.18314442
0000d0 4f 69 03 3e d2 52 23 3e da c5 03 3e ae e8 95 3e
       0.12833141 0.15949562 0.12868443 0.29279083
0000e0 52 60 fb 3e 4a 2b 61 3e b1 32 ca 3d 1d c7 0b 3e
       0.49096924 0.2198917 0.0987295 0.13650174
0000f0 81 06 a6 3f 62 f7 81 3e 03 96 51 3d 8f 99 84 3e
       1.2970735 0.2538405 0.051168453 0.25898406
000100 c6 9e b2 3e 2d 40 4b bd 3a 2a a8 3d ec 70 b3 3e
       0.3488676 -0.04962175 0.08211179 0.3504709
000110 7b dc 08 3e 85 3d 1b 3e 35 91 36 be 15 35 6e 3f
       0.13365357 0.15160187 -0.1782883 0.93049747
000120 4e ed 85 3e ca 50 20 3e 29 7d db 3d 4c 28 96 3d
       0.26157612 0.15655819 0.10717232 0.07331905
000130 9d 82 07 3e 36 10 25 be f0 27 13 3f 6d a1 ed 3d
       0.13233419 -0.16119465 0.57482815 0.11603055
000140 66 26 90 bd fa bd 54 3d 05 fe 3c 3e 64 5a 2d 3e
       -0.07038574 0.05193899 0.18456276 0.16929013
000150 31 83 e4 3e 44 03 8b 3d bb bf e3 3d 40 1d 05 3f
       0.4463134 0.06787732 0.11120554 0.51997757
000160 d7 1d 52 3e a5 c0 0c 3f 5a b5 91 3d 90 42 53 be
       0.20519195 0.5498145 0.07114668 -0.2063086
000170 aa c5 2e 3e bc 7d 8c 3e a6 9c e1 3d ef 49 39 3e
       0.1706759 0.27439678 0.110162064 0.1809461
000180 78 5e 52 3e 18 8b 38 be 00 ed 2c 3e 09 9d 54 3d
       0.2054385 -0.1802181 0.16887283 0.051907573
000190 f6 1e 42 bd e6 71 ce 3e 39 32 1b be ca cf e4 3c
       -0.047392808 0.40321273 -0.15155877 0.027931113
0001a0 29 4d 2e 3d 58 55 a8 bc 22 67 d4 3d 49 c3 3f 3e
       0.042554054 -0.020548508 0.103712335 0.18726839
0001b0 c7 2d a6 be 3d 2c c6 3d 67 22 51 3e cb 60 45 3e
       -0.324568 0.096764065 0.2042328 0.19275205
0001c0 da 6c 88 3e 46 64 1c 3e 7c 0d 25 3f 3f f2 83 3e
       0.26645547 0.15272626 0.644737 0.25770757
0001d0 60 79 15 be 44 23 8c 3d f8 ad 21 3f 53 b0 24 3e
       -0.14597082 0.06842664 0.6315608 0.16082887
0001e0 c0 90 03 3e c9 47 39 3f 51 30 5f 3e 62 b7 77 3e
       0.12848186 0.7237516 0.21795775 0.24191049
0001f0 3c 23 02 3e ad 55 9f 3d ca a4 99 3e 49 5a 7a 3d
       0.12708753 0.07780013 0.30008537 0.06112126
000200 07 02 8c 3e ec 90 83 3d 93 c9 70 3e 20 77 c0 3d
       0.27345297 0.06424126 0.23514394 0.09397721
000210 52 41 88 3d ec 90 a0 3e 6c 3a ea 3d 8d 6f 82 3e
       0.06653084 0.31360567 0.11436924 0.25475731
000220 f3 16 05 3e ae 76 97 3e de eb c7 3d 43 d7 08 be
       0.12997036 0.29582733 0.09761785 -0.13363366
000230 c2 dd 61 be 3e 51 2d 3e 12 09 69 3e ce 4c 42 be
       -0.2205725 0.16925523 0.22757366 -0.18974611
000240 9f 6d aa 3d 1d 0f 1a 3e 76 6f 45 3e 17 dc 01 3e
       0.0832169 0.15044828 0.192808 0.12681614
000250 83 45 45 3f b0 6e 77 3e ba d3 82 3e 3a 3e d1 3e
       0.7705919 0.24163318 0.2555216 0.40867788
000260 9a 1d 4e 3e 68 0f 38 be a6 b5 a2 3d bb 0d 36 be
       0.2012848 -0.17974627 0.07944803 -0.17778675
000270 fe f1 82 bd ae d5 a2 3d b8 48 25 be 67 9d 10 3e
       -0.063938126 0.079509124 -0.16141021 0.14122544
000280 6d 68 6d 3e b5 7a 86 3e 71 f5 a1 bd 2c 66 88 3e
       0.23184367 0.26265493 -0.07908142 0.2664045
000290 70 c0 09 3e 61 67 d7 3d f0 81 3f 3e cf 05 9c 3e
       0.13452315 0.10517765 0.18701911 0.30473182
0002a0 56 45 55 3f 47 69 74 3e b4 96 95 3e f8 e7 ab 3d
       0.83308923 0.23868285 0.2921654 0.08393854
0002b0 12 ae eb 3e 5f 61 5a 3e 3f b4 96 3e 0c c9 04 3e
       0.46031243 0.21326207 0.29434392 0.12967318
0002c0 b2 19 44 3f 64 63 e5 3c 6e db 0d be f6 9e bd bd
       0.7660171 0.028001495 -0.13853237 -0.09258835
0002d0 1e bc cf 3e 9e cd cf bd 26 b1 95 be 98 a4 d0 3d
       0.4057321 -0.1014664 -0.29236716 0.10187644
0002e0 e8 b6 37 3f 92 73 b2 bd 5e 8e 01 3e 37 95 86 3e
       0.7176347 -0.087134495 0.12651965 0.26285717
0002f0 7e b0 21 3e fa 78 98 3d 67 a2 0c 3e 98 26 06 be
       0.15789983 0.074449494 0.13733827 -0.1310066
000300 26 69 3d be 5b af 87 3e 82 da 24 3e 68 e6 ac bd
       -0.18497142 0.26500973 0.16098979 -0.08442384
000310 66 15 99 be 52 73 2c 3e 82 76 3e 3e f2 f5 86 3e
       -0.29899138 0.16840866 0.18599895 0.26359516
000320 78 66 51 3e b7 75 b0 3e 3f 81 aa 3e e1 3c 8b 3e
       0.20449245 0.3446481 0.33301732 0.27194884
000330 dd 45 0f 3e de 3a f4 3d c9 f4 d6 3d d8 a0 cf bd
       0.13991494 0.119252905 0.10495908 -0.101381004
000340 0d 5e 63 be eb b4 34 3e 2f d6 8f bd 0b 50 83 3e
       -0.22203846 0.1764714 -0.07023274 0.25647005
000350 54 9b 85 3d d8 aa e1 3d 64 fb cf 3e 2e 75 7a 3d
       0.06523767 0.11018914 0.40621483 0.061146908
000360 ec bc 1b be ba 21 c5 3e f9 72 6e 3f 74 e3 5f 3f
       -0.15208787 0.38502294 0.93144184 0.8745644
000370 13 4f 8b 3f 4b 27 ee 3d 9e d6 43 3e 3b 52 16 be
       1.0883507 0.11628588 0.19124839 -0.14679806
000380 24 76 07 3e 63 66 99 3e 01 1d 05 be 5f d8 6b 3d
       0.13228661 0.29960927 -0.12999345 0.057579394
000390 20 6d 65 3e bb e5 05 3e f2 88 76 3e e9 06 1b 3e
       0.22404909 0.13075916 0.24075678 0.15139355
0003a0 d7 dc 1e 3e 2a 21 25 3e 77 52 85 3e 98 4b af 3d
       0.15513931 0.16125932 0.26039478 0.0855934
0003b0 1f 89 14 3e 31 48 64 3d 71 82 ee 3e 9c f8 91 3d
       0.14505433 0.05573291 0.46583894 0.071274966
0003c0 c7 6a 2f 3e 04 70 89 3c ea ce 8a 3c e8 65 88 3e
       0.17130576 0.016777046 0.016944367 0.26640248
0003d0 3e d5 ed 3e 78 52 16 3e 68 43 1a 3e a7 6c 4d 3d
       0.46451753 0.14679897 0.15064776 0.050152447
0003e0 8e 49 35 bd 3b 42 46 3f 4b 60 c1 3e 22 ad aa 3e
       -0.0442596 0.7744481 0.37768778 0.33335215
0003f0 1b 53 03 3f 86 6c 7f 3d a1 7e 23 3e e6 ea b2 3c
       0.51298684 0.062359355 0.15966274 0.021840524

bn1.bias f4 [256]
000000 b7 87 07 3f 48 ea 53 3e 6d cf 1b 3d ee d1 9a 3c
       0.5294146 0.2069484 0.038039614 0.01889893
000010 7a c1 3c 3e 57 f3 47 3d 5c 43 69 3d 8b 9a 8a 3d
       0.1843318 0.04881605 0.056949005 0.06767758
000020 cc c5 8d 3d a2 56 26 3e 15 f1 47 3e e5 84 1c 3e
       0.069224924 0.16243985 0.19525559 0.1528507
000030 96 da 96 3d 05 ff 2e bd 6a 64 95 bd f8 8a 27 39
       0.07365911 -0.042723674 -0.07294543 0.00015978131
000040 f5 e5 6e 3d 8c 4c df 3d 93 32 b5 3c 7f 80 0a 3c
       0.058324773 0.10903272 0.022118842 0.008453487
000050 0c 36 0e bb 30 ca d7 3d e1 be 9b bd 91 2b 72 bc
       -0.0021699695 0.10536611 -0.07604767 -0.014780895
000060 87 0b 4e 3d cf 01 62 3e cd c8 bd 39 b1 a6 c0 3c
       0.050303962 0.22071002 0.00036198497 0.023516985
000070 16 4f 09 3e af 42 3a ba 59 39 4e 3d 63 45 a5 3e
       0.13409075 -0.00071052735 0.05034766 0.322795
000080 59 6e ec 3c 52 60 54 3e 0f 2a 61 3d 06 31 1a ba
       0.028861212 0.20739868 0.05497175 -0.0005881939
000090 c6 4b d3 3c 5f 94 35 3d c0 88 da 3d 42 62 a9 3d
       0.025792968 0.04433095 0.10670614 0.08270694
0000a0 5d c7 25 3d 25 fd ef bd b9 b2 b5 3b 62 52 9e 3d
       0.04047333 -0.11718205 0.005544987 0.07730557
0000b0 80 39 23 bd 9d b3 33 bd ce 6a 96 3c 97 31 17 b9
       -0.03984976 -0.043872464 0.018361475 -0.00014418956
0000c0 aa e1 3a ba 56 e9 6c 3d 53 28 15 3c f9 2d e6 3c
       -0.00071289635 0.057839714 0.009103852 0.028098093
0000d0 95 0a 9d 3d 66 5a 8a 3d a6 19 a4 3c ef 65 0a 3e
       0.07668034 0.067555234 0.020031761 0.13515447
0000e0 82 d2 8c 3e a2 cc dc 3d 8e 1d 47 3c 75 01 0c 3d
       0.27504355 0.10781218 0.0121530425 0.034181077
0000f0 11 ed 8f 3e 94 40 a1 3d f5 5e 11 3d 30 ee a5 3c
       0.28110555 0.078736454 0.03549095 0.020255178
000100 c6 9e 0b 3d 89 e8 81 bc 00 17 75 36 80 69 ca 3d
       0.034086965 -0.015857952 3.6521233e-06 0.09883404
000110 cf 0d d0 3c cc 22 a5 3c 54 8b 93 bd df 9e b3 3e
       0.02539721 0.020158194 -0.07204309 0.35082147
000120 bc 9e a7 3d 4c 0f 60 3d 4d 00 12 3d c6 b8 00 3d
       0.08184573 0.05470209 0.035644818 0.031426214
000130 a2 b0 83 3c aa 80 64 bc c8 83 a8 3e fe 63 eb bc
       0.016075436 -0.0139466915 0.3291304 -0.028734203
000140 c9 a6 0d bc 02 df 4a 3c 91 49 45 3c 7c 19 dc 3c
       -0.008645722 0.012382271 0.012041465 0.02686762
000150 c8 0b 90 3e 72 02 91 3c fe 31 81 38 86 5d c4 ba
       0.28133988 0.017701361 6.160511e-05 -0.0014981485
000160 98 05 14 3d 1d b3 90 3e b6 57 0c bc 60 6b eb bc
       0.036138147 0.28261653 -0.008565834 -0.028737724
000170 a5 e2 3b 3d c7 be a5 3a 3e 62 52 ba 0a b4 18 3e
       0.045870442 0.0012645357 -0.00080255035 0.1491243
000180 35 ca ba 3d ee 7f f4 bc f7 64 6e 3d e6 c5 6e bc
       0.09120599 -0.029846158 0.058201756 -0.01457355
000190 95 c7 8b bc 66 aa 90 3e d1 d0 1b bd 80 3b 86 3c
       -0.017062942 0.28255004 -0.03804094 0.016385794
0001a0 ef 2a 30 3c fb 3c f0 b9 9c eb 74 3c b3 dc bc 3d
       0.010752424 -0.000458218 0.014948752 0.092217825
0001b0 4e 30 41 be 23 b9 01 3c af ed a0 3d 76 a8 80 3d
       -0.18866083 0.007917675 0.078578345 0.062821314
0001c0 d1 d8 aa 3d bd 76 1b 3d b2 7b d4 3e 71 21 08 3e
       0.08342136 0.037955035 0.41500622 0.13294007
0001d0 9d 23 29 bd b7 5e 23 bb fc ea 13 3d 89 dc 24 3d
       -0.04129373 -0.002492828 0.03611277 0.04024938
0001e0 09 3a 0d 3d 03 ac bc 3e 12 2b f9 3d 7e 1b d3 3d
       0.034479175 0.36849985 0.12166418 0.10307978
0001f0 a3 ae ac 3c dd 8b b3 bb 39 34 f7 3d 11 11 a6 3c
       0.021079367 -0.0054793195 0.120705076 0.02027181
000200 01 f0 e7 3d 7e c8 7c 3d f8 98 69 3d fe 49 2b bb
       0.11325074 0.06171464 0.057030648 -0.0026136632
000210 0e 2c af bb 1b fb fd 3d cc ef f4 3c 0b cf 9d 3d
       -0.005345828 0.1240141 0.0298995 0.07705506
000220 4a 4a ff 3c 96 a6 36 3e 4d 5f 9a 3c af 3a 0b bc
       0.031163353 0.17836985 0.018844271 -0.008497878
000230 34 45 c0 bd 25 da 2c 3d c0 e7 12 3c fd 32 8b bd
       -0.093881994 0.042200226 0.008966386 -0.067968346
000240 da 0d 62 3d 16 ab 78 3d 21 09 c2 3d 74 62 ee 3c
       0.05518899 0.060710035 0.094743975 0.02909968
000250 de 4c c8 3e 6f 9b d8 3d 3c 91 81 3d 77 d1 f2 3d
       0.39121145 0.105765216 0.063265294 0.118563585
000260 66 a1 98 3d ad b7 2c bd 45 4c c4 3a 29 ab 97 3a
       0.07452659 -0.042167354 0.0014976343 0.0011571395
000270 e0 f0 46 bc 72 1f b6 3c f7 8c d7 3a 4b 58 66 3d
       -0.01214239 0.022231791 0.0016445209 0.056236546
000280 cf 8c a5 3d 0d 38 ec 3d 96 56 62 bc ef f9 5b 3d
       0.08083498 0.11534128 -0.013814589 0.053705152
000290 f6 76 07 3d 6f cb 05 3d f2 5c 8b 3d 71 46 80 3d
       0.033072434 0.032664713 0.06804837 0.06263436
0002a0 3f 8c 5b 3e 16 eb f0 3c f5 cd fa 3d 50 b5 9b ba
       0.21440218 0.029408973 0.122463144 -0.0011879597
0002b0 34 9f 30 3e 1c b7 86 3d a7 68 f6 3d ff 02 03 3c
       0.17248231 0.06577894 0.120316796 0.00799632
0002c0 2a f4 bf 3e 35 10 c3 b9 92 9e 49 bd c9 83 e7 bc
       0.3749097 -0.00037205374 -0.04922349 -0.028261082
0002d0 de 0a 7a 3d c0 c6 1a bc 23 f7 9c bd 60 9b 38 3c
       0.06104552 -0.0094468 -0.07664325 0.011267513
0002e0 d6 94 b3 3e 24 3a 91 3a 48 9f 89 3d da b1 76 3d
       0.3507449 0.0011079949 0.067198336 0.060228206
0002f0 d9 84 f2 3c ce 4a 28 3c 63 aa a1 3d ea c7 b8 bc
       0.029604362 0.010271741 0.07893827 -0.022556264
000300 cc 7c 85 3a d2 40 33 3d a4 8d d6 3d f9 4f 80 bc
       0.0010184287 0.04376299 0.104762346 -0.015663134
000310 a4 8c 27 be a3 97 29 3d d9 da e6 3c 52 3e ce bd
       -0.16362244 0.041404378 0.028180527 -0.100704804
000320 e9 16 19 3b 8a c0 72 3e 3f 4a cd bd ff ce 01 3e
       0.0023359603 0.2370626 -0.10023927 0.12676619
000330 a7 da 90 3d ea 1b 38 3d a5 20 a1 3c 95 76 0b bd
       0.070729546 0.044948496 0.019668886 -0.034048636
000340 70 1b be bc 88 1a 5c 3d fc e8 3a bd a2 6b c4 3d
       -0.023206443 0.05373624 -0.045632347 0.09590842
000350 ca 93 9a 3c 65 cc cb 3c f6 8b f4 bd 70 bf 79 bc
       0.0188693 0.024877736 -0.11940758 -0.015243396
000360 ae d3 10 bd 6d ae 43 3e cf 12 fa 3e 08 3c b7 3e
       -0.035358123 0.19109507 0.48842475 0.35787988
000370 1f 73 8d 3e d1 6d 86 3c 83 44 d0 3d 07 ad cc 3d
       0.27626893 0.016409786 0.101693176 0.0999394
000380 cf 9c 12 39 0f 1e c6 3d 20 7f 9b bd e5 1a 2b 3b
       0.00013982061 0.09673702 -0.075926065 0.002610856
000390 bb 73 6e 3d 71 8d 7d 3d 36 50 b2 3d c9 c2 c5 b9
       0.058215838 0.061902467 0.08706705 -0.00037719894
0003a0 10 aa d8 3d 17 7b 94 3d 54 ae b3 3d 82 8a 09 3d
       0.10579312 0.0725004 0.08773485 0.033579357
0003b0 d1 ec ce 3c 3e c3 bc ba db 50 65 3e c8 55 2a 3d
       0.025259407 -0.0014401448 0.22394125 0.041585714
0003c0 a9 00 02 3d 8d 77 1f 3a 11 3d aa 39 a8 2d 98 3d
       0.03173891 0.0006083183 0.00032470425 0.07430583
0003d0 a0 34 ef 3d 68 c5 bb 3c 14 d7 42 3d de d5 61 3c
       0.11679959 0.02292128 0.047568396 0.0137839
0003e0 07 8d 69 38 31 cc d0 3e 73 45 4a 3e 54 c8 26 bd
       5.568287e-05 0.40780786 0.19753055 -0.04071839
0003f0 90 4d 49 3d 47 5c 21 3c 09 5e 24 3d 18 b1 01 3d
       0.049146235 0.009848661 0.04012874 0.03166303
