checkpoint_actor_agent_0.pth (torch_old, 296362 bytes, 10 tensors)

fc1.weight f4 [256, 24]
-0.04473301 0.08073538 0.00024269523 0.017790247 0.17254315 0.034363847 -0.0013952617 0.0011081195
0.0407332 0.0143704 -0.02438716 -0.033067495 0.033744656 0.056286678 0.014092618 0.052622944
0.04412145 0.086130194 0.05488928 0.082500964 -0.27030247 0.10505716 -0.040515278 0.010790752
0.045420513 0.094049655 -0.0030570542 0.09367826 0.014649105 -0.060090862 -0.004431362 0.08599343
0.05495115 0.11799203 0.024517445 0.084457785 -0.15702903 -0.11340942 -0.032041077 0.07759202
-0.011093249 0.1777962 0.034294017 0.021762205 -0.18770401 -0.07492304 -0.06682785 0.027384108
0.055962168 0.1824442 -0.015799569 0.047697563 -0.0319063 -0.17223905 -0.04585763 0.016760383
0.11103139 0.13028038 -0.0471601 -0.032577828 0.028590951 -0.12018335 -0.06549364 -0.039797686
0.059782196 0.13217461 -0.013320631 -0.06643964 0.015367189 -0.14365104 -0.020453583 -0.07111431
-0.14268598 0.12886888 0.009046931 0.047284693 -0.10975229 0.15380387 -0.004369259 0.049194157
-0.017366845 0.16697916 6.886407e-05 0.009671432 -0.07275908 0.15777887 0.03413661 0.0074826614
-0.0039967783 0.14401947 0.019228728 -0.0064216037 0.117026225 -0.03567792 0.018171718 -0.034406193
0.22132619 -0.1199196 0.0023528165 0.005033376 0.010953 0.0085747475 -0.03227453 -0.013628436
0.15702929 -0.12224783 -0.031741925 -0.051861975 0.024419101 -0.0050863666 -0.013049399 0.010896296
0.16174906 -0.15917414 -0.030161045 -0.05703245 0.18026984 -0.047767427 0.014911343 -0.026677987
0.056378335 0.10195673 0.0015129069 -0.018153587 0.008745393 -0.18963769 -0.011286305 -0.020263191
0.08219566 0.07916133 0.012600681 0.029545028 -0.029122101 -0.10613712 -0.02822135 -0.047786094
0.10734265 0.012984168 0.0008446763 -0.018841622 0.007979257 -0.18983516 -0.010110345 0.021745944
0.26686338 -0.015499506 -0.05142858 -0.0029958854 0.041816086 -0.05202644 0.022722764 0.023717228
0.098544635 -0.036962867 -0.03785365 -0.03621254 0.009835051 -0.09135774 0.031998478 0.05245663
0.07914616 -0.018948246 -0.009321261 0.02869187 -0.062599815 -0.06639089 0.0022845042 -0.0036497228
0.09870225 -0.018791618 -0.002529789 -0.02527087 -0.0152169075 -0.0036162355 0.010022377 -0.056456923
0.056748223 0.022347122 -0.066599466 -0.09571942 0.00012936187 -0.021644313 -0.042316962 -0.034414995
0.1935549 0.0045450553 0.04333998 -0.08809386 0.081246436 0.0062049064 0.057253808 -0.080902904
0.050842833 0.094557 -0.013935867 0.04136696 -0.026561499 -0.059284654 0.010820214 0.02718168
0.08750774 0.014480425 0.026021695 0.021572677 -0.20579143 -0.10212872 -0.03436187 0.009462652
0.08465378 0.071158744 -0.018697081 -0.011589955 -0.2489156 -0.050957847 0.013704098 0.004436136
0.0036000577 -0.0135392165 0.027088108 0.016084034 -0.05908145 -0.051805496 -0.040188726 0.02797281
0.15285203 -0.030339502 0.012468135 -0.06897662 -0.028254902 -0.10311002 -0.028074129 0.017191516
0.13621402 -0.03280318 -0.039775506 0.011015693 0.07590725 -0.09088578 0.0346808 0.00014148802
0.061351653 0.033774085 0.051102784 -0.012524069 0.07675729 0.026711607 -0.06011465 -0.045310665
0.22538254 0.043473948 0.049128734 -0.0063133263 0.072077595 0.0124771735 -0.051411185 0.022767235
00000000: f639 37bd 9758 a53d 017c 7e39 dabc 913c
00000010: 27af 303e 1bc1 0c3d 37e1 b6ba 523e 913a
00000020: dbd7 263d d471 6b3c 95c7 c7bc c871 07bd
00000030: d637 0a3d dc8c 663d b9e4 663c 288b 573d
00000040: b2b8 343d 0765 b03d 95d3 603d 44f6 a83d
00000050: 1665 8abe 3528 d73d 59f3 25bd b2cb 303c
00000060: dc0a 3a3d 1b9d c03d dc58 48bb 63da bf3d
00000070: cd02 703c d621 76bd f534 91bb 531d b03d
00000080: 7514 613d cea5 f13d cfd8 c83c 34f8 ac3d
00000090: 38cc 20be 3343 e8bd 813d 03bd 91e8 9e3d
000000a0: 75c0 35bc 3510 363e e277 0c3d a746 b23c
000000b0: 7b35 40be 4071 99bd 0add 88bd a354 e03c
000000c0: 9638 653d a7d2 3a3e 196e 81bc 855e 433d
000000d0: 2eb0 02bd 6f5f 30be 36d5 3bbd 124d 893c
000000e0: 6d64 e33d 3868 053e f32a 41bd 5470 05bd
000000f0: 9237 ea3c b022 f6bd 8821 86bd e602 23bd
00000100: 2dde 743d c858 073e c73e 5abc 8211 88bd
00000110: aac6 7b3c 4219 13be 468e a7bc 61a4 91bd
00000120: 461c 12be 34f6 033e 9439 143c 98ad 413d
00000130: cfc5 e0bd c37e 1d3e 002c 8fbb d07f 493d
00000140: ea44 8ebc 96fc 2a3e 1e6b 9038 ed74 1e3c
00000150: b602 95bd c990 213e d4d2 0b3d 1d31 f53b
00000160: 68f7 82bb d779 133e 9185 9d3c 516c d2bb
00000170: 72ab ef3d 0323 12bd dbdc 943c 82ed 0cbd
00000180: 55a3 623e 6898 f5bd b631 1a3b 05ef a43b
00000190: 3674 333c 197d 0c3c 4c32 04bd ce49 5fbc
000001a0: 49cc 203e 125d fabd d203 02bd 396d 54bd
000001b0: 910a c83c 89ab a6bb 25cd 55bc 6186 323c
000001c0: 8ca1 253e 8cfe 22be 4c14 f7bc dc9a 69bd
000001d0: a898 383e c7a7 43bd b54e 743c cb8b dabc
000001e0: f8ec 663d b1ce d03d bb4c c63a d5b6 94bc
000001f0: d648 0f3c 6230 42be 32ea 38bc fefe a5bc
00000200: 3356 a83d 561f a23d 1673 4e3c 6a08 f23c
00000210: 7991 eebc 6b5e d9bd 7630 e7bc 5abb 43bd
00000220: 77d6 db3d 8cbb 543c 446d 5d3a bf59 9abc
00000230: 6ebb 023c 2664 42be dca5 25bc 8d24 b23c
00000240: 51a2 883e a4f1 7dbc c6a6 52bd 9e56 44bb
00000250: 5847 2b3d ad19 55bd 1725 ba3c a24a c23c
00000260: c5d1 c93d 6066 17bd 6e0c 1bbd 9a53 14bd
00000270: 3223 213c c419 bbbd d610 033d c3dc 563d
00000280: 6217 a23d 5a39 9bbc 34b8 18bc 360b eb3c
00000290: 5534 80bd f2f7 87bd 9fb7 153b 3030 6fbb
000002a0: 6824 ca3d e1f0 99bc d1ca 25bb db04 cfbc
000002b0: 5650 79bc 5dfe 6cbb e534 243c 603f 67bd
000002c0: d370 683d 5011 b73c 4d65 88bd 8b08 c4bd
000002d0: 50a5 0739 6a4f b1bc 8d54 2dbd bdf6 0cbd
000002e0: 4133 463e b0ee 943b 4385 313d 8e6a b4bd
000002f0: 8864 a63d 8752 cb3b f882 6a3d 6cb0 a5bd
00000300: 9340 503d 1aa7 c13d 4353 64bc 6770 293d
00000310: 8097 d9bc 77d4 72bd 4447 313c 1dac de3c
00000320: 4237 b33d 4e3f 6d3c 732b d53c 2fb9 b03c
00000330: fdba 52be dd28 d1bd 08bf 0cbd 3d09 1b3c
00000340: f65e ad3d adbb 913d 9f2a 99bc cbe3 3dbc
00000350: bbe3 7ebe 2db9 50bd 2787 603c 025d 913b
00000360: f2ee 6b3b 97d3 5dbc e1e7 dd3c aac2 833c
00000370: 64ff 71bd 0032 54bd ef9c 24bd 3c27 e53c
00000380: 3e85 1c3e 8c8a f8bc 2647 4c3c 9d43 8dbd
00000390: d376 e7bc 592b d3bd b7fb e5bc 39d5 8c3c
000003a0: b07b 0b3e a15c 06bd a4eb 22bd 2a7b 343c
000003b0: 4375 9b3d 5322 babd 740d 0e3d 675c 1439
000003c0: df4b 7b3d b256 0a3d 2751 513d c131 4dbc
000003d0: ed32 9d3d 4dd2 da3c c73a 76bd ad97 39bd
000003e0: aeca 663e bd11 323d 363b 493d 05e0 cebb
000003f0: 6b9d 933d 0f6d 4c3c 8994 52bd 5a82 ba3c

fc1.bias f4 [256]
-0.20840909 -0.23290552 -0.2665114 0.01375552 -0.12680684 -0.34783235 -0.17525241 -0.18729924
-0.01919283 -0.16059223 -0.15185045 -0.14312519 -0.09210615 -0.12338797 0.07904518 -0.06759751
-0.0928954 0.13050018 0.028104203 -0.13668258 -0.2915886 -0.12714106 -0.005642295 -0.16153446
0.09862324 -0.029757427 0.07018322 -0.12844408 -0.16023153 -0.31746623 0.006356053 0.018541401
-0.028102985 -0.13596858 0.059113037 -0.30886063 -0.36970478 -0.29470354 -0.18443629 0.15367444
-0.072421074 -0.23083751 -0.040744398 -0.2891181 -0.20029154 -0.022979062 0.050136793 -0.2494531
-0.30843237 -0.14277601 0.00026374354 -0.02051327 -0.1522401 0.22539952 0.0063581145 -0.111391015
-0.048488818 -0.1183722 -0.27689093 0.047134064 -0.3302651 0.021631062 -0.243626 0.054207046
0.016823344 -0.27147058 -0.054527357 -0.2225762 -0.16948181 0.0047032908 -0.22432178 -0.25277618
-0.15819839 -0.14066517 -0.057755597 -0.32524723 -0.057097398 0.070970096 -0.042615842 -0.069988094
-0.17698614 -0.08151222 -0.010407308 0.06812067 -0.09044095 -0.28882578 -0.25695738 -0.008567646
-0.2438159 0.03304066 -0.28543422 -0.039514497 -0.15941243 -0.09804121 -0.0050645834 -0.2629493
-0.026491452 0.020538522 8.695277e-05 -0.21842372 -0.12575321 -0.13413718 -0.029318066 0.0033390864
-0.21537286 -0.12158415 0.025375934 -0.041831564 -0.3323356 -0.019788949 -0.1370532 -0.1650716
-0.31812736 0.027605353 0.03639119 -0.1419918 -0.2936761 -0.0037774625 -0.023886329 -0.014678707
-0.16516677 0.13248706 0.06783304 0.07338238 -0.19101427 0.07644932 0.06680655 -0.23405817
-0.15476653 -0.052517958 -0.064922385 -0.2920573 0.015402734 -0.14348486 -0.11297242 -0.083560176
-0.046895593 0.0016194887 -0.100422114 -0.012793036 -0.18438435 0.05678545 -0.2157899 0.09419834
-0.10931279 -0.20193492 -0.051526126 0.10752335 -0.06351202 -0.035338968 -0.27913 -0.017911598
-0.23133624 -0.10048014 -0.03678231 0.026798176 0.1506563 0.058508765 -0.06428373 -0.13070494
-0.10394059 -0.02227286 0.18562678 -0.019916479 -0.22165868 -0.012229325 -0.019145312 -0.036378253
0.01889091 -0.13394381 0.093755886 -0.11187827 -0.23612453 0.004386149 -0.26758552 0.016680691
-0.1773712 -0.16587435 -0.03282594 -0.21290848 -0.13961649 -0.1379668 -0.23514897 -0.05599237
-0.0174067 -0.05799844 -0.22138697 -0.22522335 -0.08267539 -0.057408337 -0.16138884 -0.034017585
0.09885789 0.10778059 -0.0874491 0.13338727 -0.1755806 -0.12759069 0.12644285 -0.18543175
-0.3184614 -0.17853703 -0.39344293 -0.38492703 0.07238479 -0.14444631 -0.028235693 -0.3618682
0.046962794 -0.23287413 -0.16017179 -0.0013803111 -0.038117897 -0.25902155 -0.0018281209 -0.12799597
0.11399352 -0.15749423 0.015238843 -0.01190475 0.1267842 -0.24679892 -0.33785847 -0.047182176
0.082181565 -0.241965 0.043733347 0.16054185 -0.18249744 -0.16452082 0.01704032 -0.25598633
-0.19027694 0.010481012 -0.1532398 -0.20478052 0.08327491 -0.17156905 0.06650446 0.033724703
-0.17586267 -0.19318056 -0.12396061 -0.3528241 0.2545367 -0.035869256 -0.05094392 0.18063101
-0.40962932 -0.26745808 -0.3065511 -0.28948304 0.013342188 -0.17391934 -0.27854183 -0.1868271
00000000: 3169 55be c97e 6ebe 2f74 88be d55e 613c
00000010: a7d9 01be 1517 b2be 5e75 33be 5fcb 3fbe
00000020: 483a 9dbc 4a72 24be af7e 1bbe 698f 12be
00000030: 26a2 bcbd d5b2 fcbd 70e2 a13d 9070 8abd
00000040: f23f bebd d7a1 053e c93a e63c 85f6 0bbe
00000050: 1a4b 95be 4431 02be 00e3 b8bb 4a69 25be
00000060: fbfa c93d d9c5 f3bc 38bc 8f3d d886 03be
00000070: bc13 24be ef8a a2be 7046 d03b 23e4 973c
00000080: 3b38 e6bc 593b 0bbe 8320 723d fb22 9ebe
00000090: f249 bdbe 62e3 96be dedc 3cbe d55c 1d3e
000000a0: 8051 94bd ab60 6cbe 99e3 26bd 4a07 94be
000000b0: 3a19 4dbe 963e bcbc 3d5c 4d3d a270 7fbe
000000c0: d9ea 9dbe e033 12be 0f47 8a39 720b a8bc
000000d0: d4e4 1bbe 22cf 663e bb57 d03b f920 e4bd
000000e0: 369c 46bd 206d f2bd a6c4 8dbe a60f 413d
000000f0: 8218 a9be a033 b13c 1879 79be 3508 5e3d
00000100: 1cd1 893c 31fe 8abe 1458 5fbd 04eb 63be
00000110: a48c 2dbe 101e 9a3b 9cb4 65be e16b 81be
00000120: c2fe 21be 880a 10be 2291 6cbd ce86 a6be
00000130: f6de 69bd c558 913d f38d 2ebd eb55 8fbd
00000140: db3b 35be e1ef a6bd 6a83 2abc da82 8b3d
00000150: 1b39 b9bd f9e0 93be eb8f 83be 505f 0cbc
00000160: e0aa 79be a555 073d 6f24 92be f4d9 21bd
00000170: 033d 23be d4c9 c8bd cef4 a5bb 4aa1 86be
00000180: 9a04 d9bc 6740 a83c 6a5a b638 78aa 5fbe
00000190: 73c5 00be 425b 09be 712c f0bc 93d4 5a3b
000001a0: b48a 5cbe 1c01 f9bd 31e1 cf3c 9357 2bbd
000001b0: e427 aabe 6f1c a2bc ad57 0cbe 8808 29be
000001c0: 97e1 a2be 9f24 e23c ee0e 153d 4c66 11be
000001d0: b75c 96be 4e8f 77bb 43ad c3bc f67e 70bc
000001e0: 7a21 29be b0aa 073e 0dec 8a3d 8049 963d
000001f0: 3f99 43be 7691 9c3d dfd1 883d f2ac 6fbe
00000200: 1e7b 1ebe 121d 57bd 07f6 84bd 8988 95be
00000210: c05b 7c3c b2ed 12be 165e e7bd 9921 abbd
00000220: 9815 40bd 0645 d43a 1caa cdbd e299 51bc
00000230: 40cf 3cbe dc97 683d 07f8 5cbe 0feb c03d
00000240: 62df dfbd 07c8 4ebe 0f0d 53bd 3435 dc3d
00000250: 9712 82bd 98bf 10bd 21ea 8ebe 58bb 92bc
00000260: 68e3 6cbe 88c8 cdbd 0ca9 16bd d987 db3c
00000270: a545 1a3e e3a6 6f3d 30a7 83bd 84d7 05be
00000280: cede d4bd 9375 b6bc f214 3e3e e227 a3bc
00000290: 7efa 62be 825d 48bc a1d6 9cbc 5d01 15bd
000002a0: 1cc1 9a3c 9128 09be 1603 c03d 6f20 e5bd
000002b0: a1ca 71be afb9 8f3b f800 89be f2a5 883c
000002c0: cca0 35be f7da 29be 7e74 06bd ae04 5abe
000002d0: a0f7 0ebe 2b47 0dbe e4ca 70be 4158 65bd
000002e0: 7f98 8ebc c68f 6dbd 44b3 62be f3a0 66be
000002f0: b751 a9bd 0125 6bbd 1e43 25be 0656 0bbd
00000300: 0176 ca3d 12bc dc3d 8418 b3bd ac96 083e
00000310: 67cb 33be 22a7 02be 3c7a 013e d2e1 3dbe
00000320: 5f0d a3be 69d2 36be 5a71 c9be 2815 c5be
00000330: 7a3e 943d bce9 13be 8a4e e7bc ca46 b9be
00000340: 0f5c 403d 8e76 6ebe 1304 24be 8eeb b4ba
00000350: 8321 1cbd 799e 84be 8f9d efba 6011 03be
00000360: 6f75 e93d 2b46 21be 57ac 793c 240c 43bc
00000370: b8d3 013e dbb8 7cbe c9fb acbe 1942 41bd
00000380: cf4e a83d acc5 77be bd21 333d 1565 243e
00000390: 9ce0 3abe 2578 28be 2498 8b3c a410 83be
000003a0: f5d7 42be 8db8 2b3c e5ea 1cbe fcb1 51be
000003b0: 098c aa3d ccaf 2fbe 7e33 883d ea22 0a3d
000003c0: 5815 34be 20d1 45be 0fdf fdbd 5ca5 b4be
000003d0: a252 823e a4eb 12bd 92aa 50bd 56f7 383e
000003e0: efba d1be 44f0 88be 44f4 9cbe 1f37 94be
000003f0: 3199 5a3c e917 32be 099d 8ebe 9a4f 3fbe

fc2.weight f4 [256, 256]
-0.09694028 -0.1306492 0.1222884 -0.07209867 0.038274165 0.055651784 0.02481327 0.12448424
-0.17811146 -0.025720602 0.0060698013 0.01245339 0.14963634 0.07978807 -0.030872226 -0.08977492
-0.04083575 -0.014588457 0.016137026 -0.06440121 0.15446311 -0.06626013 -0.105177894 -0.096312
0.0648435 0.14413913 -0.069156684 -0.26344967 -0.026501326 -0.06992894 0.012910381 -0.014139571
-0.023579897 -0.022706961 -0.018791433 -0.041628823 -0.09910849 -0.04511884 -0.029700506 0.10938164
0.07981892 -0.15753151 0.017119603 -0.045453764 0.060057867 0.10313747 -0.07940933 0.02857317
-0.045382336 0.07803988 -0.17942931 0.123464175 -0.095878206 0.006036809 -0.06088431 0.09879589
-0.06705168 0.072092034 0.044372052 -0.069553494 0.032325324 -0.0011645167 -0.005787943 0.01530957
0.030011037 0.03209873 0.077309184 -0.10017657 0.038273282 -0.0012340196 -0.08915263 -0.033653013
0.0073281964 0.005752171 -0.04690902 0.070488214 0.0049272617 0.16787733 -0.0876683 0.15347376
0.016090263 0.12290933 -0.10469263 0.041183967 0.002428123 -0.1268497 -0.1560491 0.06933602
0.07904394 0.11752954 0.01927077 -0.04294953 0.09507828 0.101224996 -0.010595093 0.0054726936
0.027960546 -0.024459286 -0.061249133 -0.007031295 -0.015312375 0.10828062 -0.024144432 0.053726397
-0.18831913 0.031500414 -0.011143062 -0.11902599 0.030145034 0.052978653 -0.30431482 0.041839376
-0.093033694 -0.053837784 -0.035096265 0.019995598 -0.013571249 0.020979878 0.027204404 0.091132715
0.007723022 0.111059666 0.024178883 0.08279644 -0.08833654 0.011214057 0.07937046 0.02384222
0.0047957166 -0.06740227 -0.22457553 -0.020745985 0.097029656 -0.08708233 0.082822025 -0.046842646
-0.1461397 0.042359754 0.0075696115 0.014026779 0.021705227 -0.08626793 -0.013159855 0.113822624
0.019087994 0.026500925 0.10346458 -0.08993254 0.09864918 0.097263336 -0.03832048 0.00748668
-0.15779842 -0.11410334 0.008883364 -0.004339146 -0.010094761 0.0330251 -0.16183545 0.07361612
-0.07808578 0.03091762 0.069372065 -0.031920858 0.044139266 -0.07595118 0.062475506 0.04963154
0.023766136 -0.068314284 0.048221663 0.0429469 -0.06509036 -0.16095717 -0.13477787 -0.0037602873
-0.026525471 0.013619261 -0.027983557 0.100740865 0.0017957115 0.031279583 -0.054636054 -0.0034845958
0.068667464 -0.088110894 -0.049253035 0.057253085 -0.10311212 -0.14463684 0.018261734 0.005955931
-0.026944613 0.037035663 -0.09602352 0.10035181 -0.00015812859 -0.06796173 0.031205542 -0.13561112
-0.06817477 -0.15077318 0.049926016 -0.20927367 0.0030573027 0.07300961 -0.039596234 0.025236338
0.057448123 -0.03447859 -0.07602435 0.067691036 -0.2186689 0.0871537 -0.025921676 -0.062370565
0.071746066 -0.012049432 0.0632819 0.009082642 -0.0019254436 -0.16612718 0.0017099602 -0.029128173
-0.11511708 0.06676243 0.11508491 0.037214726 -0.088287376 0.06828211 -0.10435752 0.0012424054
-0.063436866 0.034375027 0.022368625 0.08225186 0.010956098 -0.0021038176 -0.16703625 0.060849745
-0.012658926 0.09196647 -0.014162432 -0.027039072 0.11467728 -0.096150346 0.038383763 -0.19840468
-0.027101384 -0.060592208 0.12170177 -0.017168857 0.08889454 -0.0793753 -0.06612202 -0.067273684
00000000: a088 c6bd e7c8 05be 5772 fa3d 78a8 93bd
00000010: 5fc5 1c3d 20f3 633d 3345 cb3c 98f1 fe3d
00000020: da62 36be 03b4 d2bc 2fe5 c63b 4e09 4c3c
00000030: 453a 193e ed67 a33d c0e7 fcbc eadb b7bd
00000040: 6343 27bd 6c04 6fbc cc31 843c c8e4 83bd
00000050: 942b 1e3e 64b3 87bd 8267 d7bd 3a3f c5bd
00000060: abcc 843d 3599 133e 05a2 8dbd e0e2 86be
00000070: 4f19 d9bc e736 8fbd 1086 533c a9a9 67bc
00000080: a12a c1bc f303 babc 7ef0 99bc fc82 2abd
00000090: 64f9 cabd 88ce 38bd 7a4e f3bc 7b03 e03d
000000a0: 1a78 a33d f14f 21be 693e 8c3c ba2d 3abd
000000b0: 3dff 753d bd39 d33d 5ca1 a2bd 4812 ea3c
000000c0: d4e2 39bd 5fd3 9f3d 51bc 37be c9da fc3d
000000d0: cb5b c4bd 6dd0 c53b d461 79bd 8055 ca3d
000000e0: 6452 89bd fda4 933d 78bf 353d 1072 8ebd
000000f0: 8f67 043d b2a2 98ba c9a8 bdbb fed4 7a3c
00000100: b5d9 f53c f579 033d 4754 9e3d 6029 cdbd
00000110: 72c4 1c3d d4be a1ba a795 b6bd bed7 09bd
00000120: 5e21 f03b b57c bc3b ac23 40bd 205c 903d
00000130: de74 a13b 09e8 2b3e 708b b3bd 3a28 1d3e
00000140: bacf 833c e3b7 fb3d 1769 d6bd 85b0 283d
00000150: 2521 1f3b e3e4 01be 56cb 1fbe 0b00 8e3d
00000160: cae1 a13d 54b3 f03d bcdd 9d3c d9eb 2fbd
00000170: 67b8 c23d 0d4f cf3d 0a97 2dbc 4854 b33b
00000180: 840d e53c d75e c8bc 5fe0 7abd c766 e6bb
00000190: c1e0 7abc 3bc2 dd3d 8bca c5bc 3610 5c3d
000001a0: bbd6 40be 9406 013d 6491 36bc e6c3 f3bd
000001b0: b8f2 f63c 2500 593d 27cf 9bbe c45f 2b3d
000001c0: 7388 bebd 0285 5cbd 1ac1 0fbd cfcd a33c
000001d0: f259 5ebc fedd ab3c c5db de3c caa3 ba3d
000001e0: 6711 fd3b 4073 e33d cb12 c63c 2e91 a93d
000001f0: cae9 b4bd 2abb 373c fb8c a23d c250 c33c
00000200: 6325 9d3b 340a 8abd 21f7 65be 7cf3 a9bc
00000210: 7cb7 c63d 3858 b2bd 989e a93d 13de 3fbd
00000220: a5a5 15be 6c81 2d3d 810a f83b 93d0 653c
00000230: 29cf b13c 3ead b0bd 6f9c 57bc d61b e93d
00000240: 6d5e 9c3c 7818 d93c 3de5 d33d 8d2e b8bd
00000250: 9508 ca3d 0032 c73d f0f5 1cbd d352 f53b
00000260: e995 21be 03af e9bd 878b 113c 652f 8ebb
00000270: 7f64 25bc 5445 073d 31b8 25be 0cc4 963d
00000280: 70eb 9fbd f346 fd3c f112 8e3d 72bf 02bd
00000290: 60cb 343d 4b8c 9bbd 51e6 7f3d 714a 4b3d
000002a0: 33b1 c23c 5ce8 8bbd 1484 453d 17e9 2f3d
000002b0: 184e 85bd f5d1 24be 3603 0abe 276f 76bb
000002c0: f24b d9bc 5223 5f3c c63d e5bc 3a51 ce3d
000002d0: 145e eb3a 051f 003d 0eca 5fbd d15d 64bb
000002e0: 87a1 8c3d 7c73 b4bd 8dbd 49bd 3682 6a3d
000002f0: 722c d3bd ae1b 14be a299 953c f829 c33b
00000300: f3ba dcbc b5b2 173d fba7 c4bd 4085 cd3d
00000310: 52cf 25b9 852f 8bbd c4a2 ff3c a4dd 0abe
00000320: 379f 8bbd 4964 1abe 397f 4c3d d64b 56be
00000330: 075d 483b 1086 953d a92f 22bd 70bc ce3c
00000340: b94e 6b3d 6c39 0dbd a8b2 9bbd 99a1 8a3d
00000350: bdea 5fbe a47d b23d b259 d4bc 4778 7fbd
00000360: 9aef 923d fb6a 45bc f199 813d 5dcf 143c
00000370: 2b5f fcba 3e1d 2abe be20 e03a 359e eebc
00000380: 81c2 ebbd beba 883d a3b1 eb3d 786e 183d
00000390: 03d0 b4bd 7ed7 8b3d 65b9 d5bd 35d8 a23a
000003a0: 30eb 81bd d4cc 0c3d 683e b73c aa73 a83d
000003b0: 3581 333c 34e0 09bb 8d0b 2bbe 953d 793d
000003c0: 6267 4fbc eb58 bc3d 8c09 68bc 0b81 ddbc
000003d0: ecdb ea3d 79ea c4bd 4b38 1d3d 992a 4bbe
000003e0: b903 debc 892f 78bd c73e f93d b4a5 8cbc
000003f0: 570e b63d 848f a2bd fb6a 87bd c9c6 89bd

fc2.bias f4 [256]
0.07804112 0.02742156 0.0055338866 0.07166584 0.028608387 -0.009953956 0.0513524 0.049217016
0.009107463 0.08975197 0.015141574 0.027557291 0.03670607 0.0050154002 -3.194566e-05 0.06527854
-0.024069373 0.2154671 -0.03575785 0.090589434 -0.045299783 0.09905444 0.065556124 -0.10731093
-0.015624618 0.027438486 0.063957304 0.0012338456 0.029831015 0.11598922 0.031621613 -0.011093044
0.0646187 -0.047895342 0.02092266 -0.03290683 0.050348196 0.025050009 0.006468718 0.085870914
0.09661008 0.08270525 0.1732366 0.19329232 -0.01387185 0.011503754 0.03890036 -0.012681191
0.0514746 0.122401856 -0.016314505 0.22904651 0.010429302 -0.03157719 0.0359081 0.11465304
0.008034782 0.01354339 0.015700946 -0.07427327 0.081673354 0.04233672 0.013347813 0.08818535
-0.064835355 0.04790854 0.105709426 -0.10307884 0.034265958 0.064373694 0.07619201 0.044220094
0.052703377 0.06305447 -0.03419107 -0.030676426 -0.00080075645 0.09193467 0.112003535 0.02055554
0.063925385 -0.106365465 -0.020487444 0.0064159124 0.14979726 0.053915534 0.09885125 -0.021103926
0.013668344 0.018890075 0.16866419 0.051935393 0.15665273 -0.027433747 -0.011663366 0.0967126
0.12053049 0.018308805 0.05451457 -0.051373865 0.07019154 0.025826463 0.10738407 0.054679718
0.09195229 0.08722036 0.04292977 0.056878567 0.11870347 -0.045355402 0.06893156 0.0889553
0.19545919 0.03685922 -0.040633585 0.053763896 0.036958702 0.054769162 0.05513011 -0.052943293
0.08203491 0.053384736 0.03371598 0.0071494696 -0.00985716 0.16436017 0.15667643 -0.015648818
0.016500914 0.035753433 -0.03400556 0.051162526 -0.019650482 0.09674071 0.0666911 0.07851245
0.059647072 0.036648043 0.083801925 0.042748976 0.040063262 0.13446362 0.024295572 -0.015269914
0.08264555 0.028407019 0.06770906 0.06806129 0.09006694 -0.010576578 -0.023310492 0.01762961
0.09752581 0.032157075 0.12730412 0.040534027 0.06838067 0.14537151 0.157919 0.040226027
-0.041170314 0.08332354 0.0449547 0.09090206 0.062482215 0.033925056 0.019330638 0.078395404
0.086421154 0.064553335 -0.009344185 0.059148442 0.039036214 0.11049698 -0.039762106 0.09900306
0.12289795 -0.005147659 -0.0028251174 0.04829249 0.102744214 0.089425735 0.22998026 0.06269232
0.023108557 0.12579586 0.004162252 0.0028839393 0.05979048 0.001795377 0.003642268 -0.039867163
0.03025224 0.00015645161 -0.012044924 0.063072056 0.032404847 0.1351126 0.09529861 0.13557547
-0.037199646 0.058312394 0.13778135 0.07094353 -0.016837955 0.028014071 0.11020413 0.16957077
0.012415539 0.017372439 -0.0048902775 0.04188304 -0.030828103 0.08648465 0.05351552 0.0907684
0.02048169 0.021518974 0.10242651 0.11237328 0.056665905 -0.021443574 0.084781624 0.039985742
0.1861333 0.092778146 0.07747828 0.114314966 0.006708319 0.061014887 -0.036114223 0.057320047
0.04137962 0.11572484 0.06646991 0.05499275 0.06248643 0.048249293 0.0274229 0.089833505
0.07024202 0.083148345 0.028228626 0.03222192 -0.015456631 0.13682334 0.00392172 0.07329385
0.06188065 0.039952952 0.05707844 0.00035283057 0.05572526 -0.012142181 -0.04473927 0.12837167
00000000: 06d4 9f3d 2ea3 e03c 9b55 b53b 8ac5 923d
00000010: 235c ea3c eb15 23bc e556 523d c897 493d
00000020: 7837 153c e1cf b73d 5d14 783c d4bf e13c
00000030: 1b59 163d 3a58 a43b 64fd 05b8 c1b0 853d
00000040: 222d c5bc 68a3 5c3e d376 12bd f486 b93d
00000050: 448c 39bd 0edd ca3d 4a42 863d d5c5 dbbd
00000060: 66fe 7fbc adc6 e03c 0cfc 823d fdb8 a13a
00000070: 2c60 f43c c28b ed3d aa85 013d 99bf 35bc
00000080: cf56 843d e82d 44bd 0066 ab3c 50c9 06bd
00000090: e939 4e3d ad35 cd3c 8af7 d33b 17dd af3d
000000a0: 81db c53d 5f61 a93d ef64 313e 6cee 453e
000000b0: c246 63bc 3e7a 3c3c fc55 1f3d c5c4 4fbc
000000c0: 08d7 523d d3ad fa3d ffa5 85bc 2b8b 6a3e
000000d0: aadf 2a3c 1557 01bd 5f14 133d 37cf ea3d
000000e0: 51a4 033c 18e5 5d3c 459f 803c 961c 98bd
000000f0: 5c44 a73d 4569 2d3d c9b0 5a3c 859a b43d
00000100: 66c8 84bd bf3b 443d 2f7e d83d 001b d3bd
00000110: 765a 0c3d 5bd6 833d 8e0a 9c3d 2120 353d
00000120: 7fdf 573d b422 813d ef0b 0cbd 214d fbbc
00000130: dbe9 51ba 3f48 bc3d 1c62 e53d 1864 a83c
00000140: 50eb 823d 23d6 d9bd 49d5 a7bc 933c d23b
00000150: 7464 193e 89d6 5c3d 8672 ca3d 24e2 acbc
00000160: 31f1 5f3c 5cbf 9a3c 4eb6 2c3e 35ba 543d
00000170: 9369 203e bdbc e0bc b417 3fbc 4111 c63d
00000180: b1d8 f63d 59fc 953c ab4a 5f3d 676d 52bd
00000190: 95c0 8f3d 0592 d33c 2eec db3d d7f7 5f3d
000001a0: 7b51 bc3d 97a0 b23d 20d7 2f3d 80f9 683d
000001b0: ce1a f33d 96c6 39bd fd2b 8d3d 322e b63d
000001c0: 7426 483e b2f9 163d 676f 26bd 8837 5c3d
000001d0: 0262 173d a155 603d 1cd0 613d 11db 58bd
000001e0: eb01 a83d f4a9 5a3d c419 0a3d 1946 ea3b
000001f0: ed7f 21bc 084e 283e c96f 203e f331 80bc
00000200: ed2c 873c 3172 123d 6a49 0bbd cc8f 513d
00000210: 0cfa a0bc fe1f c63d 5895 883d 23cb a03d
00000220: 7d50 743d 421c 163d 58a0 ab3d 8d19 2f3d
00000230: 6019 243d d5b0 093e 8207 c73c a92e 7abc
00000240: 1242 a93d d6b5 e83c 0cab 8a3d b863 8b3d
00000250: 0475 b83d 6249 2dbc a5f5 bebc f96b 903c
00000260: 9dbb c73d 23b7 033d 035c 023e 0207 263d
00000270: 2a0b 8c3d 45dc 143e 85b5 213e 0cc4 243d
00000280: 34a2 28bd 88a5 aa3d 6b22 383d dc2a ba3d
00000290: 5aed 7f3d 00f5 0a3d 495b 9e3c c58d a03d
000002a0: 93fd b03d 8a34 843d 5a18 19bc a345 723d
000002b0: 70e4 1f3d 3e4c e23d 97dd 22bd 1ec2 ca3d
000002c0: ecb1 fb3d b2ad a8bb 9b25 39bb 59ce 453d
000002d0: 8f6b d23d d724 b73d f27f 6b3e d564 803d
000002e0: 284e bd3c a1d0 003e 8063 883b 7900 3d3b
000002f0: dde6 743d db52 eb3a 1eb3 6e3b c04b 23bd
00000300: 8cd3 f73c 290d 2439 1358 45bc ec2b 813d
00000310: f2ba 043d f55a 0a3e eb2b c33d 4cd4 0a3e
00000320: a85e 18bd fad8 6e3d 8e16 0d3e d74a 913d
00000330: c0ef 89bc c47d e53c b4b2 e13d f6a3 2d3e
00000340: 8b6a 4b3c a550 8e3c 9f3e a0bb 8d8d 2b3d
00000350: 388b fcbc dd1e b13d 1733 5b3d c8e4 b93d
00000360: 38c9 a73c 8f48 b03c fdc4 d13d f623 e63d
00000370: 821a 683d 6faa afbc fda1 ad3d 17c8 233d
00000380: ba99 3e3e 7802 be3d efac 9e3d f71d ea3d
00000390: 75d1 db3b bfea 793d 82ec 13bd 6dc8 6a3d
000003a0: ad7d 293d 2501 ed3d 6021 883d 1440 613d
000003b0: c5f1 7f3d 0da1 453d fda5 e03c a1fa b73d
000003c0: 0cdb 8f3d ae49 aa3d b83f e73c 22fb 033d
000003d0: cf3d 7dbc 6b1b 0c3e c681 803b 161b 963d
000003e0: 9176 7d3d b5a5 233d 15cb 693d 1efc b839
000003f0: 2c40 643d 00f0 46bc 8640 37bd dd73 033e

fc3.weight f4 [2, 256]
-0.20204227 -0.11654352 -0.22664478 -0.37978864 0.30323568 0.29840976 -0.33077022 -0.21990362
-0.2526152 -0.18365522 0.2426846 -0.03947571 -0.30594593 0.19951662 0.23330939 0.280842
0.3686079 -0.07892553 -0.50505114 0.15207148 0.27654433 0.16810904 0.082520306 -0.36490503
-0.23830986 0.17525432 0.35443148 -0.5090434 0.19491091 0.1980187 -0.18359883 0.27549395
-0.1609437 -0.21262176 0.48828197 -0.4053761 0.050592005 -0.11307372 0.07381861 -0.15013765
-0.23002672 0.08828537 -0.07770212 -0.13369879 -0.35102206 -0.24722412 0.105125 0.13070424
0.3043436 0.0047061574 -0.23822513 -0.054100826 0.09591004 -0.22342011 0.1458335 -0.20695584
-0.31244114 -0.16449694 -0.39962146 -0.37996882 0.3269043 0.196782 -0.33384287 0.5006305
0.46082622 0.32314357 0.02035997 -0.35159615 0.12459446 0.39277217 -0.26862007 -0.28140593
-0.07197038 -0.27697083 -0.2959549 0.17549802 -0.43361115 -0.11908697 -0.015949272 -0.45205155
0.2096937 -0.29245737 0.40958688 0.3259654 -0.0068572955 0.30092916 -0.15800725 -0.3225964
-0.18013923 0.4995446 -0.061415154 -0.2158485 -0.2750549 0.5234347 0.19400147 -0.001998486
-0.3833071 -0.37923828 -0.14965996 -0.38782158 0.21480785 0.06968529 -0.1549822 -0.2684736
-0.21745448 -0.048754085 -0.17156449 -0.46634766 0.27455533 0.16600092 -0.060531434 -0.22193651
-0.12716022 0.28459024 0.28873274 0.03858609 0.38482487 0.2844718 0.10604297 0.20349765
0.15281864 0.24778827 -0.26715216 -0.012107283 0.1848435 -0.3166925 -0.22836563 0.22786099
0.5109145 -0.321932 -0.47791794 -0.21723294 0.2170074 -0.15030353 -0.08376777 0.35931867
-0.35334513 0.17564325 0.4133303 0.12634218 0.2377787 -0.17202725 -0.464262 -0.36081192
-0.22152969 -0.3978221 -0.16568916 -0.2770129 -0.1298812 0.48426142 -0.45705315 -0.22027303
0.19859222 -0.25047448 -0.17741954 0.41687927 -0.2655673 -0.104990035 -0.1202647 -0.17366825
-0.2917358 -0.03233391 -0.3131374 -0.12816055 0.17183267 0.24718884 -0.3334353 -0.18582399
0.3657854 0.22551432 0.3294533 -0.063122325 0.13391347 0.26482028 0.27238268 0.16750486
-0.18051197 0.30704415 0.15195991 -0.28350425 -0.33575082 0.06930662 -0.05820737 -0.25930235
-0.3229855 -0.31705442 -0.31547853 -0.29998028 0.3920066 -0.49429965 -0.48842138 0.15517838
0.46185824 -0.06778039 -0.09744894 0.22978774 -0.17750259 -0.07944905 0.09997817 0.4442865
0.23441018 0.18138976 0.40916616 -0.11433783 0.32746845 0.10710029 -0.1963564 0.09195003
0.23798755 0.28628948 0.19199851 0.25471696 0.092143565 -0.37350252 -0.11059232 -0.12786561
-0.11337131 0.25052983 0.33269334 0.21336502 0.4252294 -0.40420476 -0.22482169 0.43835917
0.056414813 0.20051232 0.44210124 0.18258086 0.13832955 0.042962067 -0.20558064 -0.25027323
-0.22404085 0.3171174 -0.2687574 -0.1436095 0.36105403 0.051166665 0.18241148 -0.15118645
-0.37436104 -0.17922531 0.34152126 0.34767157 0.3705319 -0.053539656 0.046482675 0.1498229
0.15108638 -0.08584932 0.15053077 0.36750507 0.20526539 -0.2216302 -0.25514716 0.07624497
00000000: 2be4 4ebe 5eae eebd 9215 68be a873 c2be
00000010: b541 9b3e 2ac9 983e b75a a9be 6a2e 61be
00000020: c856 81be 1d10 3cbe 5082 783e 48b1 21bd
00000030: f2a4 9cbe 164e 4c3e a8e8 6e3e 86ca 8f3e
00000040: 2dba bc3e b5a3 a1bd 084b 01bf a0b8 1b3e
00000050: 3897 8d3e c724 2c3e 6800 a93d d5d4 babe
00000060: 8007 74be de75 333e 0b78 b53e ab50 02bf
00000070: ba96 473e 6ac5 4a3e 5501 3cbe 8b0d 8d3e
00000080: 6dce 24be 85b9 59be 1800 fa3e 758d cfbe
00000090: 9039 4f3d 3293 e7bd 362e 973d afbd 19be
000000a0: 208c 6bbe f6ce b43d 4a22 9fbd 56e8 08be
000000b0: 2ab9 b3be 5228 7dbe c74b d73d 55d7 053e
000000c0: edd2 9b3e 1c36 9a3b 4af1 73be d498 5dbd
000000d0: 7c6c c43d 3ec8 64be 6155 153e 3bec 53be
000000e0: 49f8 9fbe e371 28be 2f9b ccbe 468b c2be
000000f0: 0060 a73e 3881 493e 74ed aabe 5229 003f
00000100: 6af1 eb3e 1373 a53e f4c9 a63c 6904 b4be
00000110: 612b ff3d 6f19 c93e 9288 89be 7014 90be
00000120: 3565 93bd 1fcf 8dbe 6787 97be c1b5 333e
00000130: 4802 debe dfe3 f3bd 0ca8 82bc 4d73 e7be
00000140: f2b9 563e f9bc 95be 5fb5 d13e f0e4 a63e
00000150: 2ab3 e0bb 6313 9a3e a7cc 21be 5b2b a5be
00000160: 6b76 38be 4fc4 ff3e 758e 7bbd 6407 5dbe
00000170: ffd3 8cbe d1ff 053f 52a8 463e 08f9 02bb
00000180: d440 c4be 852b c2be 7640 19be 8d90 c6be
00000190: 97f6 5b3e 29b7 8e3d a7b3 1ebe 5f75 89be
000001a0: 63ac 5ebe 5db2 47bd 9aae 2fbe 1fc5 eebe
000001b0: 8492 8c3e 25fc 293e cfef 77bd 5343 63be
000001c0: 4a36 02be d0b5 913e c7d4 933e 730c 1e3d
000001d0: c407 c53e 4aa6 913e 0f2d d93d b061 503e
000001e0: 7d7c 1c3e 35bc 7d3e 2bc8 88be a05d 46bc
000001f0: 9d47 3d3e 8525 a2be aed8 69be 6454 693e
00000200: 4bcb 023f 45d4 a4be a9b1 f4be 5072 5ebe
00000210: 3037 5e3e 2be9 19be 708e abbd 9ef8 b73e
00000220: a7e9 b4be d3db 333e 07a0 d33e d85f 013e
00000230: 427c 733e e927 30be c0b3 edbe 57bc b8be
00000240: aed8 62be 57af cbbe 6baa 29be a3d4 8dbe
00000250: 94ff 04be 1df1 f73e df02 eabe 418f 61be
00000260: c25b 4b3e 313e 80be 78ad 35be 3371 d53e
00000270: 70f8 87be 0405 d7bd 574d f6bd 17d6 31be
00000280: 655e 95be 9070 04bd 8c53 a0be 853c 03be
00000290: e7f4 2f3e 121f 7d3e 08b8 aabe a548 3ebe
000002a0: 3948 bb3e 3aed 663e 1aae a83e 4746 81bd
000002b0: 9d20 093e 8696 873e be75 8b3e 6586 2b3e
000002c0: 21d8 38be e434 9d3e 619b 1b3e 7827 91be
000002d0: 88e7 abbe a1f0 8d3d da6a 6ebd 47c3 84be
000002e0: 5b5e a5be f554 a2be 6786 a1be 0497 99be
000002f0: 17b5 c83e d814 fdbe 5e12 fabe 15e7 1e3e
00000300: af78 ec3e 72d0 8abd 4f93 c7bd 7a4d 6b3e
00000310: 3dc3 35be 2fb6 a2bd 5bc1 cc3d 8579 e33e
00000320: 3909 703e 3dbe 393e 3a7e d13e f429 eabd
00000330: f2a9 a73e 6657 db3d a711 49be 4c50 bc3d
00000340: 02b3 733e 8994 923e 429b 443e 436a 823e
00000350: c4b5 bc3d b93b bfbe 3a7e e2bd 34ef 02be
00000360: 382f e8bd 7245 803e c856 aa3e 5c7c 5a3e
00000370: abb7 d93e edf3 cebe a837 66be 9d70 e03e
00000380: 3813 673d 1a53 4d3e 185b e23e 7af6 3a3e
00000390: 43a6 0d3e fef8 2f3d bb83 52be d023 80be
000003a0: f76a 65be 365d a23e 929a 89be 5e0e 13be
000003b0: 13dc b83e 2394 513d 13ca 3a3e 9fd0 1abe
000003c0: 40ac bfbe d786 37be e0db ae3e 0202 b23e
000003d0: 5bb6 bd3e 664c 5bbd 9e64 3e3d 2d6b 193e
000003e0: 63b6 1a3e c5d1 afbd bd24 1a3e a029 bc3e
000003f0: 1731 523e 07f3 62be a6a2 82be 5326 9c3d

fc3.bias f4 [2]
-0.105477825 -0.037981074
00000000: c204 d8bd 0b92 1bbd

bn1.weight f4 [256]
1.1755676 0.90351456 0.6816161 0.7420953 0.95062125 1.0291607 0.8560014 0.37497395
0.40387493 1.0773579 1.0776556 0.26089266 0.4383528 0.4087516 0.57160056 0.6326268
0.09828048 0.67887527 0.33146948 0.984058 0.6080207 0.76746553 0.73715866 0.5837472
0.9632503 0.50739706 0.94181406 0.8012224 0.34423086 0.92558163 0.90708345 0.42185378
0.85992247 0.72026485 0.5717727 0.9946595 0.26375902 0.6220446 1.098931 0.5962097
0.92059135 0.9190287 0.80370027 1.2499956 0.91469425 0.7694566 1.1524006 0.6688193
0.53610945 0.7806557 0.9180784 0.6228371 0.3641503 0.61578166 0.4981662 0.88481903
0.23628002 0.7770261 0.8211836 1.1242762 0.6535816 0.4526803 0.3988571 1.0858177
0.20789029 0.3868347 0.9216119 1.1537441 0.4813529 0.47872105 0.62735176 0.8981569
0.9855968 0.8984078 0.34914258 0.75545216 0.21768852 0.3794424 0.93054944 0.91418624
1.0246893 0.4439575 0.92083573 0.21542898 0.9044001 0.64664185 0.56152046 0.5619503
0.58307564 0.78488606 0.3929213 0.9827928 0.26324663 1.077824 0.28647515 0.582882
0.88332325 0.5146087 1.0476656 0.18955219 0.36827284 0.70752555 0.82218397 0.860054
0.78363436 0.76813775 1.0641645 0.26053342 0.5672528 0.7893323 0.9279335 0.37507522
0.48313907 0.9959767 0.9906349 0.8447011 0.68422484 1.0119694 1.078653 0.27752188
0.51908404 0.98104835 0.6671757 0.5670259 1.0102637 1.041553 0.5551599 0.6976909
0.5473802 0.7996009 0.28457233 0.9341647 0.73332304 0.4285003 0.54619503 0.84467375
0.59863704 0.8332047 0.39274505 1.0295287 0.25433588 0.57491225 0.6481468 1.0380657
0.53652877 0.89698136 0.86867696 0.8106881 0.22045535 0.6769884 0.6589383 0.9409546
0.16420701 0.75549155 0.68075496 0.98225033 0.535668 1.0522213 0.550932 0.9677478
0.7433718 0.30742463 0.8776638 0.39332664 0.631234 0.6651128 0.6014728 0.6908378
0.30633876 0.6416427 0.6978464 0.7309974 0.9857494 0.49245578 0.7616095 0.5275943
0.8233125 0.45718548 0.4905599 0.21701452 1.0408844 0.44378504 0.48601532 0.1819941
0.6246779 0.54376256 0.36217773 0.38220555 0.38942277 0.42672396 0.7908701 0.6116726
0.6311755 0.80786806 0.5171723 0.35550314 0.81487656 0.78924054 0.26904598 0.73515683
0.7722243 0.8892587 0.9176726 1.1674296 0.72666776 0.9076609 -0.23513271 1.0561812
1.0091681 0.89099634 -0.46964392 0.32220653 0.9542883 0.40471 0.2482345 0.80603683
0.4464487 0.9699283 1.0127227 0.76235867 0.398714 0.46356472 0.71111107 0.8291956
0.25522986 0.45562345 0.8790051 1.1230371 0.53380495 0.9984863 0.8063042 0.5869753
0.6738616 0.4085576 0.34591866 0.38578758 0.44946036 0.4142887 0.6762891 0.7924807
0.59889907 0.6668898 0.9552309 0.1906365 1.0637013 1.2427782 0.58508843 0.88822144
0.3856896 0.7845405 0.61136395 1.1315554 0.92303973 0.3823557 0.85570496 0.7698153
00000000: 0079 963f bb4c 673f 657e 2e3f f5f9 3d3f
00000010: ea5b 733f 8abb 833f e822 5b3f 96fc bf3e
00000020: b2c8 ce3e dde6 893f 9ef0 893f b993 853e
00000030: c76f e03e e447 d13e 6a54 123f d4f3 213f
00000040: 4747 c93d c5ca 2d3f 5eb6 a93e 3aeb 7b3f
00000050: 3fa7 1b3f 9f78 443f 6eb6 3c3f 7570 153f
00000060: 9297 763f c6e4 013f ba1a 713f e91c 4d3f
00000070: 073f b03e ebf2 6c3f 9f36 683f 38fd d73e
00000080: e123 5c3f 4763 383f b25f 123f 01a2 7e3f
00000090: 6c0b 873e 513e 1f3f c5a9 8c3f 33a1 183f
000000a0: e0ab 6b3f 7745 6b3f 4dbf 4d3f dbff 9f3f
000000b0: 6729 6a3f 1cfb 443f dd81 933f be37 2b3f
000000c0: 783e 093f 0dd9 473f 3007 6b3f 4172 1f3f
000000d0: e871 ba3e dea3 1d3f a40f ff3e 8083 623f
000000e0: 64f3 713e 2feb 463f 1739 523f 48e8 8f3f
000000f0: 2051 273f b6c5 e73e ff36 cc3e 13fc 8a3f
00000100: 31e1 543e 330f c63e c2ee 6b3f e3ad 933f
00000110: e373 f63e ed1a f53e 209a 203f 9ced 653f
00000120: 1250 7c3f 0efe 653f d1c2 b23e 5065 413f
00000130: bde9 5e3e 4646 c23e 7d38 6e3f 1c08 6a3f
00000140: 0529 833f 664e e33e e4bb 6b3f 6a99 5c3e
00000150: c486 673f 528a 253f cebf 0f3f fadb 0f3f
00000160: 7244 153f 4bee 483f fb2c c93e 4f98 7b3f
00000170: 43c8 863e 23f6 893f dfac 923e c137 153f
00000180: 7921 623f 65bd 033f e819 863f f819 423e
00000190: 428e bc3e 6520 353f a67a 523f 802c 5c3f
000001a0: 439c 483f ada4 443f 8b36 883f a364 853e
000001b0: 7b37 113f ae11 4a3f 0d8d 6d3f dc09 c03e
000001c0: 015e f73e 54f8 7e3f 409a 7d3f 553e 583f
000001d0: 5c29 2f3f 3788 813f 4d11 8a3f 5917 8e3e
000001e0: b1e2 043f fc25 7b3f 07cc 2a3f 9c28 113f
000001f0: 5250 813f 9c51 853f f61e 0e3f df9b 323f
00000200: 1c21 0c3f a5b2 4c3f 77b3 913e 6b25 6f3f
00000210: 0fbb 3b3f 6464 db3e 70d3 0b3f 8a3c 583f
00000220: 4740 193f e74c 553f e115 c93e 99c7 833f
00000230: 5038 823e 732d 133f f3ec 253f 56df 843f
00000240: f359 093f 92a0 653f 9d61 5e3f 4189 4f3f
00000250: 0cbf 613e 1d4f 2d3f 2eb0 283f 67e2 703f
00000260: e225 283e e567 413f f545 2e3f c274 7b3f
00000270: 8a21 093f 30af 863f e109 0d3f 52be 773f
00000280: 9d4d 3e3f c366 9d3e 93ae 603f 1c62 c93e
00000290: 8d98 213f d544 2a3f 1ffa 193f bfda 303f
000002a0: 6fd8 9c3e b242 243f 10a6 323f a522 3b3f
000002b0: 135a 7c3f 2a23 fc3e d7f8 423f 6c10 073f
000002c0: 9cc4 523f 3714 ea3e ab2a fb3e 0e39 5e3e
000002d0: b33b 853f cb37 e33e 00d7 f83e a95c 3a3e
000002e0: e4ea 1f3f 0634 0b3f 5c6f b93e 72b0 c33e
000002f0: 6c62 c73e 907b da3e 7676 4a3f 9396 1c3f
00000300: b894 213f 71d0 4e3f 6765 043f 8204 b63e
00000310: c09b 503f ab0b 4a3f 65c0 893e 3d33 3c3f
00000320: 7eb0 453f 75a6 633f 97ec 6a3f 556e 953f
00000330: e606 3a3f 775c 683f a1c6 70be f230 873f
00000340: 6c2c 813f 5618 643f 2b75 f0be 41f8 a43e
00000350: 3d4c 743f 2636 cf3e 2f31 7e3e 6e58 4e3f
00000360: ed94 e43e 394d 783f e6a0 813f f029 433f
00000370: 3e24 cc3e 5b58 ed3e 600b 363f 2a46 543f
00000380: 7dad 823e 7a47 e93e 7a06 613f aebf 8f3f
00000390: 71a7 083f cc9c 7f3f f469 4e3f 0344 163f
000003a0: 3282 2c3f 762e d13e 401c b13e f385 c53e
000003b0: ab1f e63e a61d d43e 4821 2d3f 04e0 4a3f
000003c0: 7351 193f 4ab9 2a3f 038a 743f 3736 433e
000003d0: 5d27 883f 5b13 9f3f 5bc8 153f 7b62 633f
000003e0: 1b79 c53e a5d7 483f 5982 1c3f cfd6 903f
000003f0: 554c 6c3f 20c4 c33e 7b0f 5b3f 9e12 453f

bn1.bias f4 [256]
-0.08677777 -0.06640659 -0.02464287 -0.03971766 0.068486534 0.008477715 -0.06635869 0.014502872
-0.07855166 0.06588387 -0.028706033 0.009604203 0.03182095 0.02884406 -0.054601394 0.028171364
-0.04170826 0.0028717425 -0.09094521 -0.07220491 -0.06748775 0.008777376 -0.10197747 0.01714728
0.006556919 0.022593817 -0.017757291 -0.0230804 0.17660528 0.026478812 -0.03722681 -0.03457829
-0.027180973 -0.020035312 0.041448597 -0.051727228 -0.091774605 0.043268126 -0.056213558 -0.022237757
-0.021402037 -0.064896666 -0.06307148 -0.012876916 -0.10202361 -0.059312366 -0.09313291 0.009693072
-0.0017723608 0.00662087 0.0021333462 -0.011542062 0.009563213 -0.024081338 -0.013220986 -0.07854797
-0.047300972 0.029732231 -0.0012142689 -0.022449862 0.049215548 -0.04542519 -0.008397641 -0.0033141288
-0.0061666803 0.014093079 -0.009379601 0.0028615177 0.009002662 0.0037619763 0.04676544 0.030344782
0.010106648 0.033858795 0.025639458 0.006488386 0.05247712 -0.0074988254 -0.06690383 0.062037017
0.0025118573 0.04918404 0.04139223 0.07766866 0.029976485 -0.10195164 -0.0078119123 0.045845386
-0.008829171 0.018087177 -0.06977566 0.02414247 0.04068541 0.031032652 -0.072772704 -0.004351387
0.0008432397 -0.021648763 -0.03323726 0.06040877 0.0017369993 -0.013425484 -0.00992326 -0.0052460306
0.02708197 -0.069762446 0.037849884 -0.010245387 -0.050133586 -0.05945952 -0.0012627502 -0.01086686
-0.10417769 -0.01905826 -0.07580674 -0.044245858 0.005691886 -0.002304546 -0.028653847 0.06555822
0.06260589 0.02609911 0.023415668 -0.052923605 -0.043605007 -0.03280196 -0.03378066 -0.02696645
0.004243228 0.029139655 0.072310455 -0.029697623 0.0017644356 -0.013255026 -0.072614625 -0.040152416
-0.043789413 -0.02678936 -0.084282696 0.010547821 -0.008863819 0.05669982 -0.014085072 0.06880398
-0.028571004 0.014867504 0.0187364 -0.060825888 -0.12751158 -0.017245993 -0.027952543 -0.042955544
0.04470699 -0.081740044 -0.017866319 -0.011146948 -0.06474729 0.03650969 -0.07248991 -0.067442186
-0.00041858264 0.038065676 -0.051828362 0.06338883 0.06143138 -0.0043142745 -0.0034422239 0.04663645
-0.019271936 -0.04378623 -0.02733715 0.0264754 -0.13016376 -0.05099552 0.024162896 -0.016433056
-0.0041407053 -0.040356126 -0.020862484 0.010450984 0.02820558 -0.04656702 0.0634566 -0.021928519
0.028027622 -0.038608138 -0.16035701 0.0010973238 -0.091749154 0.057564653 -0.059094958 -0.047645412
-0.0074133086 0.109271064 -0.036082588 -0.03734197 -0.052316207 -0.011622724 -0.014056586 0.005313659
-0.051952742 -0.025430875 -0.016629616 -0.044062365 0.018915422 -0.0013071795 0.16098773 -0.009649102
-0.025694488 -0.07544411 -0.0014404401 -0.008787854 -0.0037630175 -0.029428689 0.041873813 0.038029447
0.0044828276 0.08458104 0.009996999 0.0074499077 -0.07734179 0.022807324 -0.0282046 0.0086405
0.11387421 0.009750258 -0.06445242 -0.029755572 0.03971371 0.022816759 0.023830775 0.08367115
-0.042144828 0.0504265 0.05920533 -0.08814106 -0.04533309 0.014420754 0.012233644 0.01852775
-0.007686404 0.0071915495 -0.0071566035 -0.1308065 -0.024147939 0.036988802 0.09492747 -0.0058494434
-0.024414998 -0.011514187 0.02269857 -0.041178137 -0.0037233105 -0.083499365 -0.027899606 0.002019831
00000000: 8bb8 b1bd 2e00 88bd d8df c9bc fcae 22bd
00000010: ab42 8c3d 1de6 0a3c 11e7 87bd 749d 6d3c
00000020: b1df a0bd 1fee 863d ea28 ebbc f25a 1d3c
00000030: af56 023d 614a ec3c b6a5 5fbd a2c7 e63c
00000040: 48d6 2abd d833 3c3b 7b41 babd 2be0 93bd
00000050: 0437 8abd fcce 0f3c 90d9 d0bd 7478 8c3c
00000060: 6cdb d63b ab16 b93c bd77 91bc 1b13 bdbc
00000070: 04d8 343e 18ea d83c 247b 18bd f7a1 0dbd
00000080: a2aa debc 1821 a4bc 01c6 293d eedf 53bd
00000090: 53f4 bbbd eb39 313d 3040 66bd f52b b6bc
000000a0: 5353 afbc 8be8 84bd 9f2b 81bd b3f9 52bc
000000b0: c1f1 d0bd 86f1 72bd 78bc bebd b1cf 1e3c
000000c0: 8f4e e8ba e2f3 d83b 9ccf 0b3b eb1a 3dbc
000000d0: 06af 1c3c 3a46 c5bc d69c 58bc c2dd a0bd
000000e0: aabe 41bd 0291 f33c 1a28 9fba c6e8 b7bc
000000f0: 3e96 493d c40f 3abd 4296 09bc db31 59bb
00000100: dd11 cabb a8e6 663c e6ac 19bc 4d88 3b3b
00000110: e77f 133c 7d8b 763b 1e8d 3f3d 9f95 f83c
00000120: 5b96 253c 85af 0a3d d709 d23c 879c d43b
00000130: 40f2 563d b5b8 f5bb e004 89bd 871a 7e3d
00000140: f99d 243b 3475 493d e68a 293d bf10 9f3d
00000150: 3f91 f53c 05cc d0bd 12fb ffbb 5fc8 3b3d
00000160: 3aa8 10bc 8f2b 943c 8be6 8ebd 6ec6 c53c
00000170: bfa5 263d 3038 fe3c db09 95bd 1496 8ebb
00000180: dc0c 5d3a bf58 b1bc cb23 08bd 306f 773d
00000190: 06ac e33a 90f6 5bbc 2b95 22bc e5e6 abbb
000001a0: 02db dd3c 9ddf 8ebd 7b08 1b3d 45dc 27bc
000001b0: e058 4dbd d38b 73bd de82 a5ba ea0a 32bc
000001c0: 1d5b d5bd 1120 9cbc 9040 9bbd 253b 35bd
000001d0: 0083 ba3b de07 17bb 79bb eabc 6343 863d
000001e0: 8437 803d cdcd d53c 37d2 bf3c 6cc6 58bd
000001f0: 2a9b 32bd 595b 06bd 975d 0abd bfe8 dcbc
00000200: c70a 8b3b 49b6 ee3c 8117 943d 6e48 f3bc
00000210: a244 e73a 9c2b 59bc fab6 94bd dc76 24bd
00000220: 875c 33bd 5c75 dbbc 689c acbd c5d0 2c3c
00000230: 8d39 11bc 123e 683d 13c5 66bc 1ae9 8c3d
00000240: bd0d eabc d596 733c 147d 993c 9124 79bd
00000250: 6592 02be 7847 8dbc bbfc e4bc 27f2 2fbd
00000260: ad1e 373d 5367 a7bd 635c 92bc b0a1 36bc
00000270: 3a9a 84bd 2f8b 153d 9775 94bd 211f 8abd
00000280: 3675 dbb9 c1ea 1b3d fa49 54bd 01d2 813d
00000290: 799f 7b3d c25e 8dbb ef96 61bb dd05 3f3d
000002a0: 2ee0 9dbc 3159 33bd 29f2 dfbc f0e2 d83c
000002b0: a649 05be aee0 50bd 44f1 c53c 9e9e 86bc
000002c0: c1ae 87bb 774c 25bd cde7 aabc 9b3a 2b3c
000002d0: 630f e73c 0fbd 3ebd 89f5 813d 70a3 b3bc
000002e0: 2f9a e53c 9123 1ebd a134 24be 14d4 8f3a
000002f0: fbe6 bbbd eac8 6b3d 8e0d 72bd d627 43bd
00000300: 57eb f2bb 82c9 df3d 56cb 13bd e5f3 18bd
00000310: 8549 56bd 3d6d 3ebc 984d 66bc 341e ae3b
00000320: 66cc 54bd 6954 d0bc d53a 88bc bd7a 34bd
00000330: 84f4 9a3c aa55 abba f8d9 243e 4417 1ebc
00000340: 3f7d d2bc 7182 9abd 26cd bcba eefa 0fbc
00000350: f59c 76bb 6f14 f1bc e083 2b3d c4c4 1b3d
00000360: afe4 923b d338 ad3d 74ca 233c 5b1e f43b
00000370: 5f65 9ebd 6dd6 ba3c 550d e7bc e290 0d3c
00000380: e236 e93d 8cbf 1f3c a1ff 83bd f5c1 f3bc
00000390: d8aa 223d 36ea ba3c c238 c33c c85b ab3d
000003a0: 0ea0 2cbd 058c 4e3d 4a81 723d 4d83 b4bd
000003b0: 31af 39bd 0745 6c3c 9f6f 483c 82c7 973c
000003c0: 3bde fbbb 17a7 eb3b f181 eabb 24f2 05be
000003d0: e6d1 c5bc 9281 173d 5569 c23d b0ac bfbb
000003e0: f601 c8bc 00a6 3cbc 5af2 b93c 68aa 28bd
000003f0: c902 74bb b701 abbd b78d e4bc 245f 043b

bn1.running_mean f4 [256]
0.39653698 0.10646832 0.06580295 2.7117257 0.01580946 6e-45 6e-45 0.33752742
0.102162376 6e-45 0.2974992 3.641735 0.49517792 0.7577286 0.00057138957 0.43789652
1.8467387 1.5178655 0.14656314 0.25294867 6e-45 0.2068836 1.3265524 0.8791064
2.5294445 3.0220356 0.094360575 2.854928 0.63372505 0.30894718 1.500912 0.47576383
0.32675904 6e-45 0.675598 6e-45 6e-45 0.10048099 0.009280262 0.29712707
0.08841048 0.0002043189 1.0030925 1.7016013 0.36633787 0.099975064 1.9208301 0.7095893
0.15145689 0.11109268 1.8905654 0.6151286 0.00097027444 1.3281866 1.9949442 0.158985
3.3744874 0.09810319 0.010570531 0.6195751 0.83748186 0.025206117 6e-45 1.9032108
1.2530267 1.4312541 0.48671734 0.044088192 0.35755762 1.1371763 1.3114889 0.2432238
0.507092 0.488846 2.6182463 6e-45 1.1950436 0.27588543 1.2054133 0.05875084
0.51695645 6e-45 0.44777825 1.1654527 1.3217165 0.80493236 0.19143708 0.18243618
0.9719044 1.8367978 0.014905017 0.35910884 0.044113282 0.848479 6e-45 0.13907959
0.69265634 1.3178202 1.8699125 1.6485348 6e-45 1.4135002 6e-45 2.0192285
0.42609164 0.92543936 0.0017189452 6e-45 1.4442711 0.8009568 0.12396779 6e-45
0.0990877 2.8610704 1.9022186 0.19014962 0.7096734 1.4153961 6e-45 0.36427444
6e-45 0.05768203 0.16362692 1.3646197 0.5723572 0.29627433 0.050991077 0.23763259
0.11264269 0.03674221 0.010167186 0.06494489 0.86870944 5.097643e-07 0.9617668 2.3809505
1.0932518 6e-45 0.07761547 0.025374437 0.00057490263 0.46018243 6e-45 0.31119597
0.026998738 0.48455012 0.05278084 3.0110795 6e-45 0.16414058 0.04362643 1.1787691
2.0186994 0.081365235 0.8990858 0.9677409 2.8560438 0.48798394 6.2391325e-07 2.2137616
0.08238466 0.30021057 0.06387939 1e-44 0.10692871 0.06745433 1.0404646 8.206941e-09
1.3439574 1.0580748 1.6603253 1.9267919 0.32104963 3.667969 0.024131179 0.21970978
1.6589947 6e-45 0.45327708 0.6875286 6e-45 5.078127 6e-45 2.9257421
0.26451048 1.1542399 0.3718003 0.56485426 0.10661849 0.14032283 0.0268594 0.5214874
0.18331324 0.6395216 0.1549631 0.28116468 0.6095637 4.247522 0.037059262 1.4272648
0.9278937 1.1142117 0.008256647 0.0015565251 0.3135399 0.29355076 6e-45 0.29407153
1.3608768 1.8157005 0.16272116 6e-45 2.3874695 3.235078 0.10488323 1.6558264
1.199167 0.21911676 2.3047338 1.0664788 1.6371355 0.27071792 6e-45 2.219907
0.43506852 0.33245996 1.1019652 1.3680531 0.0038529576 0.021085849 6e-45 0.11930554
0.09140424 0.73068875 1.8569415 6e-45 0.48178872 0.7451001 0.40512136 0.06666663
0.077007055 0.3732731 0.065043665 0.045393787 0.00017241854 0.023980008 3.3338146 0.7123323
3.1637128e-36 0.036386356 6e-45 0.00011305426 0.8415925 6e-45 6e-45 0.6023948
00000000: e506 cb3e 100c da3d b2c3 863d ea8c 2d40
00000010: d782 813c 0400 0000 0400 0000 65d0 ac3e
00000020: 823a d13d 0400 0000 d151 983e 3012 6940
00000030: f687 fd3e 80fa 413f 4ec9 153a f933 e03e
00000040: ef61 ec3f 6b49 c23f a614 163e 7d82 813e
00000050: 0400 0000 4bd9 533e 78cc a93f 1e0d 613f
00000060: 6be2 2140 0869 4140 1e40 c13d 24b7 3640
00000070: ce3b 223f 532e 9e3e e21d c03f 5197 f33e
00000080: f64c a73e 0400 0000 fef3 2c3f 0400 0000
00000090: 0400 0000 fac8 cd3d 3d0c 183c 0a21 983e
000000a0: 8e10 b53d 703e 5639 5665 803f 12ce d93f
000000b0: a390 bb3e babf cc3d c3dd f53f a5a7 353f
000000c0: 8417 1b3e 8f84 e33d 0cfe f13f 1179 1d3f
000000d0: 045a 7e3a 0502 aa3f 555a ff3f f7cc 223e
000000e0: 9af7 5740 53ea c83d 0530 2d3c 799c 1e3f
000000f0: 3665 563f 0f7d ce3c 0400 0000 699c f33f
00000100: 2e63 a03f 5633 b73f 0433 f93e d295 343d
00000110: cb11 b73e fe8e 913f dede a73f a90f 793e
00000120: c8d0 013f 064a fa3e 5991 2740 0400 0000
00000130: 30f7 983f db40 8d3e fc4a 9a3f b9a4 703d
00000140: 4257 043f 0400 0000 3143 e53e 8e2d 953f
00000150: 022e a93f 0c10 4e3f 1508 443e 8dd0 3a3e
00000160: bace 783f 311c eb3f 2c34 743c 1ddd b73e
00000170: 21b0 343d eb35 593f 0400 0000 e16a 0e3e
00000180: ed51 313f 55ae a83f 4b59 ef3f 3003 d33f
00000190: 0400 0000 93ed b43f 0400 0000 0a3b 0140
000001a0: af28 da3e 98e9 6c3f 3b4e e13a 0400 0000
000001b0: e0dd b83f 810b 4d3f d3e2 fd3d 0400 0000
000001c0: 7eee ca3d c71b 3740 e67b f33f 95b6 423e
000001d0: 28ad 353f b32b b53f 0400 0000 2e82 ba3e
000001e0: 0400 0000 fe43 6c3d d18d 273e dcab ae3f
000001f0: 0086 123f 45b1 973e 05dc 503d f555 733e
00000200: 36b1 e63d 007f 163d 4594 263c d401 853d
00000210: be63 5e3f bcd6 0835 5936 763f 7e61 1840
00000220: adef 8b3f 0400 0000 dcf4 9e3d 0dde cf3c
00000230: 10b5 163a 089d eb3e 0400 0000 1455 9f3e
00000240: 752c dd3c f416 f83e b930 583d 87b5 4040
00000250: 0400 0000 7814 283e a1b1 323d e8e1 963f
00000260: 5f32 0140 d1a2 a63d 7d2a 663f debd 773f
00000270: 6cc9 3640 08d9 f93e fe7a 2735 45ae 0d40
00000280: 4ab9 a83d 33b5 993e 33d3 823d 0700 0000
00000290: 71fd da3d 7f25 8a3d f22d 853f 82fe 0c32
000002a0: cc06 ac3f ff6e 873f 8a85 d43f 1ea1 f63f
000002b0: 9e60 a43e 01c0 6a40 c0ae c53c 9afb 603e
000002c0: f059 d43f 0400 0000 ef13 e83e e001 303f
000002d0: 0400 0000 0480 a240 0400 0000 5c3f 3b40
000002e0: eb6d 873e 22be 933f 9c5c be3e 4a9a 103f
000002f0: cb5a da3d cab0 0f3e 3f08 dc3c 3380 053f
00000300: 77b6 3b3e b0b7 233f a6ae 1e3e d1f4 8f3e
00000310: 5e0c 1c3f b3eb 8740 74cb 173d 9db0 b63f
00000320: 718a 6d3f 7d9e 8e3f e346 073c 5104 cc3a
00000330: 4d88 a03e 494c 963e 0400 0000 8b90 963e
00000340: 3631 ae3f e068 e83f 60a0 263e 0400 0000
00000350: 4dcc 1840 850b 4f40 05cd d63d 1ff2 d33f
00000360: 4e7e 993f 2560 603e c280 1340 6182 883f
00000370: a88d d13f 8a9b 8a3e 0400 0000 f512 0e40
00000380: 4dc1 de3e 3138 aa3e 320d 8d3f 5d1c af3f
00000390: e781 7c3b 3bbc ac3c 0400 0000 7756 f43d
000003a0: 2532 bb3d 6b0e 3b3f 42b0 ed3f 0400 0000
000003b0: 03ad f63e e1be 3e3f 116c cf3e 8488 883d
000003c0: e0b5 9d3d a71d bf3e 9d35 853d d6ee 393d
000003d0: 40cb 3439 b971 c43c 385d 5540 695b 363f
000003e0: c891 8604 dc09 153d 0400 0000 8b17 ed38
000003f0: 9b72 573f 0400 0000 0400 0000 8c36 1a3f
