checkpoint_critic_agent_0.pth (torch_old, 324010 bytes, 9 tensors)

fc1.weight f4 [256, 52]
000000 c0 ac 9f be c2 59 b2 3e 91 c9 c1 3c 2f f7 c7 bd
       -0.31186485 0.34834105 0.023655685 -0.097639434
000010 3a 5f 06 be ea d0 7c be f8 88 3f 3c f9 e1 9f bd
       -0.13122264 -0.2468907 0.011690371 -0.07806773
000020 34 0b 1a bf b0 47 51 be dc 8c 1c 3d 39 14 56 3e
       -0.60173345 -0.20437503 0.03822027 0.20906152
000030 12 36 da be c9 1a 56 3e 0e 38 a0 bb 66 06 5b 3e
       -0.42619377 0.20908655 -0.0048894947 0.2138916
000040 33 8e 02 bf ad ab 06 be 3a d0 5b 3d 82 66 93 3d
       -0.5099823 -0.13151427 0.053665377 0.07197286
000050 19 45 27 c1 63 61 ec 3e 20 30 07 bd 5b 18 63 3d
       -10.45437 0.4616805 -0.03300488 0.05544315
000060 f9 b0 8f 3e 5a 1a ec be 5a f0 95 bc 96 b4 85 3d
       0.28064707 -0.46113855 -0.018303085 0.06528585
000070 f6 9d 56 3c 76 63 47 be 93 9a 76 3b 54 e4 4f 3d
       0.013099184 -0.19471535 0.0037628755 0.05075486
000080 f1 ed d5 3c 71 09 d6 bd 0c 95 0a 3d 27 ee 8d bb
       0.026114436 -0.104510196 0.03383355 -0.0043313685
000090 43 94 a6 3e 39 78 87 3e c9 bc e9 bb da 28 32 bd
       0.3253499 0.2645891 -0.0071331006 -0.04349599
0000a0 80 c1 1b 3e 0b 49 36 3e 95 6e 4a 3c 84 8e b1 bd
       0.15210533 0.17801301 0.012355466 -0.08669761
0000b0 42 97 27 41 c8 0d ff 3e 7f 14 d7 bc cf ef 01 bd
       10.474428 0.49815202 -0.02625489 -0.03172284
0000c0 86 50 55 3d 79 cb 83 3e b2 69 7e bc 44 17 8f 3e
       0.052078746 0.25741175 -0.015528129 0.27947438
0000d0 6c 58 28 3f 6d be 68 40 e8 e2 8b 3d d5 2b 8b bd
       0.6575992 3.6366227 0.06830388 -0.0679547
0000e0 de f2 d8 3f ac a4 9d bf c7 fc e9 3d da e4 89 bd
       1.6949117 -1.2315879 0.114251666 -0.06733103
0000f0 5f 99 63 3e 26 73 97 3f 6c 4c c4 3d ef 0d d1 bc
       0.22226475 1.1832016 0.09584889 -0.02551934
000100 69 5f 27 3f a5 81 cc bd 8b 8e ad 3d b9 35 f4 bd
       0.6537996 -0.09985665 0.084744535 -0.11924309
000110 93 a6 fc be 27 6b c2 be fc 5b ce bb fb 45 55 3d
       -0.49345836 -0.37972376 -0.0062975865 0.05206869
000120 72 78 ff 3b 8a 22 89 3f 6b 21 a0 bd 44 36 3e 3d
       0.0077963406 1.0713665 -0.07818874 0.04643847
000130 92 38 39 3f f2 24 c8 3f 81 b8 10 3d c9 77 61 3e
       0.72351944 1.5636275 0.035332207 0.2201835
000140 2f 6b de bf b2 2c 9d bf 4a d7 21 bd 3d 4c 42 3e
       -1.737646 -1.2279265 -0.039511956 0.18974395
000150 52 77 a7 be 7c d5 60 3f bf df 25 bd dd b5 9e bc
       -0.32708222 0.8782575 -0.040496584 -0.019373829
000160 00 63 20 bf cd a6 09 be 62 60 19 bb a0 73 78 3d
       -0.6265106 -0.13442536 -0.0023403396 0.060657144
000170 1c 60 84 bf e2 ed f5 be f2 a9 56 3d fd d9 cd 3d
       -1.034183 -0.48033053 0.052408166 0.100513436
000180 90 b5 d5 3c ce 27 89 3f 61 af 33 3d 17 45 4d 3e
       0.026087552 1.0715272 0.043868426 0.20045887
000190 e7 d4 56 be cc ad eb 3e e3 69 f0 bf ee d8 27 3e
       -0.20979653 0.46031034 -1.8782314 0.16391346
0001a0 ca 5b c3 bd 22 61 9c be 4f 46 1b 3d e0 b0 d7 3e
       -0.09538992 -0.30542856 0.03790885 0.42127132
0001b0 8b 36 2c 3e 58 92 91 bf c7 89 bd 3d 7a 57 cd 3e
       0.16817681 -1.1372786 0.092547946 0.40105802
0001c0 4b c9 d1 bd 83 11 78 3d b6 b0 67 3d 10 6a 1d 3e
       -0.10243472 0.060563575 0.05656501 0.15372491
0001d0 49 ca cd 3e 7b e9 bc bf 28 5b df 3d d4 87 1a 3e
       0.40193394 -1.4758753 0.109060585 0.15090877
0001e0 91 b8 ae 3e ed 0d 48 3d f7 06 18 be 2a 83 9d 3e
       0.34125188 0.048841406 -0.14846407 0.30764133
0001f0 a6 98 52 3f a3 15 d5 bf 7f b3 c1 bd 02 bf a0 3e
       0.82264173 -1.6647228 -0.09458064 0.31395727
000200 9a 7e 4a 3f c9 64 0e 3f dd 52 b3 3d 9e 63 5c 3e
       0.7909943 0.55622536 0.08756039 0.21522376
000210 56 03 07 be 05 b4 98 bf cd 08 41 3d 88 7f 53 3e
       -0.13184866 -1.1929938 0.047127534 0.20654118
000220 6d 6d 3d 3f 26 a6 76 3f a1 38 46 3d 27 00 c1 3e
       0.73995095 0.9634727 0.04839385 0.3769543
000230 a4 c5 c7 be f7 9b b4 bf 1a e7 b7 3c 03 bd a7 3e
       -0.39017975 -1.4110097 0.022449065 0.32761392
000240 14 36 64 3f f2 28 7f 3f c4 63 76 3e c3 a3 ef 3e
       0.89145017 0.9967185 0.24061495 0.46804628
000250 1a 12 51 bf 45 af cd bf 8d f0 08 3e 5c c5 ee 3e
       -0.81668246 -1.6069113 0.13373013 0.46634948
000260 9a 75 8a 3e 11 1e b0 3e fa 8e 5a c0 f9 33 31 bf
       0.27042848 0.3439794 -3.4149766 -0.6921993
000270 70 c0 0b 3f 41 12 80 bf a7 85 6c be 52 ad 52 bf
       0.5459051 -1.0005571 -0.2309786 -0.82295716
000280 c4 96 4e 3e 8d 71 a6 3e 62 a9 61 be 5c 32 58 bf
       0.201747 0.32508507 -0.2203727 -0.8445184
000290 9c f6 58 3f 5c 13 ca bf 52 e5 f4 bc cf 93 64 bf
       0.84751296 -1.5787158 -0.029894505 -0.8928804
0002a0 0e a5 7e 3d a6 5d 36 3f 8e c6 35 bd a7 50 54 bf
       0.062169127 0.71236646 -0.04437881 -0.82935566
0002b0 92 74 b1 3f 4f 67 1e c0 90 5f ee 3d e2 a1 e9 be
       1.38637 -2.4750555 0.11639321 -0.4563132
0002c0 a6 08 e5 be cc 39 bd be c6 c3 08 3e dd 18 cf be
       -0.4473316 -0.36958158 0.13355932 -0.40448657
0002d0 23 e1 a1 3d e6 72 82 3f c6 3a 88 bc 1b 61 4b be
       0.079042695 1.0191314 -0.016629588 -0.19861262
0002e0 7b 9b 3d be 97 c9 a1 3e 6b a8 68 bd 6a e2 82 be
       -0.18516342 0.31599113 -0.05680124 -0.25563365
0002f0 fa 09 01 be 64 bd 37 3f 85 ab 5d 3d d6 a4 71 3e
       -0.12601462 0.7177336 0.054118652 0.23598036
000300 28 11 41 3d 2a e2 2d 3f 4b 7f 8a b9 5b 44 3d 3e
       0.047135502 0.67923224 -0.00026416252 0.18483107
000310 78 d3 0f 3f 67 aa 21 3f fd c5 8c 3c 19 70 54 3b
       0.5618205 0.6315064 0.017184252 0.0032415448
000320 72 24 dd 3e 65 7c ba be f5 17 1b bd d2 fa 96 3c
       0.43191868 -0.3642303 -0.037864644 0.018430147
000330 1d b2 9c 40 f0 f8 31 bf bd a5 4c 3f d9 59 19 3e
       4.8967423 -0.69520473 0.79940397 0.1497568
000340 97 ad 1a 3f 49 4c ef 3f 4e a8 c2 3d 1b 5c 69 3e
       0.6042113 1.8695155 0.09504758 0.22789042
000350 9f ed db 3d 66 91 ac be a0 e3 dd 3d ed 82 41 3e
       0.10738682 -0.3370468 0.10834432 0.188976
000360 33 61 e9 3e fe b9 17 40 b9 77 fe bc 9f 30 94 3f
       0.4558197 2.370727 -0.031062948 1.1577338
000370 86 b8 ff 3d 8c 49 a0 bf ee 46 56 bd 83 0f 9d 3f
       0.12486367 -1.2522445 -0.052313738 1.2270359
000380 b0 32 97 3e 19 e0 2d 40 cc ae 94 bd 37 bb 5e 3e
       0.2953086 2.7168028 -0.07259902 0.21751104
000390 ee 05 d0 3b 4e 86 10 c0 26 9a 17 be 2d 3e 8d 3e
       0.006348363 -2.2581973 -0.14804897 0.275865
0003a0 8a 92 85 be 9e 02 a8 3f e5 b5 3d 3d f9 af e7 bc
       -0.26088363 1.3125799 0.046316046 -0.028282152
0003b0 34 44 6d bd f9 25 95 be 05 8a ab bc 61 38 5c bd
       -0.05792637 -0.29130533 -0.020939836 -0.053764705
0003c0 de c6 59 be 52 7e d3 3f 75 a2 9f 3c 2b 00 bc 3e
       -0.21267268 1.6522925 0.019486645 0.36718878
0003d0 ad d9 5e bd 6a fb 9f bf cd cb 3e 3d f8 c4 b7 3e
       -0.05440681 -1.24986 0.04658108 0.35892463
0003e0 b8 36 a0 be f7 ef fe 3f 52 e5 12 ba be f4 75 bd
       -0.31291747 1.9916981 -0.00056036294 -0.060047857
0003f0 24 ef 19 3b b5 22 16 c0 1f dc ac bd 33 8f da bc
       0.0023488486 -2.3458683 -0.08440422 -0.02667961

fc1.bias f4 [256]
000000 fc 5a 1f bf 30 7a 56 3f a7 09 4e bf 56 e4 9d bf
       -0.62248206 0.83780193 -0.8048348 -1.2335308
000010 b6 42 3e bf 35 f1 fe be 38 8e df be 85 90 c2 3d
       -0.7432054 -0.497934 -0.43663192 0.09500221
000020 0a 5e 0c bf b9 d9 69 bf 27 5b a0 be 51 2f 0b 3f
       -0.5483099 -0.91347843 -0.31319544 0.54369074
000030 41 47 bd bf d4 e1 4e be 9e 9f 26 3d ea 4a b3 bf
       -1.478737 -0.20203334 0.040679567 -1.4007237
000040 2f cf df 3e 9d a5 f7 bf 13 53 71 be a9 83 c6 be
       0.43712756 -1.9347416 -0.23566847 -0.38772324
000050 62 30 2c bf fd f2 8f bf 9c 7f b5 be 0b e1 5a bf
       -0.67261326 -1.1246029 -0.3544892 -0.8549964
000060 a4 72 7f bf ab 71 a9 bf 31 df 54 bf 80 fe 8a bd
       -0.997843 -1.3237814 -0.83153063 -0.06786823
000070 ff 55 88 bf 25 c1 03 bf 12 48 f4 be 67 10 12 3f
       -1.0651244 -0.5146659 -0.47711235 0.5705628
000080 81 94 a5 bf 47 65 3e be eb d1 6a bf 11 d9 26 be
       -1.2935945 -0.18593322 -0.9172656 -0.16293742
000090 84 53 62 3f 74 eb 06 be a6 f0 47 bf e0 47 2e bf
       0.88408685 -0.13175756 -0.78101575 -0.6807842
0000a0 ff d5 d1 be 02 40 4d bf c2 72 97 bf 64 7d 1d bf
       -0.4098358 -0.80175793 -1.1831896 -0.61519456
0000b0 6e 2e 8f bf 93 d7 b4 bf a8 c0 bc bf b3 75 9c be
       -1.1186044 -1.4128288 -1.4746294 -0.30558547
0000c0 b4 6f e5 be c9 9e 12 bf 02 f2 11 bf 50 a8 4c bf
       -0.44811785 -0.57273537 -0.570099 -0.79944324
0000d0 6a 54 61 be 5d fc 2a bf e5 ff c1 be 4b 31 a1 be
       -0.22004858 -0.66791326 -0.37890545 -0.3148292
0000e0 c6 f4 11 bf 05 67 0d bf 59 5a be bd 9c 46 76 3f
       -0.5701412 -0.5523532 -0.09294576 0.9620149
0000f0 22 f3 9c bc 07 4d 6e c0 6e 38 eb 3d 95 d9 ca bf
       -0.019158904 -3.7234514 0.114853725 -1.5847651
000100 80 eb f0 be 89 67 39 be 24 60 80 bf 2c c7 25 bf
       -0.47054672 -0.18105902 -1.002934 -0.6475704
000110 5f 47 23 bf 04 aa 0b c0 4b 35 0e bf bf 4d d9 3d
       -0.6378078 -2.182252 -0.5555007 0.10610532
000120 12 c1 da bd 4f 58 04 bf ab 87 ab be 43 db e3 bd
       -0.106813565 -0.5169725 -0.33501944 -0.11125805
000130 bb e2 83 bd 43 cc e5 be 41 e3 9a bf d8 e6 40 bf
       -0.0643973 -0.44882402 -1.2100602 -0.7535224
000140 7a 54 73 bd fb 49 88 3d fe 97 4b be be df 17 c0
       -0.059406735 0.06654736 -0.19882199 -2.3730311
000150 5c 31 fb be 01 35 13 bf 09 79 35 bf 89 50 0d bf
       -0.49061096 -0.5750275 -0.7088781 -0.5520101
000160 82 30 8c 3b 38 53 56 bf 1d c6 ea 3b e1 4b 7e bf
       0.0042782435 -0.8372073 0.00716473 -0.9933453
000170 97 a5 c9 3e 3c b3 05 bd be 86 81 bf 77 e4 fe bf
       0.39384148 -0.032641634 -1.0119245 -1.9913472
000180 42 fd 4e bf 21 be 14 bf 82 2b 11 bf 1f 92 f8 3d
       -0.8085519 -0.58102614 -0.5670701 0.121372454
000190 97 6c 61 bf 43 49 4b 3f bd 33 af be 2a 09 3c 3f
       -0.8805632 0.79408664 -0.3421916 0.73451483
0001a0 c1 66 5d c0 58 65 b8 be 3f 80 06 bf 2d bb 2d bf
       -3.4593966 -0.3601482 -0.5253944 -0.6786373
0001b0 9e 25 78 3d 92 ce 07 be 68 eb ef bd 4f e8 94 bf
       0.06058275 -0.13262394 -0.11714822 -1.1633395
0001c0 0a bf 8c be 84 19 15 bf 16 d6 df 3d 12 df 4b bf
       -0.274895 -0.5824206 0.109295055 -0.79637253
0001d0 a0 6c 05 bb c5 1c 94 bf 8b 12 82 3e 2c 49 c7 bf
       -0.0020358935 -1.157128 0.25404772 -1.5569205
0001e0 36 c4 97 bf 95 31 2a bf 19 0c ca bf ad 14 ba 3e
       -1.1856754 -0.66481906 -1.5784942 0.363439
0001f0 02 df 78 3e bc 73 63 3d 3c c7 03 c0 2b 4b e3 bf
       0.2430382 0.055530295 -2.0590353 -1.7757314
000200 91 a2 29 bf 14 45 71 bf 4d e4 d4 be 8e 60 58 bf
       -0.6626368 -0.9424603 -0.4158043 -0.8452233
000210 e8 5f 0a bf 69 b0 6f be de cb 3c c0 bf 97 6b bd
       -0.5405259 -0.23407139 -2.949943 -0.057517763
000220 c5 af c2 be 27 48 c0 bc b2 fb 00 bf eb d4 42 bf
       -0.38024727 -0.023471905 -0.50384057 -0.7610614
000230 5f 1e 4a bf 38 8c b3 3f 6a 9f ec be 82 e3 9f bf
       -0.7895259 1.4027166 -0.46215373 -1.2491305
000240 3d bb ed be ff 5f 7d be a7 e5 23 bf 6b d1 be bf
       -0.46431914 -0.24743651 -0.64022297 -1.4907659
000250 cc 78 09 bf 3d 3c 45 bf 22 d1 ea bf 14 fe 7c bf
       -0.53699946 -0.7704504 -1.8345072 -0.9882519
000260 98 6d 61 bf c0 3c 99 3f dd b9 bb be 89 95 b3 bf
       -0.8805785 1.1971664 -0.3666524 -1.403001
000270 1b 76 07 be f8 16 43 3e 14 5b 79 bf 63 97 59 bf
       -0.13228647 0.1905173 -0.974046 -0.8499662
000280 f2 d3 1b bf d2 a1 f7 3d 84 87 66 bf aa 8e 38 bf
       -0.6087028 0.12091412 -0.9005053 -0.7209269
000290 af 60 19 3e 07 12 a9 bf 63 3c 57 bf 00 7a fb 3d
       0.14978288 -1.3208627 -0.8407652 0.12279129
0002a0 c3 30 7b bf 4f 1d 82 be c1 9b 69 bf 3a 08 cd 3e
       -0.9812128 -0.25412986 -0.91253287 0.4004534
0002b0 9c 4a a0 bf 33 28 cc bf 37 8d 00 bf e5 f9 05 bf
       -1.2522769 -1.5949768 -0.50215477 -0.52334434
0002c0 45 9d 61 bf ef 15 4a c0 a1 d0 18 c0 0c 27 4f bf
       -0.881306 -3.1575887 -2.3877337 -0.80918956
0002d0 01 c4 55 3e 9d 4b 2c 3e e9 48 08 bf 19 c6 58 bf
       0.20875551 0.16825719 -0.5323625 -0.84677273
0002e0 a0 89 bf be 84 05 e4 3e 91 7c c1 be a5 a7 67 bf
       -0.37409687 0.44535458 -0.3779035 -0.9049018
0002f0 e5 77 c7 be 71 4b 1a bf dc f9 1b bf f1 cb e6 bd
       -0.3895866 -0.60271364 -0.6092813 -0.112693675
000300 f9 cd 13 bf 5e 53 1f bf 7b 6a 9f bf 58 d1 12 bf
       -0.57736164 -0.62236583 -1.245437 -0.57350683
000310 0a 8e 33 bf 45 79 bd 3e e0 6c 1b bf b0 e4 eb bf
       -0.7013861 0.37006584 -0.60713005 -1.8429165
000320 14 de 8d bf 06 5b 6e bf 98 bf 57 bf 33 d2 5a bf
       -1.1083398 -0.9310764 -0.84276724 -0.8547699
000330 b0 8b 48 bf ff e6 6e bf ce 50 03 bf 28 f4 31 bf
       -0.78338146 -0.9332122 -0.51295173 -0.6951318
000340 de 68 46 bf bb 35 2d bf ab db a9 bf f5 4f 06 bf
       -0.77503765 -0.6766011 -1.3270162 -0.52465755
000350 71 a0 61 bd 40 bd 0a bf b2 b6 06 c0 d9 6c bd bf
       -0.05508465 -0.5419502 -2.1049008 -1.4798843
000360 96 e3 81 bf b6 ff 03 3f 30 9c 6a 3c c1 fe d5 3e
       -1.0147579 0.5156206 0.014319465 0.41795924
000370 df 01 33 c0 a8 85 d5 be 9d e9 14 3e 94 3e 9f 3e
       -2.7969892 -0.41703534 0.14542241 0.3110243
000380 d9 cc 7b bf 9b a1 5e bf 54 f9 3f bf ba 43 9d bf
       -0.9835945 -0.8696534 -0.7498982 -1.2286294
000390 03 05 59 bf 80 4e 70 bf 2b a2 4f be 70 9c 1e 3e
       -0.8477327 -0.9386978 -0.20276706 0.15489364
0003a0 06 e5 51 bf 1a 4d 51 3c 61 35 73 be fd 23 98 bd
       -0.8199009 0.01277473 -0.23750831 -0.07428739
0003b0 0f 44 b3 bf e5 4b da bd fc eb 6c 3e 61 48 69 bf
       -1.4005145 -0.10659007 0.23136896 -0.91126066
0003c0 b1 00 03 c0 ab 68 50 be 04 84 44 bf f3 11 9a bf
       -2.0469172 -0.20352428 -0.7676394 -1.2036728
0003d0 1d 63 bd bf 81 68 0a c0 90 18 f2 be da f1 a1 bf
       -1.4795872 -2.1626284 -0.47284365 -1.2651932
0003e0 34 7e 3d bf 82 5f e8 be c0 46 8b be 69 1e 8a bf
       -0.74020696 -0.45385367 -0.27202415 -1.079053
0003f0 db 7c 9d bf b6 ad ce be 8c 83 a4 3e 95 cc a5 3f
       -1.2303728 -0.40366906 0.32131612 1.2953058

fc2.weight f4 [256, 256]
000000 fb 1f d3 bd e8 57 f2 bd 02 60 35 be ea b0 9c 3b
       -0.10308834 -0.11833173 -0.17712405 0.004781832
000010 66 db e0 bd 80 31 c5 3d 77 95 df 3c 3a 96 e6 bc
       -0.10979347 0.09628582 0.02729295 -0.028147805
000020 c4 eb 2a 3d 20 bd ca bd a9 7e 01 be 8a 54 04 bd
       0.04172875 -0.09899354 -0.12645973 -0.032307185
000030 ad 99 48 bd 8f 29 45 3e 2a 32 0a bc 1d d6 d0 bd
       -0.04897468 0.19254135 -0.008434812 -0.10197089
000040 25 59 8b bd 6a 02 35 3d 62 b2 dd bd b5 3d 72 bd
       -0.06804112 0.044191755 -0.108250394 -0.05914088
000050 15 00 1b 3d 34 a9 26 be f4 a2 4f 3d 35 00 5d be
       0.037841875 -0.16275483 0.050692514 -0.2158211
000060 9d d5 2f be e6 e1 3e 3c 53 be ad bd a8 ee b4 bd
       -0.17171331 0.011650538 -0.08483567 -0.088345826
000070 94 d5 d0 bd 2f f2 a4 3d 69 16 af bc 14 46 96 3d
       -0.10196987 0.08054005 -0.02137299 0.07337585
000080 74 c0 12 be 90 14 99 be e7 71 91 3d c9 ac bb 3d
       -0.14331228 -0.298985 0.07101803 0.091638155
000090 27 1a 93 3c 44 e4 16 be d7 f4 b8 3b f9 ce e9 bd
       0.017956806 -0.14735514 0.0056444216 -0.1141643
0000a0 b4 e1 c0 bd cd be dd bc fa 99 2e bd 14 ee 6e bd
       -0.094180495 -0.02706852 -0.042627312 -0.058332518
0000b0 09 e9 bd bd 19 33 63 3d 62 09 be 3c a8 8c b5 bd
       -0.092729636 0.055468652 0.023197833 -0.08864719
0000c0 7e fd 72 bc 1c 7d e8 bc 7f 2d 28 3d 9d 42 00 be
       -0.014830945 -0.02837997 0.041059013 -0.12525411
0000d0 23 01 5d bd 73 ec 64 bc ab d6 ec bd 38 94 eb 3d
       -0.053956162 -0.0139723895 -0.11564382 0.1150288
0000e0 82 93 f1 bc 3c 0f 66 bd 54 19 2b be 95 9c d2 3d
       -0.029489283 -0.056166872 -0.1670888 0.10283772
0000f0 ac d5 f8 bd a4 5a 89 bd 2b c4 2b be 75 41 ee bc
       -0.1215013 -0.067067415 -0.16774051 -0.029083947
000100 02 b2 27 3d aa 1c 4e bd 39 36 07 be 02 32 07 be
       0.040941246 -0.050320305 -0.13204278 -0.1320267
000110 9e 29 5f 3d e0 98 70 3c 45 28 75 3d aa 76 f9 bd
       0.05448305 0.014684886 0.059852857 -0.121808365
000120 34 26 a2 bd 6a 04 32 bd 85 0a dc 3c 27 3e 5c bd
       -0.07917443 -0.04346124 0.026860485 -0.05377021
000130 38 e4 a3 bd 96 58 05 3d fc 67 82 bc 55 26 e0 bd
       -0.08002514 0.032555185 -0.015918724 -0.10944811
000140 fc 38 8d bd d5 9f 17 3d d5 8f a0 3d 2e 30 45 bd
       -0.068956345 0.037017662 0.07839934 -0.04814165
000150 97 67 91 bd 91 fd 07 bd b5 43 8e bd df 36 e5 bd
       -0.07099836 -0.033200804 -0.06946508 -0.111921065
000160 eb 81 e3 3c 13 a2 0d bc 37 0c 95 bd 77 3d 8c bd
       0.02777191 -0.008644599 -0.072777204 -0.06847661
000170 2f 48 3d bd b5 8c 54 3d e5 55 cf 3d a4 fb df bc
       -0.046211418 0.051892 0.10123805 -0.027341671
000180 99 08 34 bd 2f 01 87 3a d0 cd a8 bd 38 01 c6 bd
       -0.043953512 0.0010300035 -0.082423806 -0.09668201
000190 31 4c e6 bc 4c 6b 14 3d 68 18 c8 bc 93 c4 08 be
       -0.028112503 0.03623514 -0.0244257 -0.13356237
0001a0 17 c2 b2 3c d7 c6 39 3c 3b a1 66 bd 50 4e 8d 3d
       0.021821065 0.011338911 -0.056306105 0.068997025
0001b0 ae 4c 9d bd 31 6f 96 bd 81 6a 3a bd b4 56 23 bd
       -0.07680641 -0.07345427 -0.045511726 -0.03987761
0001c0 be 27 ce 3d cf d5 04 be f0 d6 17 be dc 27 bd bd
       0.10066174 -0.12972187 -0.14828086 -0.09236118
0001d0 61 a0 2e bb 53 51 96 bd 70 03 12 3d 83 45 44 3d
       -0.0026645886 -0.0733973 0.03564781 0.047917854
0001e0 39 11 92 bd a3 4d 21 bd a7 db 96 3c 5b b7 13 bd
       -0.07132191 -0.03938068 0.018415285 -0.036063533
0001f0 68 8e 09 be 8e c7 f0 bd ec cf 82 3d c3 eb 5b bc
       -0.1343323 -0.11756812 0.06387314 -0.013422909
000200 4c 60 54 bd 1f 99 41 3d 5e d6 30 3c b7 06 3b 3d
       -0.05184965 0.04726517 0.010793297 0.0456607
000210 e7 2a 95 3c 90 ac d0 bd 87 e1 48 3d 48 20 97 bd
       0.018208934 -0.10189164 0.049043205 -0.07379204
000220 47 43 5a be 20 e1 c7 bd 5b 0b 34 be eb 23 85 be
       -0.21314727 -0.09759736 -0.17582457 -0.26003966
000230 a0 6f 1f 3e 21 90 be 3d 63 3a df 3c 7c 42 b9 3d
       0.15569925 0.09304834 0.02724952 0.09045884
000240 96 89 84 bd e7 c2 74 bd 6b a6 1c be e0 89 72 3d
       -0.06471555 -0.059756186 -0.15297858 0.05921352
000250 aa 67 3d 3d 9c bf 74 be 3c 98 07 3e cc 12 d0 3c
       0.04624144 -0.23901218 0.13241667 0.025399588
000260 ad 8e 5b bd f6 03 b9 3d 49 42 31 bd 52 2a ad 3d
       -0.053602863 0.090339586 -0.043276105 0.084553376
000270 1b 2c 29 3d cd 08 22 bd 99 f7 2d bd 88 72 97 bd
       0.041301828 -0.039559174 -0.042472456 -0.07394892
000280 c8 35 3a be 61 4a 2e bc 88 fe 9f bc 92 6b 32 be
       -0.18184578 -0.0106378505 -0.01953055 -0.17423847
000290 bc ea cd bc f3 d3 19 bd 4c 70 4b bd 13 60 fb bb
       -0.025136344 -0.037555646 -0.04966764 -0.007671365
0002a0 54 c2 e9 bd d5 ed f0 bd 2a 7c 8c 3c 44 0e a2 3c
       -0.11414018 -0.11764113 0.01714905 0.019782193
0002b0 61 78 58 3d bc b7 c7 bb b1 62 cc bd 01 77 7c 3e
       0.052849177 -0.006094901 -0.099797614 0.24654771
0002c0 bb 93 b1 b9 d3 6f 9d bd 94 5c 93 bd 16 93 9e bc
       -0.0003387014 -0.076873444 -0.07195392 -0.019357245
0002d0 4e 07 45 bd 38 3c 1d 3d e9 ed 2d 3d 1a a3 86 bb
       -0.04810267 0.038387507 0.042463217 -0.0041087987
0002e0 fc 63 e6 bc 9f 59 51 3c 4c f0 a0 be 16 12 aa bc
       -0.028123848 0.012777715 -0.31433332 -0.020760577
0002f0 79 5f bc bd 5a 9d f2 bd 07 a7 a6 bb 74 25 53 be
       -0.091978975 -0.11846419 -0.005085829 -0.20619756
000300 cf f6 33 bb e5 eb 2d bd 60 eb 31 3e cd ee 1d 3c
       -0.0027460342 -0.042461295 0.17374945 0.009639454
000310 68 08 36 3d af 47 44 3d ef 88 c8 bd 90 2b 9f 3c
       0.04444161 0.047919925 -0.09791743 0.019429952
000320 1f b6 64 bd ae 99 89 bd ea 17 d9 bc 88 8d 46 3c
       -0.055837747 -0.06718765 -0.02650066 0.012118705
000330 16 fc 3d bd 04 ae 92 3d c2 7e bd bd f4 5d 1b 3d
       -0.046382986 0.07162097 -0.09252693 0.037931398
000340 82 d9 81 3d 86 8a 73 bd 8a a0 bc 3d 36 2c 30 bb
       0.063403144 -0.059458278 0.09210308 -0.002688182
000350 7a 1c 1b be 4d 20 b8 bd 47 88 8a bd 85 ba d8 bc
       -0.15147582 -0.08990536 -0.06764274 -0.026456127
000360 44 4c be 3b 73 ff 6b bd 9c 8a 79 bd fe 4d 21 bd
       0.0058074314 -0.057616662 -0.060923204 -0.03938102
000370 88 39 53 3d 84 be 97 3c 6a 0c 3d 3e 09 8f 96 be
       0.051568538 0.018523462 0.18461767 -0.29406002
000380 c8 e7 aa bd f7 22 d9 b9 17 14 80 3e f4 2b 03 bd
       -0.0834499 -0.00041415516 0.25015327 -0.03202434
000390 c1 8b 4f bd 56 7e 37 bd d5 b3 96 bd eb 95 9c 3e
       -0.05067039 -0.044798218 -0.07358519 0.30583128
0003a0 20 ba bc 3d a3 29 83 3c f6 dd 98 3d ad f6 bb bd
       0.09215188 0.016011065 0.07464211 -0.09177909
0003b0 6c 54 2b be ca c6 57 3d 1b 59 7c 3d bf d4 23 be
       -0.16731423 0.052679814 0.061608415 -0.15999125
0003c0 be 2e 4c 3d 21 f2 9a bc 59 51 2e bd 65 8a 1a 3d
       0.049849264 -0.018914284 -0.042558048 0.03772964
0003d0 19 54 3a be 47 71 f8 bd 44 2f a0 bd 6c 6f 0e 3d
       -0.18196143 -0.12130981 -0.07821515 0.03477423
0003e0 1e b7 ee bd dc 20 b3 bd 44 cd 0c 3d 6e 5a 90 bd
       -0.116560206 -0.08746502 0.034375444 -0.07048498
0003f0 5e 38 c5 bd 45 be 72 bd 25 58 a6 bd bd b4 f4 3d
       -0.09629892 -0.059263486 -0.08122281 0.119485356

fc2.bias f4 [256]
000000 64 62 b5 be d3 0e d1 be a1 58 96 be 27 0d ab be
       -0.3542663 -0.40831622 -0.29364493 -0.33408472
000010 87 8d a6 be 00 62 a9 be da fd 34 bf 12 6d 92 be
       -0.32529852 -0.3308258 -0.70699847 -0.2859884
000020 1a 85 83 be 38 9f c8 be 84 5b 8b be 99 31 3f be
       -0.25687486 -0.39183974 -0.27218258 -0.18671264
000030 1a 54 9e be fe cf a0 be 75 2f 72 be 23 0c 90 be
       -0.3092354 -0.31408685 -0.23650916 -0.2813426
000040 bc 4b 9e be 64 2d f8 be e3 9a 9b be 85 9d ba be
       -0.30917156 -0.4847213 -0.30391607 -0.36448303
000050 42 ea 98 be 19 0f b7 be 3b 15 8d be 5d f0 84 be
       -0.29866225 -0.35753706 -0.2755526 -0.25964633
000060 bc f7 48 bf 32 07 b5 be 5f d6 a5 be 72 2b f8 be
       -0.7850301 -0.35357052 -0.32390115 -0.48470646
000070 60 71 1a bf 40 07 d3 be ce ce 8c be 04 e5 8f be
       -0.60329247 -0.4121647 -0.2750153 -0.28104413
000080 8e 5d 62 be 3d b7 e6 be bc 92 ce be 7e 4b 17 bf
       -0.22106001 -0.45061675 -0.40346324 -0.59099567
000090 45 33 8f be e1 46 0d bf dd 3f c8 be 28 cb 09 bf
       -0.27968803 -0.5518628 -0.39111224 -0.53825617
0000a0 6f 90 a7 be 72 67 e7 be bf 42 9f be b4 44 83 be
       -0.32727382 -0.4519611 -0.3110561 -0.25638354
0000b0 25 e5 8b be 00 36 fe be bb 61 ee be d4 e9 8f be
       -0.2732326 -0.49650574 -0.46558937 -0.28108084
0000c0 b5 34 ab be 89 14 a2 be 0e 8d d3 be 15 80 84 be
       -0.3343865 -0.31656292 -0.41318554 -0.2587897
0000d0 66 ac 2a bf 6c af bf be bc a9 88 be 03 80 a6 be
       -0.6666931 -0.37438524 -0.26691997 -0.3251954
0000e0 48 ee 80 be ae d2 98 be db 09 b7 be e8 9a 67 be
       -0.25181794 -0.29848236 -0.35749707 -0.22617686
0000f0 31 2a 96 be 25 96 7b be f5 63 9c be 91 9e d7 bd
       -0.29329064 -0.24568994 -0.3054501 -0.10528291
000100 08 b9 60 be b6 ce b2 3b 94 9f 97 be 45 69 a6 be
       -0.21945584 0.005456771 -0.29613936 -0.3250219
000110 ab e2 a0 be 46 35 10 bf 7b 91 47 be fe b2 8a be
       -0.31422934 -0.5633129 -0.1948909 -0.27089685
000120 dc c1 bc be f3 22 df be 13 bf 86 be c8 7a a2 be
       -0.36866653 -0.43581352 -0.26317653 -0.317343
000130 2d d4 b2 be e1 3c 61 be 49 8e bb 3d 01 65 76 be
       -0.34927502 -0.2199588 0.09157998 -0.24061967
000140 b2 7e 9b be f2 30 9e be a5 5c 96 be f2 8a 56 3d
       -0.30370098 -0.30896717 -0.29367557 0.052378602
000150 e2 b5 e8 be 7d 70 ba be 9d e5 97 be 6c e6 e7 be
       -0.45451266 -0.36413947 -0.2966737 -0.45292985
000160 34 ed a9 be 10 1e ed be de 70 9f be 12 f2 a5 be
       -0.33188784 -0.46311998 -0.31140798 -0.32411247
000170 4b 1a fc be fa ee a6 be 02 43 a6 be 3b 64 b4 be
       -0.4923881 -0.326042 -0.32472998 -0.3523272
000180 32 62 94 be 77 24 ad be 2d 8b 0a bf 8d 76 c5 be
       -0.28981167 -0.33816883 -0.54118615 -0.3856701
000190 d4 50 83 be d8 48 c0 be 03 fd 8b be 33 f0 1a bf
       -0.25647604 -0.37555575 -0.2734147 -0.60522765
0001a0 27 ee 3d 3d 30 54 7b be 5c 85 b2 be 4b 13 cc be
       0.046369698 -0.24543834 -0.3486737 -0.3985847
0001b0 2b fb 8e be 27 89 9f be 74 65 81 be 90 88 93 be
       -0.27926 -0.31159326 -0.25272715 -0.28815126
0001c0 58 65 9b be 08 e4 64 be eb 51 a5 be d0 3a b4 be
       -0.30350757 -0.22352612 -0.3228906 -0.3520112
0001d0 63 9c a2 be b1 d4 00 bf aa 6a 2d bf f4 91 ac be
       -0.3175994 -0.5032454 -0.6774088 -0.33705103
0001e0 5f 47 a2 be 0f 68 bb be cb b2 98 be 92 b8 9f be
       -0.31695077 -0.36602828 -0.29823908 -0.31195503
0001f0 00 64 8d be 97 3c b3 be 4d 19 d5 be 3d 1c c8 be
       -0.27615356 -0.35007164 -0.41620865 -0.39084044
000200 c1 27 83 be 3f c3 dc be 1f 89 ea be bc 31 b4 be
       -0.25616267 -0.4311771 -0.4580774 -0.35194194
000210 c9 04 86 be 91 eb 9b be 4b 04 9d be 98 b4 8e be
       -0.26175526 -0.3045316 -0.30667338 -0.27872157
000220 1d b9 7c be bd f8 c4 be 03 de b0 be c3 41 a3 be
       -0.2467999 -0.38471022 -0.34544381 -0.3188611
000230 29 86 a6 be 1c 33 ad be 1a 19 89 be 0e 70 78 be
       -0.3252423 -0.33828056 -0.26776963 -0.24261495
000240 86 31 89 be 9a f4 c6 be 3f 04 a6 be 8f 33 ab be
       -0.26795596 -0.3885849 -0.32425115 -0.33437774
000250 6a 3c 96 be 65 66 be be 91 b9 ac be f4 f8 4d be
       -0.29342967 -0.37187496 -0.33735326 -0.201145
000260 35 ef a4 be ee ea a3 be 3e c1 84 be 73 73 a8 be
       -0.3221375 -0.32015175 -0.25928682 -0.3290058
000270 8c 54 21 bf 58 0c 18 bf 47 46 9d be 8e e3 a2 be
       -0.63019633 -0.59393835 -0.3071768 -0.31814235
000280 0e 00 b7 be 1b 9c 75 be 30 a0 94 be d6 19 93 be
       -0.3574223 -0.23985331 -0.29028463 -0.2873065
000290 c0 17 96 be e6 0c a7 be a2 4a c2 be 7a 7b bf be
       -0.29314995 -0.32627028 -0.37947565 -0.37398893
0002a0 73 cd 42 be 3e 53 66 be 46 66 8a be 52 3b a6 be
       -0.19023685 -0.22492692 -0.27031153 -0.32467133
0002b0 01 2c d9 be 59 04 03 bf 5d b6 87 be cd 44 a6 be
       -0.42416385 -0.5117851 -0.2650632 -0.32474366
0002c0 0f cf ca be 00 04 10 bf a0 85 15 bf a7 9d cd be
       -0.39611098 -0.56256104 -0.5840702 -0.40159342
0002d0 7c 0d aa be 08 8a 9e be 2c f5 d2 be 6b b9 94 be
       -0.33213413 -0.30964684 -0.41202676 -0.29047713
0002e0 90 49 b8 be 93 9c 87 be 57 3a a9 be 57 1f b1 be
       -0.35993624 -0.26486644 -0.33052322 -0.34594223
0002f0 f8 1f a3 be 87 f8 a7 be 4e f6 e1 be 43 16 d4 be
       -0.31860328 -0.328068 -0.44133228 -0.41423234
000300 14 89 b2 be 53 e2 48 be a6 2c 9e be c5 65 96 be
       -0.34870207 -0.19617586 -0.3089344 -0.2937452
000310 6d 40 c3 be 20 cf 1e bd 9a 6a 96 be ed ea 38 be
       -0.3813509 -0.03877175 -0.29378206 -0.18058367
000320 d1 9a 74 be f1 4d 8f be cf 2e aa be 87 81 a5 be
       -0.23887183 -0.27989152 -0.33238837 -0.32325384
000330 70 c3 fa be a7 ed eb be 0e 50 9a be 2d bc 92 be
       -0.48977232 -0.46079752 -0.30139202 -0.28659192
000340 f3 86 9d be 27 47 a3 be f8 e9 dd be 32 3c 84 be
       -0.3076702 -0.31890222 -0.43342566 -0.25827175
000350 97 a8 9f be 2f 0b c5 be 88 72 ed be d6 e7 00 bf
       -0.3118331 -0.38485095 -0.46376443 -0.50353754
000360 e3 df b4 be 81 0f 9a be 10 6a 7c be 9e 18 02 bf
       -0.35327062 -0.30089954 -0.24649835 -0.5081881
000370 e5 17 af be 90 b6 c3 be d0 bd a2 be 0e 8a ad be
       -0.34197918 -0.38225222 -0.3178544 -0.3389439
000380 37 63 7e be 1c ae f4 be a5 9e aa be 79 dc 88 be
       -0.24842535 -0.47789085 -0.3332416 -0.26730707
000390 60 fe 82 be d7 cb 42 bf 7c aa 9e be a9 68 c6 be
       -0.25584698 -0.76092285 -0.30989444 -0.38751724
0003a0 a4 f7 a3 be 55 80 96 be 10 b9 00 bf f5 3e e2 be
       -0.32024872 -0.29394785 -0.5028238 -0.44188657
0003b0 7a 98 9a be 63 e4 9b be 51 04 ae be 04 bf a8 be
       -0.30194455 -0.30447683 -0.33987668 -0.32958233
0003c0 ab 50 c4 be 3c af 6e be 66 d1 dc be 0a df 8f be
       -0.38342795 -0.23309034 -0.43128508 -0.28099853
0003d0 33 28 7d be 75 1c a3 be 26 bb 4d be ca c7 b6 be
       -0.24722366 -0.31857648 -0.20090923 -0.35699302
0003e0 f6 df ba be d2 e6 93 be 11 fa c9 be fd fb c4 be
       -0.36498994 -0.2888704 -0.39448598 -0.38473502
0003f0 0b 7b 29 bf 07 31 08 bf 82 93 14 bf a6 b9 a2 be
       -0.66203374 -0.5319981 -0.5803758 -0.31782264

fc3.weight f4 [1, 256]
000000 0d ff 03 3d dc 6e 62 bc 07 9d c7 bb 5b 02 bd bb
       0.032225657 -0.013820376 -0.006091717 -0.005768103
000010 e2 af 57 bc 83 ae 20 3c 77 f6 77 3a 95 01 88 3b
       -0.013164492 0.009807232 0.00094590284 0.004150579
000020 5c e5 92 3c d5 24 b8 bc a3 68 18 39 94 db 7a 3b
       0.017931633 -0.0224785 0.0001453483 0.0038277851
000030 c4 42 c3 3c b6 d7 8f 3c b8 fd f6 3c a9 f2 9c bb
       0.023835547 0.017558914 0.03015028 -0.0047896695
000040 0b 51 06 bc 62 77 36 bc 88 ea 7a bc 86 47 e2 bb
       -0.008198033 -0.0111368615 -0.015314706 -0.006905499
000050 7a 4b 82 bb 73 cc 66 bc 05 90 9e bb 39 ca 65 bc
       -0.0039762827 -0.01408683 -0.004838946 -0.014025264
000060 6d 4e 0e 3b c2 14 77 3c 0e 0f 72 3c fc e0 80 3b
       0.0021714226 0.015080633 0.014774097 0.00393307
000070 97 c7 8d bc 74 ce f0 3b 6c f6 9b bc 9e 8c ce 3c
       -0.017307086 0.00734883 -0.019038402 0.025213536
000080 5a 5b 47 bc 75 90 05 3a 53 28 37 bc e5 50 f0 3c
       -0.012167776 0.0005095073 -0.011179048 0.029335449
000090 5a c5 6b bb 93 12 00 bc f6 09 72 bc c3 33 8c 3a
       -0.0035975785 -0.007816928 -0.014772883 0.0010696579
0000a0 74 4e 3a bc c8 60 40 3b fd 29 94 bb 4c 3a 83 bb
       -0.011371244 0.002935456 -0.004521607 -0.0040047523
0000b0 16 80 69 3c 1e a3 d5 bc 33 b3 32 bc ad 8c a3 3c
       0.0142517295 -0.026078757 -0.010906982 0.01996454
0000c0 81 41 04 3b 90 43 0c ba fe 6f 66 bb ea 67 86 3c
       0.0020180645 -0.0005350644 -0.0035161967 0.016406972
0000d0 cd ba 37 bd 34 cd e5 3c c0 bb 76 3e 50 9b c6 3b
       -0.04485588 0.02805195 0.24095058 0.006060995
0000e0 67 16 e0 ba e0 85 32 bc 6b a2 02 3d e9 f6 ee bb
       -0.001709652 -0.010896176 0.031893175 -0.0072926176
0000f0 4b 91 bb bc 21 c3 84 bc 71 9d b8 bb 1e 2a 58 3c
       -0.02289643 -0.016206326 -0.005634003 0.013193635
000100 f4 41 ab bc 68 9a fe bc 2b d0 81 3c 5c b0 3c 3c
       -0.020905472 -0.031079486 0.015846333 0.011516657
000110 25 ca 11 3c 9e a0 a7 bb 48 db b6 3a ab f0 c0 3c
       0.008898293 -0.0051155826 0.0013950849 0.02355226
000120 95 21 97 3c b1 e9 17 3c c4 39 93 bc ee 90 38 3c
       0.01844863 0.009272025 -0.01797188 0.011265023
000130 ab ef 6b bc 3f f2 af bc a8 89 ff 3c 10 c8 e7 bc
       -0.014400403 -0.021477817 0.03119357 -0.02829364
000140 3b dc 43 bb e1 7f 2f 3a d0 ef 38 3b 46 f1 8a 3d
       -0.0029885906 0.00066947757 0.0028219111 0.067843005
000150 74 1a 47 bc 46 71 f4 bc 74 56 08 bc 5c 06 2f 3c
       -0.012152303 -0.02983917 -0.008321393 0.010682669
000160 15 59 be bb 57 3d 78 3b d4 c1 be 3b 62 30 40 3b
       -0.0058089592 0.0037878358 0.005821446 0.0029325713
000170 fd 43 22 3d 14 01 9d bb 37 05 bb bc a8 02 94 3b
       0.03961562 -0.0047913883 -0.022829635 0.004516918
000180 ca a9 ce bb cc bf 84 3c 81 89 ee 3c 84 2d 29 bc
       -0.0063068615 0.016204737 0.029118301 -0.010325793
000190 ad fb 64 bc 8d 1d 9d bc ba f0 08 3d 02 2e 2f bc
       -0.01397602 -0.01917913 0.0334327 -0.010692121
0001a0 62 d1 84 3c 3c 11 85 bb a9 dc 52 bc 92 cf 14 3d
       0.016213123 -0.0040608924 -0.012869992 0.036330767
0001b0 c2 b9 a7 38 6b 0e 24 ba 62 34 39 3c 32 63 ab 3b
       7.9977806e-05 -0.0006258252 0.011303993 0.005230331
0001c0 81 03 9b 3b cf d0 7d bb 52 09 5e bc 2b 56 5b 3b
       0.0047306423 -0.0038729196 -0.013552027 0.0033468108
0001d0 0a 68 e9 3c 33 0e 0c 3d b5 f5 79 3c 92 49 bd bc
       0.028491993 0.03419323 0.015256335 -0.02310637
0001e0 0b 23 c0 bb 1c 74 87 3b 8b 5b 53 3c b2 88 dc bb
       -0.0058635524 0.0041337144 0.0129002435 -0.0067301625
0001f0 2f 43 5d 3c a4 90 d2 bc 1b e9 ab bc e5 e3 cb 3c
       0.013504787 -0.025703736 -0.020985177 0.024888942
000200 e0 d6 ab 3a 1c 12 e0 bc 17 93 d4 bb 76 5d 18 bc
       0.0013110302 -0.027352385 -0.006487261 -0.009299627
000210 1a 64 ca 3c d7 d8 f3 bb 74 54 e9 bc 75 6d d8 3c
       0.024705935 -0.007441621 -0.028482653 0.02641938
000220 33 3b fd bb 8c 95 dc bc d2 7f 33 bc 37 27 13 bd
       -0.0077280044 -0.026926778 -0.010955768 -0.03592607
000230 be 51 0c bc e1 5f 94 3c a3 48 17 bc 78 7c 9d 3c
       -0.008564411 0.018112125 -0.009233627 0.01922439
000240 71 2f a5 3c 1a 8b 0f 3c 90 79 a9 3c 76 cd 90 bb
       0.020164223 0.008761192 0.020687848 -0.004419024
000250 e4 d8 cb 3c 90 23 07 3b de ba f0 3b 83 09 cd 3c
       0.024883695 0.0020620562 0.007346495 0.02502895
000260 f6 e2 b4 3c 19 a7 ed bb 0e d0 7f 3c 6b 9e 33 3c
       0.02208088 -0.0072525856 0.015613569 0.010963063
000270 61 6b eb 3c b7 39 77 3c 3f 48 74 3c 6f e2 25 bc
       0.028737726 0.015089444 0.014909803 -0.010124787
000280 77 2b ba 3c 74 0a fe bc 43 e2 cb bb 28 b1 a9 39
       0.022725804 -0.031010844 -0.006222041 0.00032366184
000290 6e 0e 68 bd e5 8a f1 ba 8b 38 ec bc 3e 83 78 3c
       -0.056654386 -0.0018428235 -0.028835556 0.015168009
0002a0 95 f4 65 3c 9b cf 8d 3c 4e f6 96 bc 09 00 80 bb
       0.014035364 0.017310908 -0.018427994 -0.003906254
0002b0 92 37 7b 3c df 1a d6 bc 91 0c 57 3c 7d 3e 1c 3b
       0.015333073 -0.02613586 0.013125555 0.0023840957
0002c0 42 94 64 bb 84 0f 05 bc 41 f6 6f bc a5 8f bd 3c
       -0.0034878408 -0.008121375 -0.014646114 0.023139784
0002d0 48 3f c5 3a ab 8b 1e bb f9 49 ea bc 70 91 d6 bc
       0.0015048767 -0.0024192135 -0.028599726 -0.026192397
0002e0 0c 1b fc bb 61 3f 23 3c 8d 4c bf 3c e2 6b 08 bc
       -0.007693654 0.009963841 0.023351932 -0.0083265025
0002f0 46 da e8 bb 33 64 f1 bb c9 49 05 3c d6 6c 09 bb
       -0.0071060983 -0.007366681 0.0081352675 -0.0020969412
000300 70 5f b4 bc e7 01 4e 3c 63 16 d7 bb 29 59 8d 3b
       -0.022018164 0.012573696 -0.006563948 0.0043136072
000310 38 9a f5 3c c4 f0 56 3c 17 63 63 bb 51 07 85 bd
       0.029980764 0.013118926 -0.0034696513 -0.06495536
000320 e3 e2 4f bc 4f 9e 4a bc 7a af 89 3c a0 cd 6a bc
       -0.012688371 -0.012366845 0.016807307 -0.014331251
000330 a4 23 af bb 6e fb 6c 3c 66 e2 bc bb bb 77 7d 3c
       -0.005344825 0.014464242 -0.0057642935 0.0154704405
000340 68 9d 50 bc 18 be 32 3b a7 7c 5b 3c e6 e3 9d bb
       -0.012732841 0.002727395 0.013396419 -0.0048184274
000350 9c 6d 39 bc 9e 33 97 3d b8 43 76 bc 4a a5 f8 bc
       -0.011317637 0.07382892 -0.015030794 -0.030352253
000360 ef 99 39 bc 24 6d e1 bb fb cf 8d 3c 9f 03 c5 ba
       -0.011328205 -0.0068794657 0.017311087 -0.0015030986
000370 21 72 09 bc bc bc 92 bc 92 b3 45 bb ae 9d 5e 3b
       -0.008389027 -0.017912261 -0.0030166847 0.0033968496
000380 4e d1 e4 b8 e7 37 14 3b bf 11 08 bd 44 45 e4 bb
       -0.00010910873 0.0022616328 -0.03322005 -0.006966265
000390 9f b4 a8 3c 07 5a d2 3c cd 49 61 3c 75 df 29 3c
       0.02059394 0.025677694 0.013750506 0.010368218
0003a0 96 93 fa b9 d8 f0 b3 bc 9b e0 5e bd 5f 22 47 bc
       -0.00047793676 -0.02196543 -0.05441342 -0.012154191
0003b0 6d 36 ab 3c 08 20 42 3c 1a da 55 bc 69 20 80 bb
       0.020899976 0.011848457 -0.013052488 -0.0039101136
0003c0 43 db 3a 3b db c1 d1 3a 95 4c 9f 3c ed b0 e7 ba
       0.0028512038 0.0016003208 0.019445697 -0.0017676629
0003d0 ab bb 49 3b ca af 01 3c d6 51 bc bc f9 cb a2 3a
       0.0030782025 0.007915447 -0.022988241 0.0012420408
0003e0 fb e1 d5 bb d7 93 69 ba 46 f8 fe 3c 04 e5 c9 3a
       -0.006527183 -0.00089102745 0.031124245 0.0015403335
0003f0 8a 4d 3b bd e0 dc dc 3c 84 1a cd 3c 02 7a 46 3c
       -0.045728244 0.02696079 0.025037058 0.01211405

bn1.weight f4 [256]
000000 52 c6 a8 3f cd f1 9e 3e 72 e5 be 3e f3 c2 76 3e
       1.3185523 0.31043854 0.37284428 0.24097805
000010 76 22 95 bc a2 80 16 3f de b2 01 3e f8 e7 7d 3e
       -0.018204909 0.5879003 0.12665889 0.2479552
000020 0e 70 34 3e 13 55 4a bd 49 11 8e 3d 00 17 fa 3d
       0.1762087 -0.04939754 0.06936891 0.12211418
000030 4f f7 ff 3e e9 b5 d4 bd 2b 84 5c ba 5d 46 5a 3e
       0.4999337 -0.10386259 -0.00084120285 0.21315904
000040 66 b5 fe 3d 10 23 3c 3f f4 30 e4 3e 10 4c 0d 3d
       0.12436943 0.73491 0.44568598 0.034496367
000050 13 13 a4 3d 3f b5 15 3e ac fe 2c be 0c ab 29 3e
       0.080114506 0.14619921 -0.16894025 0.16569155
000060 ce 77 0b 3e 61 47 b4 3e 36 ca 78 3e 2d ea e8 3d
       0.1361992 0.35210708 0.24295887 0.113727905
000070 e7 f2 6f bd fc d2 1a 3e 4f b6 56 3e 97 27 9b 3f
       -0.05858126 0.15119547 0.20967983 1.2121457
000080 0a a8 aa bc 50 72 9c 3e b3 68 4f 3e 33 45 a6 3e
       -0.02083208 0.30555964 0.20254783 0.3247467
000090 47 58 f4 3e 8b fd 38 bb e9 13 47 3e 14 49 93 3e
       0.477236 -0.0028227295 0.19441189 0.28766692
0000a0 d2 6a 3a 3e 6a d8 a9 3d 4d 65 22 3e fc 46 e3 3d
       0.18204811 0.08293231 0.15858956 0.110975236
0000b0 53 5f 4a 3e ff e1 47 3f bf 46 08 3f 7f 03 ea 3d
       0.19762926 0.7807922 0.5323295 0.11426448
0000c0 9d 7c c5 3d 3c 28 95 bd f3 82 61 3e c1 ce 12 3e
       0.09642909 -0.07283065 0.2202261 0.14336683
0000d0 be 1a 5b 3e de 75 fd bc 6e af 42 3e 68 c8 54 3d
       0.2139692 -0.030939993 0.19012234 0.051948935
0000e0 1b 3a 0e 3e dd 5b 3f be ff ac 6b 3e c1 24 84 3f
       0.13889353 -0.18687387 0.23015212 1.0323716
0000f0 90 52 93 3e 52 76 e9 3e c2 b4 ba 3d 3c e4 af 3e
       0.28773928 0.45598084 0.09116508 0.34353817
000100 9f f0 cd 3d 1f 11 cb 3d 6a 89 09 bd c8 fb 26 3e
       0.100556605 0.09915375 -0.033578314 0.16306984
000110 f9 60 c2 3d 11 b8 47 3e 61 61 77 3e a3 66 91 3d
       0.09491152 0.1950381 0.24158241 0.070996545
000120 39 e6 fe 3d 87 aa 6e 3e 6b db 1f 3f 3c f3 5b be
       0.12446255 0.23307239 0.6244418 -0.21479505
000130 63 ca 94 3d 41 ba 70 3e 6a a5 13 3f c8 13 20 3e
       0.07265165 0.2350855 0.57674277 0.15632546
000140 5f b2 8c 3e f5 d1 9c 3d 06 cb e0 bd 76 8d da 3d
       0.27479836 0.076572336 -0.10976224 0.10671513
000150 a5 5b 89 3e be 9d 81 3e 42 c0 b8 3d 0a 84 b7 3d
       0.26827732 0.2531566 0.09021045 0.08960731
000160 0d 88 00 3e bd 63 e8 3d 4d d8 aa 3d 20 d8 2b 3e
       0.12551899 0.113471486 0.08342037 0.16781664
000170 a6 38 88 3e 05 80 39 be e6 e0 6a 3e 6b e5 08 3f
       0.2660572 -0.18115242 0.22937354 0.53475064
000180 3e 36 80 be 22 b9 cf 3e 4c 68 33 3e 01 0a 0b 3e
       -0.25041384 0.40570933 0.17520255 0.13578035
000190 3c 28 da 3d 93 7f 05 3f ba f7 9b 3d ce 9a 4c be
       0.10652205 0.5214779 0.076156095 -0.19980928
0001a0 91 d8 fe 3e 27 f4 09 3e 23 13 8c 3e f4 51 fc 3d
       0.49774602 0.13472043 0.2735835 0.12320319
0001b0 51 1b a5 3e 10 e4 08 39 8f b5 82 3e df db 05 3e
       0.32247403 0.0001305493 0.25529143 0.13072155
0001c0 4b 2e b9 ba b6 0c 58 3e 25 a1 62 3f 35 8d 64 3d
       -0.0014128176 0.21098599 0.8852714 0.055798728
0001d0 51 a2 39 3e d6 3a 35 3e b0 b6 ba 3e f6 b6 9a 3e
       0.18128325 0.17698225 0.36467505 0.30217713
0001e0 33 49 3f 3a 06 f0 66 3e 87 47 14 3f 6b 22 f6 3e
       0.00072969793 0.22552499 0.5792164 0.48073134
0001f0 f1 ba b6 3d 40 41 fd 3d d5 03 70 3e a6 59 7c 3e
       0.08922375 0.12365961 0.23438962 0.24643573
000200 0f 20 3b bd 29 1e 12 3e 59 5f 12 3b 83 af 0a 3e
       -0.04568487 0.14269318 0.0022334664 0.13543515
000210 d4 0e 80 3d c0 1f 2c 3e 3d 7e 86 3e 6a 48 2b 3e
       0.06252828 0.16808987 0.26268187 0.16726843
000220 61 4a 29 3e 1f 80 30 bd 2f 4a ec 3e 3c 13 87 bd
       0.1653228 -0.043090936 0.46150348 -0.065954655
000230 40 54 68 3d b2 d3 90 3e 75 65 15 be e3 79 88 3e
       0.056720972 0.2828651 -0.14589484 0.26655492
000240 9e 0b 16 3e 12 c6 59 3e c2 7d 30 3e 0e 4a 73 3c
       0.14652869 0.21266964 0.17235473 0.014849199
000250 09 b7 64 bd 65 67 d5 3c 09 f8 a7 3d d3 c5 47 3f
       -0.05583862 0.026050279 0.08201606 0.7803623
000260 59 be a7 3d 8e 6a 40 3f 61 76 f8 3d 84 b0 48 bd
       0.08190603 0.7516259 0.12131954 -0.048996463
000270 79 ab 19 be 76 50 e3 3d 76 44 c0 bd 3e 52 10 3e
       -0.15006818 0.11099331 -0.09388058 0.14093873
000280 60 35 43 3e 03 ba d1 3e 86 8c 7f 3e d2 74 6c 3e
       0.1906333 0.40962228 0.24955949 0.23091438
000290 6b 6f b2 3e fe 02 e6 3e d6 1d 96 3d 3b e6 b1 3e
       0.3485063 0.44924158 0.073299095 0.34745964
0002a0 d2 41 a2 3e 88 cd db 3d 43 d6 d3 3d e7 1b 3b 3f
       0.31690842 0.10732561 0.103436016 0.7308945
0002b0 75 43 29 3f 5c 66 b4 3e 70 ea 29 3e 61 74 22 be
       0.66118556 0.35234344 0.16593337 -0.15864708
0002c0 db d8 14 3d 3e 11 13 3f a8 f9 bf 3e 83 9b f0 3d
       0.036339622 0.57448184 0.3749516 0.117484115
0002d0 3b a7 ff 3e 18 cd 06 3e 06 8f c2 be 66 3f 68 3e
       0.49932274 0.13164175 -0.37999743 0.22680435
0002e0 15 ce 74 be 10 ff 11 3f 7b f4 6c 3e d9 38 76 3e
       -0.23906739 0.5702982 0.23140137 0.24045123
0002f0 70 9a 59 3e 35 b4 96 3d 64 6c d1 3d e7 a9 52 3e
       0.2125032 0.073585905 0.10225752 0.20572625
000300 5e f9 f2 bd 2c 19 58 3e 3b 88 4a 3d f1 e7 d2 bd
       -0.11863969 0.21103352 0.049446326 -0.102981456
000310 01 dd 8c 3c 9a c7 cf 3e 68 17 77 be 96 94 70 3e
       0.017195227 0.4058197 -0.24130023 0.23494181
000320 ca 69 15 3e bc 89 fa 3d 2e 2c 3d 3e 8f c9 dd 3d
       0.14591137 0.12233302 0.18473884 0.1082946
000330 0a 8f 9a 3e 4e 2a 73 3e 7e 0d cc 3d 6e 58 ae 3e
       0.30187255 0.23746607 0.09963511 0.34051841
000340 89 e4 13 3e b4 06 24 3f 0b 59 50 3f f4 00 09 bc
       0.14442648 0.6407273 0.8138587 -0.008362044
000350 a6 0e fb 3d 6a ab 53 3e 2f cf 5f 3d 85 29 59 3e
       0.12258653 0.20670858 0.054640945 0.21207245
000360 d8 ff 07 be c3 7f 2a be 38 e6 3a 3f a9 9b a3 3d
       -0.1328119 -0.166503 0.73007536 0.07988674
000370 5c 6b e7 3e 5b 54 b1 bd 10 98 36 3e f8 b8 08 3f
       0.45199096 -0.08658668 0.17831445 0.5340724
000380 a2 85 cc 3d 84 48 0f 3e b8 96 9e 3c 27 03 85 3e
       0.09986426 0.13992506 0.019358978 0.25978968
000390 33 ca d4 3e 58 ef 92 bd 6d 0d 4b 3e 12 27 d6 bc
       0.41560516 -0.071745574 0.1982934 -0.026141677
0003a0 ee 23 2e be cb a2 cf 3d 6c 2a 83 3e 1d 9a 68 3e
       -0.17005894 0.10138472 0.25618303 0.2271504
0003b0 8b 4a 6b 3e 0f ef e0 bd db 8f 56 3f 05 03 67 3e
       0.22977655 -0.10983097 0.83813256 0.22559746
0003c0 cd 1b ec 3d d2 de 88 3e 00 2e 77 3e 62 f8 20 bd
       0.1152874 0.26732498 0.24138641 -0.039299376
0003d0 84 94 1e 3e f9 49 b8 3e 00 10 da 3e 43 cc 17 3e
       0.15486342 0.35993937 0.42590332 0.14824013
0003e0 86 50 bb 3d 77 85 60 be 1b 24 a2 3d e8 6b 98 3e
       0.09146218 -0.21925913 0.07917043 0.29769826
0003f0 69 55 8d 3e b5 4d cd bc e8 3d 53 3f bb 68 0c 3f
       0.27604225 -0.025061468 0.82516336 0.54847306

bn1.bias f4 [256]
000000 d5 51 9d 3e b4 4b 84 3e 18 4f eb 3d 9c f1 6b 3d
       0.30726495 0.25839007 0.11489695 0.057603464
000010 57 7e fd 3a 9d 37 40 3e 48 1b b8 3c ac fb bf 3d
       0.001934002 0.18771215 0.022473946 0.093741745
000020 84 64 9d 3d 6f ca 89 3a ea 64 22 3d 57 a8 23 bd
       0.076851875 0.00105126 0.03964702 -0.039955463
000030 34 c8 44 ba c1 c5 9c bd 68 fb 5a b9 bc 86 c0 3a
       -0.0007506639 -0.07654906 -0.00020883756 0.0014688591
000040 04 45 14 3d 07 a6 dd 3e 9e 06 c2 3d b2 bd b7 3b
       0.03619863 0.4329073 0.094739184 0.0056073302
000050 63 a2 43 bd 91 e6 27 3d 53 87 9a bd 22 3b 93 3d
       -0.047762286 0.04099137 -0.07545342 0.07189013
000060 e1 61 4e 3d ce d8 21 3e e6 3a 4d 3d 00 bc 8b 3d
       0.050386313 0.1580536 0.050104998 0.068229675
000070 79 eb 07 3c e0 93 dd b9 0f a2 e1 3d 93 67 a7 3e
       0.008295887 -0.0004226258 0.11017238 0.32696208
000080 b8 5b 4e 3b 83 a9 62 3e ee 5b 03 3c 53 4d 92 3d
       0.0031487774 0.22134976 0.008017523 0.07143655
000090 d6 76 a3 3e 98 64 45 3b 4b 48 90 ba b1 99 6e 3d
       0.31926602 0.0030119773 -0.0011007873 0.05825204
0000a0 c6 70 95 3d e1 f9 ce 3c e9 08 3f 3a 52 a6 54 3d
       0.072969005 0.025265636 0.00072873995 0.051916428
0000b0 3c 24 e9 3c 8b ff d2 3e e8 63 71 3e 4f 9e 84 3d
       0.02845966 0.4121059 0.23573267 0.064755075
0000c0 52 65 d7 bc 78 88 64 bc 11 a5 43 bd 24 93 48 3d
       -0.02629343 -0.013948552 -0.04776484 0.04896845
0000d0 6e 57 83 3d 0b 6d c3 39 c1 fb 5d 3d 10 bb 0f bc
       0.0641316 0.00037274542 0.05419517 -0.0087726265
0000e0 dd 67 72 3d b6 0c 62 bd 16 69 11 3e 30 f7 f3 3e
       0.059181083 -0.055187903 0.14200243 0.47649527
0000f0 4a 05 b7 3d 47 03 56 3e 1e 2a 70 3d 1a fa 1d ba
       0.08936556 0.20899688 0.058633916 -0.0006026343
000100 8a a2 a8 b9 8b e5 8a 3c 43 a9 41 3b 0d 21 1a 3d
       -0.00032164558 0.016955158 0.002955035 0.037629176
000110 70 a8 5d 3c d9 bd 13 3d 37 b7 ca 3c b9 7b c0 3c
       0.013528928 0.036069725 0.024745567 0.023496496
000120 e0 1f c8 3d f5 8e 94 3d 29 68 58 3e a3 2b 42 bd
       0.09771705 0.072538294 0.21133484 -0.047404896
000130 b4 11 60 bc 0e 7b 39 3d 29 c7 a1 3e 65 b4 2f 3d
       -0.013676096 0.04528337 0.3159726 0.042896647
000140 d2 a5 7c 3d 56 e9 45 ba a9 c5 40 bc 7c 39 a5 3d
       0.061681576 -0.00075497234 -0.011765876 0.08067605
000150 d8 a3 c9 3d 96 16 ac 3c b4 7e 70 3b a8 ec cf 3c
       0.09845704 0.021006864 0.0036696615 0.025381401
000160 21 de b3 3c 23 62 58 3d 9a b7 ee bb 48 00 0e 3d
       0.021956505 0.052827965 -0.0072850706 0.034668237
000170 35 62 0d 3e e9 d3 f0 bc 6e 4f 87 3d 85 18 a0 bd
       0.13806994 -0.029397922 0.06606947 -0.07817177
000180 43 e9 ca 3a 06 7b 91 3d 76 6d 04 3a 9a ce 2f 3d
       0.0015480894 0.07103543 0.00050517113 0.04292164
000190 fa ee cd 3c ed 53 bc 3e f6 33 b2 3d 87 ad 92 3c
       0.025138367 0.3678278 0.08701317 0.01790501
0001a0 7f d3 3e 3e f9 52 8f 3d 8c 59 db 3d d2 9a 2e 3b
       0.18635367 0.06998248 0.10710439 0.0026642573
0001b0 7e 44 d8 3d 72 39 f6 3a 11 76 22 3d cd 36 52 3d
       0.10559939 0.0018785431 0.03966338 0.051321793
0001c0 ab 24 18 ba 0a bb e5 3d 9e c1 94 3e ce 84 44 3b
       -0.0005803804 0.112173155 0.29053968 0.0029986384
0001d0 b1 5d 1e 3d 2f 46 0b 3d 92 63 00 3e ce e9 bf 3d
       0.03866357 0.03400248 0.12537983 0.093707666
0001e0 e0 75 de ba 1b 1b 97 3d c8 41 b5 3e 93 e7 a0 3e
       -0.0016972385 0.07378217 0.3540175 0.31426677
0001f0 bf f9 af 3d 8c 19 d6 3c d5 14 35 3d 7d 26 32 3d
       0.08592557 0.026135229 0.04420932 0.043493737
000200 da df da bb e8 75 f6 3c 50 63 a5 3b e4 14 00 3b
       -0.006679517 0.030085519 0.0050472394 0.0019543702
000210 a4 02 06 3d 9f 69 92 3c 57 7e 32 3d 90 78 75 3d
       0.032717362 0.01787263 0.04357752 0.05992943
000220 7c 05 a3 3d bf b0 88 ba 45 87 81 3e ac 0b 5b bc
       0.079600304 -0.0010428651 0.25298515 -0.013369482
000230 08 7f 3d 3b b1 0d b5 3b 8e a1 13 bd d6 c7 d5 3b
       0.0028914828 0.005525314 -0.036042742 0.0065240664
000240 7c 3c 7e 3d d4 25 31 3e 72 ee 1a 3d 26 5b 98 3b
       0.0620694 0.17299587 0.037825055 0.0046495376
000250 2e ce d2 bb b9 05 a3 3a 18 ef ea 3c 24 3c ea 3e
       -0.00643327 0.0012437619 0.028678462 0.4574901
000260 0a 22 90 3c 77 0a 65 3e 89 58 32 3b 68 7a 92 ba
       0.017594356 0.22367273 0.0027213416 -0.0011175396
000270 bb 52 9d bd b9 ea 89 3d 37 49 34 3b 44 c4 0a 3d
       -0.07681795 0.06734223 0.002750946 0.03387858
000280 ee 49 21 3d e2 51 02 3e ee 01 3b 3d cb 5e ed 3d
       0.039377145 0.12726548 0.045656137 0.11590346
000290 a7 0d fc 3d f9 28 85 3e 67 b7 84 3c 55 9f 0b 3e
       0.123072915 0.26007822 0.016200734 0.13634999
0002a0 25 1e 18 3e 08 be 8e 3c ef 56 dd 3c 8b 9d 04 bc
       0.14855249 0.017424598 0.027018992 -0.008094202
0002b0 7e 9a c6 3e 9e 8b 07 3e 61 4b 9c 3d 6f d7 f4 bd
       0.38789743 0.13236853 0.07631565 -0.11955153
0002c0 7d a7 db 3c 6f 52 12 3e 6d 53 0b 3e f0 4c 85 3c
       0.026813263 0.14289258 0.13606043 0.016272038
0002d0 c2 39 e6 3d 5c 63 42 3b ff 35 09 bd ca c1 5e 3c
       0.11241485 0.0029661274 -0.03349876 0.013596008
0002e0 34 73 0e 39 b9 df 79 3e de 7a a0 3d 3d 02 82 3d
       0.00013585092 0.2440175 0.07835935 0.06348083
0002f0 e5 11 31 3d 81 d0 2d 3d ff b6 98 3c 13 a6 d4 3d
       0.043229956 0.042435173 0.018641947 0.10383239
000300 b3 18 16 bd 97 a6 d4 3d 4f fd 2a 3b c2 77 52 bd
       -0.03664465 0.10383337 0.0026090925 -0.05138374
000310 19 7f 24 3b 6b 75 1f 3d 32 36 5e bd 86 82 bb 3c
       0.002510017 0.038930338 -0.054250903 0.022889387
000320 da e0 ff 3c 73 28 2b 3d 6a f9 98 3d 73 45 c4 3c
       0.031235147 0.041786622 0.07469447 0.023958897
000330 3c 82 8a 3d c8 bb 8f ba c4 e3 ee 3b 3e 7c 93 3d
       0.067631215 -0.0010965997 0.0072903354 0.07201432
000340 e2 20 30 3d 7d e3 c5 3e d3 24 25 bb 86 43 4f ba
       0.04300011 0.38650122 -0.002519895 -0.0007906485
000350 28 5f 61 3d f2 89 83 3d 7d 27 f4 3b bd 6c 10 3e
       0.05502239 0.06422795 0.0074509964 0.1410398
000360 32 f1 3e bb 49 cf b0 bd 9f b9 10 3e 59 c2 12 3d
       -0.0029135463 -0.086332865 0.14133309 0.035829876
000370 e3 fb 35 bc 73 ff 72 bc 99 53 d6 bc 99 80 bf 3e
       -0.011107418 -0.014831412 -0.02616291 0.374028
000380 7d e7 a2 3a 8c ce 18 3c 4d 75 13 bc 71 e9 84 bd
       0.0012428608 0.009326588 -0.009000135 -0.06489838
000390 9f 8f 04 3e cf eb ba bb 72 a0 a4 3d a2 f9 84 bc
       0.12945412 -0.00570438 0.08038415 -0.016232315
0003a0 90 b1 03 bd 06 f1 ce 3b 02 29 04 3e 10 1a d5 3d
       -0.03215176 0.0063153533 0.12906268 0.10405362
0003b0 5c 87 ba 3d 43 e4 22 bd 8c cf cb 3e 7c 1a b6 3d
       0.09107849 -0.03976847 0.39806783 0.0889177
0003c0 7d 8d 11 bd 1a 08 fb 3d 55 16 6d 3d 18 93 27 3c
       -0.035535324 0.122574046 0.057882626 0.010227941
0003d0 c3 e6 73 3d 35 60 95 3d 05 8d 21 3e df 54 6b 3d
       0.059546243 0.07293741 0.15776451 0.057453986
0003e0 89 9e c4 3c d7 af 6e bd 58 db 79 3c c3 d5 91 3d
       0.024001377 -0.058273163 0.0152500495 0.0712085
0003f0 d5 bb 69 3d c1 26 85 ba c8 37 16 3f 08 e7 85 3e
       0.057063896 -0.0010158644 0.58678865 0.26152825
